project01/first_train/snn_1.pth (torch, 587335 bytes, 10 tensors)

weight f4 [32, 3, 5, 5]
00000000: 4d9e a13b 0cd7 8abd 8d51 02be 17e9 97bd
00000010: 480e a03d ef7a 81bd 9cb8 22bc f8f5 7fbd
00000020: 877c d73d 0d89 cbbb 5ad5 a13d 2f69 c63d
00000030: 0408 703d a3d3 04bd 0c69 87bd d335 c0bd
00000040: 1395 8fbc efa3 9cbd 8f42 2a3d b3af d73d
00000050: adfe d73d 8fa4 87bc b165 d23d 73ea dd3c
00000060: 8ce7 8b3d 889f 933a 0744 5fbd 60db ebbd
00000070: 6b3b d8bd 0db2 f13c deae 3d39 1e42 233c
00000080: 2e17 8b3d b8c2 853c 7061 bc3d ea3d e73d
00000090: 7709 693c 3c95 5b3d 89eb 21bd ff68 293d
000000a0: c319 053d b17c 813d f857 873d e50b e33d
000000b0: e22e 373d 00fd 993c bcc5 c63d 1473 53bd
000000c0: 8e51 21bd ef45 3bbd 8cf5 12bd 3979 a03c
000000d0: fec7 c53d 0967 bbbd 6a9d a23c 221e 9cbb
000000e0: 17f4 a73d 35f5 b5bd b33a 563d ff33 293d
000000f0: 2a3c ce3d 8699 76bd 58bc a4bd dd55 bfbd
00000100: a5d5 c83d 24b6 d63d 0950 333c fad8 fa3d
00000110: 0fdf 17bc c3ba c2bc 46ff 033e 7d8f 303d
00000120: c45e 6cbb 3c3a d23c 016e 203d 49a4 79bd
00000130: ff09 ea3d bb6f 9cbd 404b 9b3d 0cea 043d
00000140: b689 233d 8aad 82bd d6c4 603d e85b 20bd
00000150: 5016 bb3c 1569 0a3e 6db3 253c 8409 63bd
00000160: 251e eabd d16c e3bc 02ea cc3d cf4e 19bc
00000170: 785e 913d 7c17 8abd 359b e23d 5032 d33d
00000180: 5918 713d ee26 25bd 9bce e8bc 07ee 003e
00000190: fe07 ec3d 63e4 85bd 7e6d 293d 14b3 503c
000001a0: de19 de3c 4f31 983d 40d9 023d 80b1 9a3d
000001b0: e7a6 773d 2f91 5b3d a188 333d 50e1 103d
000001c0: ced5 0b3c e6f2 d6bd bc84 c33d 34d5 863d
000001d0: 9802 9fbd 91bf 9cbd eb22 b53c b954 9f3d
000001e0: 9583 9cbd 6569 d03b bf8b 353d b8e5 d43d
000001f0: 8d9e 6cbb 3d4c ffbd c8f7 7fba d6bc 3dbd
00000200: 15d0 adbd ca54 92bd 9993 8cbd 6340 9c3c
00000210: 2e56 dcbd f549 c5bd e443 1bbd 10a3 b83d
00000220: d665 a03d ca70 f1bd 61e9 dabd a12f fcbc
00000230: fff7 edbc 8190 c2bd 561e a1bd c214 81bd
00000240: 7988 353d 43ed c8bd 14f4 fdbd 5f32 25be
00000250: 61b0 88bc c2a8 9e3d 604f 40bd 1d49 43bd
00000260: d12a 333c 9d5d 25bc c20b c8bd 07a7 4fbd
00000270: 1f1d 9b3c 28b6 fe3c 23f4 55bd 7df5 703d
00000280: fa15 e8bc 8e4a d43d a3b7 a53d 727a 8bbd
00000290: 8955 9a3c 309b df3d 88b0 e03d ab0a 043d
000002a0: 2a48 a53d 5d4a d1bd d81e 89bd 8dc6 29bc
000002b0: 181e 30bd 77ba 9cba 4f66 803c 8bfe e13d
000002c0: 47e4 983d a64e ab3d 1499 823d af9e 06bc
000002d0: fbaf 0a3c bed6 45bd d9f8 65bd 736f 583d
000002e0: bb3b 54bd 607b 673d 4df1 9b3d eae4 893c
000002f0: 1d0a 51bd 5cd3 463a 22d8 843d d35d cc3d
00000300: c5fb 7dbd 438d d63d ccfe b33d d826 b2ba
00000310: 85c1 1cbd b26a cebd c40b 85bd d251 fa3c
00000320: 9b81 973d a5fb 61bd 4fe9 a3bc f209 e0bd
00000330: f621 d13d cf53 acbc bf25 ddbd 6072 dbbd
00000340: 836f 2d3c d727 d9bd e1df d73d 3455 323d
00000350: 5ea2 bf3d a759 c13c c6bb d33d 1373 4d3d
00000360: e0dd 7dbd e8c8 653d 367a 5e3d 4936 f63c
00000370: 72b1 8cbd 9524 b6bc 7812 323d b9aa 113d
00000380: 8542 b23d d987 a1bd a3d5 703d ce2e 6abb
00000390: 63bf 5e3d e466 0abc ed36 543d c9cb 333d
000003a0: b43c a2bc 85e7 af3c 220a a33d b360 3c3d
000003b0: ef47 f4bd 7d72 ca3d 283c 123c 295b d8bd
000003c0: 5e4f aa3c a389 4dbd c393 5e3c e806 363d
000003d0: a71f 963d 65ae 3ebc 2d8b 393d eb6f 823d
000003e0: 6ffa 6d3d 6544 e03c ac0a 97bc f5f0 dc3c
000003f0: 6ff1 3dbd bbd8 60bd c8ed 6c3d 4df9 913d
0.004932201 -0.06779298 -0.12726422 -0.07417505 0.07815224 -0.06322276 -0.00993171 -0.062490433
0.105217986 -0.006211406 0.07902022 0.09688031 0.058601394 -0.032428395 -0.06611833 -0.09385266
-0.017527139 -0.07648455 0.04156738 0.10531559 0.105466224 -0.01655796 0.10273302 0.027089333
0.068312734 0.0011262754 -0.054508235 -0.11516452 -0.10558208 0.029503847 0.00018089588 0.009964494
0.067915305 0.0163282 0.09198272 0.11291106 0.014223448 0.053609118 -0.039531264 0.041359898
0.03249527 0.06322611 0.066085756 0.11086253 0.044722445 0.018797398 0.097056836 -0.05162342
-0.039384417 -0.04572099 -0.035878703 0.019589053 0.09657286 -0.09150512 0.019850451 -0.0047643343
0.08200853 -0.0888466 0.052302074 0.041309353 0.10070069 -0.060205005 -0.08043736 -0.09342549
0.098063745 0.10483959 0.010944375 0.12248416 -0.00926949 -0.023770696 0.12890348 0.04310559
-0.0036067227 0.025662534 0.039167408 -0.06094769 0.11427688 -0.076384984 0.07582712 0.032449767
0.039926253 -0.06380756 0.054875217 -0.03915015 0.022837788 0.13516648 0.010113579 -0.055428997
-0.11431531 -0.027761849 0.10005571 -0.009357168 0.070980966 -0.067427605 0.1106476 0.10312331
0.05886111 -0.04032033 -0.02841883 0.125908 0.11524962 -0.06537702 0.041364186 0.012738008
0.027111944 0.0743128 0.031945467 0.07553387 0.060461905 0.053605255 0.04383147 0.035371125
0.008534862 -0.10495548 0.095468014 0.06583634 -0.077641666 -0.07653726 0.022111377 0.077798314
-0.07642285 0.0063602203 0.044322725 0.10395378 -0.0036105246 -0.12465713 -0.00097644003 -0.046322666
-0.08486954 -0.071450785 -0.068640895 0.01907367 -0.10758625 -0.09633247 -0.037906542 0.09015477
0.07831924 -0.11789091 -0.10689045 -0.03078443 -0.029048918 -0.09500218 -0.07867114 -0.06302787
0.044319604 -0.09810879 -0.1240007 -0.16132496 -0.016685667 0.07747032 -0.046950698 -0.047677148
0.010935501 -0.01009312 -0.097678676 -0.0506964 0.018934784 0.031092718 -0.05223478 0.058827866
-0.028330792 0.10365783 0.080916665 -0.06810464 0.018839614 0.109182715 0.10971171 0.032236736
0.08070405 -0.10219262 -0.06695336 -0.01036228 -0.04299745 -0.0011957426 0.015673785 0.11034878
0.074654154 0.083646104 0.063768536 -0.008216544 0.008464809 -0.048300497 -0.056145523 0.05284066
-0.051814776 0.056514144 0.07614384 0.016832788 -0.051035035 0.00075845956 0.064865366 0.09978833
-0.062007684 0.10476162 0.08788833 -0.0013591899 -0.038270492 -0.10078944 -0.06496385 0.030556593
0.07397767 -0.055171628 -0.020008711 -0.10939397 0.10211556 -0.021036057 -0.10798215 -0.10715175
0.0105856685 -0.10603302 0.105407484 0.043538287 0.09357141 0.02360232 0.10338549 0.05015857
-0.061979175 0.056099802 0.05431577 0.030055182 -0.068697825 -0.02223424 0.043474644 0.035563204
0.08704094 -0.07887239 0.05879749 -0.0035733464 0.05438174 -0.008447383 0.051810194 0.043895517
-0.019804336 0.021472702 0.07960917 0.045990657 -0.11927783 0.09885118 0.008925475 -0.105642624
0.020789798 -0.05018009 0.013585034 0.04444018 0.07330256 -0.011638259 0.045298744 0.06369003
0.05810016 0.027376363 -0.018437706 0.026970366 -0.046372827 -0.05489419 0.057843953 0.071276285

bias f4 [32]
00000000: 7b86 d0bd 064f 0d3e 7b01 d93c 1f14 45bd
00000010: f0c0 28bd e57d 013d 66bb 94bd e84d 483d
00000020: 47f5 85bd fd3f 923d 0ad8 5d3c 23b6 113d
00000030: 7420 043e 635c a83d 993b a1bd d009 9c3c
00000040: 53ad 93bd 7894 4939 c0e2 943c be6b a6bd
00000050: 2867 ebbd 0bca 543d 0e5a b53b 20ae fa3d
00000060: 5c92 863d a6f2 bb3d 4a0b 243d f98d 273e
00000070: 4323 27bd ab17 8abc 600b 09bd 7a20 803d
-0.101819 0.13799676 0.026489964 -0.048114892 -0.041199625 0.031614203 -0.07262306 0.048902422
-0.065409236 0.07141111 0.013540277 0.03557409 0.12903005 0.08220746 -0.078726955 0.019047648
-0.07210793 0.00019224163 0.01817453 -0.08126019 -0.11494285 0.051950496 0.005534417 0.12240243
0.065708846 0.09177141 0.04004983 0.16362752 -0.040805113 -0.016856989 -0.033458114 0.062561944

weight f4 [32, 32, 5, 5]
00000000: ef46 8cbc 02e9 eeba 1222 e33c 00bd a13b
00000010: 723e 1bb9 d2eb b4bc e309 04bc b216 bfbc
00000020: 85a0 ccbc 8453 b73c 847a 00bd d0d4 eabc
00000030: 00b3 1fbd 3b98 cfbc 2915 e53b 10f3 943c
00000040: 6ecf 6c3c 543f b63c e8fb 1bbd c292 e6bb
00000050: 280d 6abc ee06 c53c 393d 11bc 2e62 18bc
00000060: 619d 13bd c3df 803c 6901 d9bc d0f6 d73c
00000070: 41cf 13bc a18b 54bc feda a33c a0dd f7bc
00000080: 2bdd e0bc e8dd f93c 671d 143d 5b82 fb3c
00000090: afd7 83bc 14d6 37bb 1281 d53c 392f 60bc
000000a0: 1884 0fbd 7c68 91bc 2b6b 7abc fce4 f1bc
000000b0: dc57 d3bb 46f3 41bb b33b 3d3c d45b 953b
000000c0: f8c7 0f3d 174b 333c ea71 bfbc 46f3 193c
000000d0: d460 633c 126e a9bc 0a7f 2e3d ef1d d23b
000000e0: 999f 9dbc 247f 9bbc 20ea 033d dca1 963c
000000f0: 6a18 e8bc 4fe3 afbc 5432 72bb 6111 8bbc
00000100: 8fa2 1ebb 7b79 8cbc 9778 d53c 802d 233c
00000110: 5314 13bd ab9b bebc c72f a33c f339 d0bc
00000120: 127b d93a a81d 6239 2625 f23a 7df6 97ba
00000130: 1e69 813c 994a 093d 0d2f 093d 9681 203d
00000140: 2d4c ecbc ac3b 9d3c a822 d1bb 995c 77bc
00000150: e734 fcbb 8f3b 09bd 3a3d f93c b004 873c
00000160: 3e04 063d df32 b4bb f277 983c 11cc ac3c
00000170: c5da c5bb 0003 003d fb98 10bd ceb7 353b
00000180: 1628 1bbd 8f04 52bc f3e4 793c 8407 1fbd
00000190: 5154 8f3c 3544 e83c a88e 3a3d d9a5 293d
000001a0: bf5d df3c 8d06 7c3b d9c5 e5bc 2775 183c
000001b0: a168 943c efdd 97bc 8af9 f13b a119 c6bc
000001c0: d3f4 2f3c b1b7 cd3c 4c8f ddbb a0c0 58bb
000001d0: a64f 1e3c fdd5 bc3c 9c11 80bc 0e1d e33c
000001e0: c0b7 aebc 51e3 94bb 86ab c33c 5218 f53c
000001f0: a4f4 a0bc 7770 f8ba 09f3 b23c f475 123d
00000200: 1334 56bb 1764 043c e4d0 5cbb 4e95 d73c
00000210: 9ae6 3a3c c477 793c 981e 363b 6ff8 c53c
00000220: 272b 2dbc 9478 5d3c 21f3 083d 2e60 d6bb
00000230: af55 c03c c5b5 9a3c 56b6 abbc 5c4e 00bc
00000240: fa44 ac3c c92b 04bc 2826 ed3c bca0 fabc
00000250: 7fac 2bbc 1a61 a5bc 58a3 dfbc 7d38 58bc
00000260: e3c0 60bc 2545 aebc 8ebe 2c3a fbf2 fc3c
00000270: 066f e7bc b756 883c 5e34 a33b d470 04bd
00000280: 1545 dcbc 41c7 c83c 2305 ea38 8ede e5bc
00000290: 8f9a 06bd e0aa ddbc 6a0d fb3c c489 643c
000002a0: fac6 c83c 4a4b 9c3b c700 00bc eb04 10bc
000002b0: 7558 00bd c4be e6bc aa84 a13b 4f0c 043d
000002c0: ef5f 9a3c caaa abbc 81eb cfbb fc64 233c
000002d0: da43 e1bc e09f c63b aa47 a6bb c169 093d
000002e0: 7233 7cbc 3581 0f3d 6148 3c3c 52e7 fd3b
000002f0: 7fdb 033b d542 d4bc 3392 043d 66d5 183c
00000300: c180 c03c 8d75 0f3d 7d15 a33c 13e3 393c
00000310: 4bc7 fa3c 1f60 c1bb b1f3 8a3b 153a 71bc
00000320: 95a1 c3bc 1c3a 68b9 aa58 ce3c f780 01bd
00000330: 755d fe3c 0cd7 ad3c e342 783c 2f0a d8bc
00000340: 1546 e6bc 4c08 183d b7af a73c ddba 363d
00000350: 63e8 e73c 0d3f d13b 3c53 8fbc 2f48 c63c
00000360: c386 30bc cb4b 97bc 88b6 793c b5b0 91ba
00000370: fb60 273d bf1d 6b3b a980 b0bc 4b2f 0c3d
00000380: 64b4 343a 1807 14bd 7e3c bbbc b6ab 82bb
00000390: ca28 d0bc 7e3e 0abd 8a2f 81bc 4f6c fa3b
000003a0: 5a53 0cbd 9eba 4fbc 7cec a13b b544 bfbc
000003b0: f4ae 5c3b 3357 2d3c f635 e4bc c5c5 aebc
000003c0: 1dae f6bc 7e86 e3bc 1879 db3c 9ae8 b43c
000003d0: 97fb 17bc 587f c33c 635a 113d 217a 18bc
000003e0: 9068 05bd 0acb d63c b4f1 3e3c 2f04 6fbc
000003f0: 6d8d 763c 11c8 193d 7271 9fbc 142f a03c
-0.017123668 -0.0018227401 0.027726207 0.0049358606 -0.00014805215 -0.022085104 -0.008058998 -0.023326252
-0.024978885 0.02237869 -0.03136684 -0.02866593 -0.038989067 -0.025341144 0.006991048 0.018182307
0.014453752 0.022246994 -0.038082033 -0.007036538 -0.014285363 0.024051156 -0.008864694 -0.009300752
-0.03603876 0.015731698 -0.02648993 0.026362807 -0.009021581 -0.012972743 0.020001885 -0.030257046
-0.027449211 0.030501321 0.036160853 0.030701807 -0.016094057 -0.0028051184 0.026062522 -0.013683134
-0.035038084 -0.017750017 -0.01528434 -0.029528134 -0.0064496826 -0.0029594465 0.011549878 0.004558066
0.035102814 0.010943196 -0.023369748 0.00939638 0.013878066 -0.020682368 0.042601623 0.00641226
-0.019241141 -0.018981524 0.0322057 0.018387727 -0.028331954 -0.021470694 -0.0036956267 -0.01697606
-0.002420578 -0.01714777 0.026058478 0.0099595785 -0.035908055 -0.023267588 0.019920243 -0.025418257
0.0016592464 0.00021564087 0.0018474206 -0.0011593845 0.015797194 0.033518407 0.033492137 0.039186083
-0.028844917 0.019193493 -0.006382305 -0.015097761 -0.007696736 -0.033504065 0.030424703 0.016481727
0.03271889 -0.0054992284 0.018611882 0.0210934 -0.0060380423 0.03125286 -0.035302144 0.0027727964
-0.037880026 -0.01281847 0.01525234 -0.038825527 0.01749626 0.028352836 0.045546204 0.04141793
0.027266381 0.0038456053 -0.028048443 0.009305275 0.018116297 -0.018538443 0.0073844837 -0.024182143
0.010739523 0.025112005 -0.006761467 -0.0033073798 0.009662544 0.023051256 -0.015633397 0.027723815
-0.021327853 -0.0045437 0.0238855 0.029918823 -0.019647904 -0.0018954416 0.021844404 0.03575702
-0.0032684847 0.008080504 -0.0033693844 0.026316311 0.011407519 0.015226308 0.0027789231 0.024166314
-0.01056937 0.013517518 0.03343499 -0.006542227 0.023478357 0.018885503 -0.020960968 -0.007831182
0.021028984 -0.00806708 0.028948858 -0.030594222 -0.010478138 -0.020187903 -0.027299568 -0.013197062
-0.013717863 -0.021273205 0.0006589674 0.03087758 -0.028251182 0.016642911 0.004980608 -0.032334164
-0.02688841 0.024509074 0.00011158946 -0.028060224 -0.032862242 -0.027059019 0.030646045 0.0139488615
0.024508942 0.0047697173 -0.007812685 -0.008790235 -0.03133436 -0.028167136 0.004929145 0.0322383
0.018844573 -0.020955462 -0.006345213 0.009972807 -0.027498174 0.006061539 -0.005074461 0.03354812
-0.015393125 0.03503533 0.011491866 0.007748523 0.0020119844 -0.025910774 0.03236599 0.009328222
0.023498895 0.035024215 0.019907707 0.011345643 0.030612608 -0.005901351 0.004240476 -0.0147233205
-0.02388076 -0.00022146892 0.025188763 -0.03161713 0.031050423 0.021220706 0.015152666 -0.026372043
-0.02810959 0.037117288 0.02046953 0.0446118 0.028309053 0.00638569 -0.017495744 0.024204342
-0.010774317 -0.018468758 0.015241273 -0.0011115285 0.040863972 0.0035875884 -0.021545725 0.03422479
0.00068933354 -0.036139578 -0.022855993 -0.0039877547 -0.025410075 -0.033751003 -0.015769739 0.007642306
-0.034259178 -0.01267877 0.004941521 -0.023348192 0.0033673616 0.010579872 -0.027857762 -0.021334538
-0.03011232 -0.027774092 0.02679114 0.02208357 -0.009276292 0.023864433 0.03548659 -0.009306462
-0.03257042 0.026219863 0.011654306 -0.0145884 0.015048367 0.037544314 -0.019463275 0.019553699

bias f4 [32]
00000000: ff1b 163c baae f3bb ba46 a13b e3be 86bc
00000010: aac9 17bd 8b4f 053a 4fd2 92bd f3d8 4abc
00000020: af4c 50bc 982a b1bc f4f0 263d e66a 163c
00000030: 792b 71bc b1fc 67bc 98d5 263d 69b7 a7ba
00000040: 1772 ca3c 1f57 123d 266c b2bc c2e0 bbbc
00000050: b532 ef3c ebd2 2a3d 2471 bfba cf62 da3c
00000060: c796 b93c 3921 97bc ac28 cfbc 969b 07b9
00000070: a2c6 1ebc 3031 a2bb 0978 27bb bacd 38bc
0.009161948 -0.0074366005 0.0049217613 -0.016448444 -0.037057556 0.00050854 -0.071690194 -0.012380826
-0.012713595 -0.021626756 0.040757135 0.00918076 -0.014719837 -0.014159367 0.040731043 -0.0012795749
0.024712605 0.035727616 -0.021780085 -0.022934321 0.029198984 0.041705053 -0.0014605862 0.026658444
0.022654904 -0.018448459 -0.025287949 -0.00012932564 -0.009690912 -0.0049497113 -0.0025553724 -0.011279518

weight f4 [64, 32, 5, 5]
00000000: a73d 95bc cd77 61bc 4c27 153c e94f cf3c
00000010: 560d 81bc 3754 3a3c 1647 093d 6e31 d0bb
00000020: cde1 cb3b 6853 bbbc 4b1b ab3c c899 a43b
00000030: 71f6 e83c 9043 233d 87a4 08bc 9468 ac3c
00000040: 8c48 2b3c 01ab 3fbb 248f b7bc f6e3 a8ba
00000050: 72c2 81bc 2704 2ebc 98c0 af38 6916 9abc
00000060: a96f 30bc d0e8 14bd 8d8e be3b b4dd ffbc
00000070: 7c19 b83a f97b b83c ee98 87bc fcc4 0d3b
00000080: cb20 3c3c 46c4 6fbc bfc2 ffbc 3d74 cebc
00000090: 7f62 4abc 19c2 f5bc 7d7d afbc 3a61 56bc
000000a0: 1bfe 0c3d b61b 843c 1173 b33c 1a18 15bc
000000b0: 0e03 f5bb 3f2e 9c3c f07d 913c ab39 dc3c
000000c0: 5ed3 bebc 355e 003d 993b 6cbb 848c 94bb
000000d0: fe2e d53a d68c 493c a4a8 0b3c 1151 69bc
000000e0: 9722 023d 68e7 b53c c588 0bbc 58f3 013d
000000f0: 9db4 a9bc cfbd c7bc 3613 b6bb c9d6 ba3c
00000100: 4b57 32bb 1559 fc3c b494 d7bc 063d c33c
00000110: 323d fa3a b345 17bc bc05 cf3c bc8e f8bc
00000120: 1a78 e3bb 4a65 233c cd4e 873c 409b 93bb
00000130: 26d7 2abc e76b d4bc 4602 d2bc 88c7 e7bc
00000140: 21d7 c63b 4fc3 b93c aa87 f53c ca11 23bd
00000150: 227b 8d3c 26c2 eebc 9d22 233c 573d 8f3c
00000160: ac21 afbc 7da2 88bc 7f5b a53b 9000 e8bc
00000170: 64a9 bbbc 8444 8c3b ef59 76bc 1c79 f93c
00000180: 1098 89ba d748 f1bc 4baf 5fbc 3250 63bb
00000190: cbdd f53c 5f73 fdbb 0da6 a9bc 61e6 09bd
000001a0: 53c4 823b ab2c 95bb b393 ee3c 1e1e d73c
000001b0: 9376 e63c 5a65 423c 1307 80bc df19 0c3d
000001c0: 8ebd 6cba c0ed c53c baf0 f53c 0317 b83c
000001d0: 341e 8d3c 412b 99bb 38cf 3f3c 8149 f5bc
000001e0: b188 cdbc 4bce 093d 0168 a6bc e245 a93b
000001f0: e804 c43c ebbe b0bc ab72 ef3c d110 593c
00000200: 6847 dabc f633 d0bc 8664 d8bc 2b8f 343b
00000210: 43eb 2c3d 7f9c fe3c ef74 023c b2d6 343c
00000220: f309 933c af38 e0bc bc4d 113d 6702 d03c
00000230: 0411 a63a 6003 93bc d062 0b3d 9f03 2bb9
00000240: 355b b33a 5ed8 d1bc 5761 a3bc a0b3 31bc
00000250: 5d6c f5bc a918 d53c 38b4 12bc c275 fe3c
00000260: 89e8 ea3c bc1c 14bc 2476 f53c f519 bbba
00000270: 6333 903c 1638 363d 63af b53c 4223 2b3c
00000280: 8209 05bd 2ea3 b8bc 785f 80bc 21b9 123d
00000290: e5af 103d 704a 0ebd 2696 df3c a5dc dabc
000002a0: 2ce3 a13a 29b1 7dbb e832 c73c 2ca8 ea3c
000002b0: fa6c 81bc 8012 f93c 9451 3c3c 6cd9 b5bc
000002c0: 01f4 0a3c 53c0 eabc 05a7 1e3c 8641 403c
000002d0: 260f 0c3d b496 253d b21f 0f3b 74e5 c2bc
000002e0: 7bc7 c53b c444 4139 99da 07bc b543 073d
000002f0: 2b9e 1f3d ebf4 a0bc 9d50 eabc 3daa 0d3d
00000300: 27ed 063d 79c4 adbb 79b5 0a3c 921c 86bc
00000310: 5a0e 963c 0a3e bebb c068 d13b 4b53 d5bc
00000320: c4dc 5fbc 4596 b53c 356b 843c e421 d6bb
00000330: e96b 423c e6ba acbc c38f 133c ec0b f1b9
00000340: 76c4 0e3d c692 133d 4611 91bc c271 19bc
00000350: 6543 58bc 6404 3ebc 7e94 b7bc 6467 87bc
00000360: 88e7 c43b 66b9 493a 85f3 c7bc 69ab 4cbb
00000370: c669 10bd 0631 fd3c 1805 babb ba25 c43c
00000380: 2f12 a4bc 7c95 ce3c 9fba 96bb 568f d43c
00000390: d7b7 a33c af6c f93c 62b8 633c f1a9 16bc
000003a0: 64a1 a6bb da93 2d3c f4ca 513c 62a9 e03c
000003b0: a17b fe3c 6d85 b8bc bc39 40bc 614a 6cbc
000003c0: 9a46 cebc 8ae0 dd3a 1ec5 03bd 1980 063c
000003d0: eaf3 133c 6830 09bc 7bd8 3739 cd8b 8fbc
000003e0: e752 323c e448 e7bc 7355 f8bc 0eab 68bc
000003f0: 0eae 05bd b68c 2fbc deeb ffbc 1c39 ec3c
-0.018217875 -0.013761473 0.009103607 0.025306659 -0.01575343 0.011372617 0.03351506 -0.0063535487
0.006221986 -0.02286692 0.020887038 0.005023215 0.028437825 0.039859354 -0.008340008 0.02104596
0.010454308 -0.0029246213 -0.022407122 -0.001288532 -0.015839789 -0.010621107 8.380524e-05 -0.018809514
-0.010768809 -0.03635484 0.005815333 -0.031233646 0.0014045681 0.022520052 -0.016552415 0.0021632304
0.011482428 -0.014634198 -0.031220792 -0.025201911 -0.012352585 -0.02999978 -0.021422142 -0.013084704
0.03442202 0.016126495 0.021905454 -0.009099985 -0.007477171 0.01906502 0.017760247 0.026882967
-0.023294147 0.031339843 -0.0036046265 -0.0045333523 0.0016264615 0.012301644 0.008524094 -0.014240519
0.03177127 0.02220507 -0.008516495 0.03172621 -0.020716006 -0.0243825 -0.0055564893 0.022807496
-0.0027212675 0.030804196 -0.026316024 0.02383281 0.0019091724 -0.009232926 0.025271289 -0.030341499
-0.0069418075 0.00997288 0.016517067 -0.004504591 -0.010427272 -0.025930358 -0.02563585 -0.028293386
0.006068126 0.022676138 0.029971916 -0.039811887 0.017270628 -0.029145312 0.009956983 0.017485304
-0.02137836 -0.016679043 0.0050463076 -0.02832058 -0.02290792 0.0042806286 -0.01503609 0.030453257
-0.0010497589 -0.029453678 -0.013652633 -0.0034685251 0.030012986 -0.0077347006 -0.020709062 -0.033666972
0.003990689 -0.004552444 0.029123163 0.026259478 0.028132712 0.011864984 -0.015628373 0.03420436
-0.00090309314 0.02416122 0.030022014 0.02247191 0.017226316 -0.0046743457 0.01170712 -0.029942276
-0.025089594 0.033644002 -0.020313265 0.0051658014 0.02392812 -0.021575412 0.029229483 0.013248638
-0.026645377 -0.025415402 -0.02641512 0.0027551155 0.04221655 0.031080483 0.007962449 0.0110375155
0.01794908 -0.027370779 0.035474524 0.02539177 0.0012669866 -0.017945945 0.03402978 -0.0001630918
0.0013683798 -0.025615867 -0.019943876 -0.010846049 -0.029958898 0.026012735 -0.0089541 0.03106201
0.028675335 -0.009040054 0.02996356 -0.0014274704 0.017602628 0.04448708 0.022178357 0.010445418
-0.03247977 -0.022538748 -0.015670523 0.035821084 0.035323996 -0.034738958 0.027293276 -0.02671654
0.0012351028 -0.0038710332 0.024316266 0.028644644 -0.015799034 0.03040433 0.011494059 -0.022198401
0.008481027 -0.02865616 0.009683375 0.011734372 0.034194134 0.040426925 0.002183896 -0.023791052
0.006035743 0.00018431531 -0.008291864 0.033023555 0.0389692 -0.019648036 -0.028602893 0.03458618
0.03294101 -0.0053029624 0.008466118 -0.016371045 0.01831739 -0.0058057355 0.006390661 -0.026040694
-0.0136634745 0.02216638 0.016164402 -0.006534802 0.011866548 -0.021085214 0.009006443 -0.00045975985
0.03485533 0.036028646 -0.017708432 -0.009365501 -0.013199662 -0.0115977265 -0.022409674 -0.016528793
0.006009046 0.0007695168 -0.024408111 -0.0031230098 -0.035257123 0.030907165 -0.0056768768 0.02394377
-0.020028202 0.025217764 -0.0045998837 0.025947254 0.019985123 0.030447332 0.013898941 -0.009195791
-0.005085157 0.010594333 0.012804735 0.027424518 0.03106481 -0.02252456 -0.011732515 -0.01442203
-0.02518015 0.001692788 -0.032170407 0.008209252 0.009030322 -0.008373357 0.00017532885 -0.017522717
0.010884023 -0.028233 -0.030314183 -0.014200939 -0.032636695 -0.0107147 -0.0312404 0.028835826

bias f4 [64]
00000000: fb2e 02bc 59fa 46bd cd4e 883c c9ae d2bc
00000010: 1691 8abc 5ec1 54bc 2cda b6bc 6991 d5bc
00000020: 50b5 16bd 39b1 c4bb f517 78bc 593e 8fbb
00000030: 025c 03bc f2ce 283b 17cf b8ba 326a 3fbb
00000040: 96bc 98bc 954d 13bd 5a78 edbc 8952 97bc
00000050: e5c5 b0bb 221d 0ebd fadf 073c 00e2 02bd
00000060: ce74 0e3c 4040 7c3c 863d 413d c170 39bc
00000070: 08f0 17bd b6ad 413c c4a1 de3c 6232 0bbd
00000080: de12 15bd e72b 543b c8e8 cd3c 85fd 033c
00000090: 02ba d7bc 19cd 99ba 5811 253c d82b 113c
000000a0: 882a ac3c 043a eb3a 7f8c 173a 795a 1d3d
000000b0: f60c 02bd 29ba 16ba 8a69 31bc 45d3 18ba
000000c0: b136 a5bc 6c09 8a3b 5da5 3cbd e6ee 6f3b
000000d0: 8330 a53b eee5 08bb d4e9 fe3c c7fd 88bc
000000e0: d1f5 323c d4a7 1cbb 9789 00bd ac28 17bd
000000f0: aa1b 36bc f064 7f3c 9678 b33c 40a9 cabc
-0.007945771 -0.048578594 0.016639138 -0.02571811 -0.016914885 -0.012985555 -0.02232083 -0.026070314
-0.036794007 -0.006002572 -0.015142431 -0.004371446 -0.008017542 0.0025758115 -0.0014099804 -0.0029207584
-0.018644612 -0.03596266 -0.028988052 -0.018471973 -0.0053946846 -0.034695752 0.008293146 -0.03195381
0.008694841 0.015396178 0.047177814 -0.0113183865 -0.037094146 0.011821201 0.027176745 -0.033983596
-0.036394946 0.00323748 0.025135413 0.008056049 -0.026333813 -0.0011734097 0.010074936 0.008860551
0.021016374 0.0017946367 0.00057811284 0.03841636 -0.03175064 -0.0005749786 -0.010828385 -0.00058298215
-0.02016768 0.004212549 -0.04605614 0.00366109 0.0050411834 -0.0020889002 0.031117357 -0.016722573
0.010922865 -0.0023903744 -0.031381216 -0.036904022 -0.011114994 0.01558803 0.021908086 -0.024738908

weight f4 [64, 1024]
00000000: 56e6 2bbc 5363 78bc bfc8 96bb d802 803c
00000010: 95b3 d33c c688 d13c ee4c 863a 93fa 9f3a
00000020: 001b b33c bef2 c03c c0ed 06bd b9fd b7ba
00000030: 073a dd3c 41e0 09bc 97d0 0cbb 252b b03c
00000040: c248 bebc afe9 de3a c1b6 803c 38ef 753c
00000050: 218c 92bc eaeb 8f3b f05c 9b3c f6ce b73c
00000060: 19b3 263c 804b 1ebc be3b e4bc 91f5 e8bc
00000070: f946 d93c a700 16bc 16c3 643b 5b04 b3bc
00000080: 317c b8bc 5784 253c 25c3 8abc c04e a9bc
00000090: ef54 65bb 7f29 40bc a35a 31bc 3fa4 e9bc
000000a0: 7626 843c b60d 1abc b5d8 bbbc 5abe 943b
000000b0: 2c97 c13b 3360 a93c 422d f93b 0c43 9bbc
000000c0: 184b 863c 1c01 813b 748e a6bc c822 dd3c
000000d0: b7de 453c b0b4 78bb 4cf6 183d 0fa2 82bc
000000e0: 7202 54bc 96c8 6bbc b19d bd3c eaaa bd3c
000000f0: aced 8b3c c43e a0bb 343f ec3c 3f6d 95bb
00000100: dfa2 a0bc cede 373c 9974 eeba 1559 cbbc
00000110: 6805 21bc d308 67bc cb34 11bd 7fa5 ddbc
00000120: 2bdd 093d 7844 e0bc cefc 3f3c c5a8 a33c
00000130: 923c 06bd 6a7d a4bb d686 483c e75d ee3b
00000140: b256 c6bb 6635 3f3c 672c abbc 392b 0c3b
00000150: 783e 1fbd 1c2a d5bc 0333 59bc d56b bd3c
00000160: 2932 a73b 22cd a4bc 273a 04bd 2684 533c
00000170: 4eec 04bd 45d9 05bd b06d a53c 5c09 eabb
00000180: bc99 ce3c f9ab 7e3c 414b 57bc a013 e73c
00000190: b419 cabc d188 29bc 012f 9e3c de06 eabc
000001a0: 5bb4 803c f2d8 da3c bb4a 00bc 5ab7 3abc
000001b0: b413 e7bc 1615 0abd a47a 6b37 3446 b8bc
000001c0: 043c 3f3c 1e1e 873b e224 1cbc 4660 003d
000001d0: 28d8 dd3c feb8 6c3c ed7a a7bc 5650 e63c
000001e0: 9d2f bb3b 9f8d 60bc 5402 943a 4379 92bc
000001f0: da3e c5b9 ec52 4d3c 559d aabc 3dd3 943c
00000200: 916a d9bb 6c08 4bbc 5faf cabc 41ab dabc
00000210: 2d2a de3b dd61 a53a 4031 cfbb 7f1c c73c
00000220: 4cb1 023c c10b 9e3b f618 483c 670f 483a
00000230: 3d8a 2b3a 7163 6c3c 434d 4ebc cc63 f13c
00000240: 568d 683c 05ef f53b ca97 01bd e5d6 f2bc
00000250: d423 903c 5575 c13c 25a0 b63c 96ce 9abc
00000260: 2810 c83c 74b6 8dbc 7c74 cebb a0d7 9dbb
00000270: 28a6 4eba fc10 523c 384b 143b c0bb bf3c
00000280: 13f4 6dbb 456e 80bc 6d60 e2bb 97f4 d33c
00000290: a3bb e7bc dad5 6a3c 9a24 b4bc 63e0 8f3c
000002a0: eca1 34bc 7aab ebbc ad7f 393c d3eb 1e3c
000002b0: c394 e03a f70a 97bc f32c d6bc b781 e73c
000002c0: 178f adbc e80e eb3a b2d1 b53c 37c1 c2bc
000002d0: e55b 95bc d352 a3bc f07c 073d 2247 c8bc
000002e0: bd44 023d 133e fd3c 0627 983c 04a0 b2bb
000002f0: 3d2e dfbc 0a4e afbb bb21 ca3c 6ca0 c3bc
00000300: 1783 953c 8bb2 343c 1cbf ecbc c591 e53c
00000310: 1f9b 03bd 5ae6 90bb 269b 123c cab8 6e3c
00000320: b3cd a13c 43c2 c43c cf20 04bc 8b3d 63bc
00000330: 7b3b bf3c 8e34 a63c 85d6 b5bb 857e d0bc
00000340: 2cee 203c e398 0fbc 94fb 42bb e06d 4dbc
00000350: 3501 f43b 78e5 03bc dfa2 803c c43c 34bb
00000360: a59a d1bc b26e 0e3d d4f8 81bc c506 dc3c
00000370: a78a fa3a ff6e 42bc c947 e83c 1f2e a9bc
00000380: 5bde 0bbc 7153 85bc f976 fc3c 8d1b 303b
00000390: 0e7b 04bd c872 31bc ba42 693c f360 543c
000003a0: 0e3b 24bc fcc8 29bc 0ff7 a4bc 3c64 e5bc
000003b0: 2809 07bb 7bd4 a43c ab3c c5bc f4d1 d2bc
000003c0: e156 a4bc 065b 9ebc 5687 6ebc 16f7 d83c
000003d0: 4dc2 4bbb 2180 753c ec1b 863c bca2 9ebc
000003e0: 107b b33c ff9e 113d d697 9ebc d2a1 dcbc
000003f0: 95e2 55bc 9b53 10bc 5fbc ac3c f46f ef3c
-0.010491928 -0.0151603995 -0.0046015675 0.015626356 0.025842467 0.025577914 0.0010246316 0.0012205414
0.02186346 0.023553248 -0.03294158 -0.0014037407 0.027005209 -0.008415283 -0.0021486634 0.021504948
-0.023228053 0.0017006899 0.015712144 0.0150106475 -0.017889084 0.004392137 0.018965214 0.022437554
0.010174536 -0.009661555 -0.027860519 -0.028437408 0.0265231 -0.009155429 0.003490632 -0.021852663
-0.022520157 0.010102353 -0.016938755 -0.020667434 -0.0034993251 -0.011728643 -0.010824832 -0.028520701
0.01613162 -0.009402683 -0.022930482 0.0045392932 0.0059079137 0.020675754 0.007604272 -0.018952869
0.01639323 0.0039369 -0.020331599 0.026994124 0.012077025 -0.0037949495 0.037344262 -0.015946416
-0.012940036 -0.014391085 0.023146482 0.023152787 0.017081104 -0.0048902947 0.028838731 -0.0045601423
-0.019608913 0.011222554 -0.0018192708 -0.024822751 -0.009827949 -0.014101225 -0.035450738 -0.027056454
0.033658188 -0.027376398 0.011717988 0.019977937 -0.032772608 -0.0050198333 0.012239179 0.0072743776
-0.0060528154 0.011670446 -0.020895196 0.0021388067 -0.038877934 -0.026021056 -0.013256791 0.023122707
0.005102415 -0.020117346 -0.03228202 0.012909925 -0.03245192 -0.032677907 0.020193905 -0.007142229
0.02521979 0.015543931 -0.0131405005 0.0282076 -0.02467046 -0.010347561 0.019309523 -0.028567728
0.015711 0.026714776 -0.007830317 -0.0113962535 -0.028207637 -0.033711515 1.4035646e-05 -0.022494413
0.011672024 0.0041234633 -0.009530278 0.031341814 0.02708061 0.014448402 -0.020444358 0.028114479
0.005712463 -0.01370564 0.0011292198 -0.017880088 -0.00037621596 0.012531977 -0.020826975 0.018167133
-0.006635018 -0.012392145 -0.024741827 -0.026692988 0.00677993 0.0012617667 -0.0063230097 0.02430558
0.007976841 0.0048231785 0.012212982 0.00076316897 0.00065437314 0.014428006 -0.012591663 0.029466532
0.014193853 0.0075053 -0.031638898 -0.029643485 0.01759521 0.023615519 0.02229316 -0.018897336
0.024421766 -0.017298914 -0.006300507 -0.0048169643 -0.00078830356 0.012821432 0.0022627842 0.023404956
-0.003630881 -0.01567758 -0.0069084675 0.025873465 -0.028287714 0.014333213 -0.02199011 0.01756305
-0.011024933 -0.02876829 0.011321944 0.00969978 0.0017134178 -0.018437846 -0.02614448 0.028260095
-0.021186395 0.001793352 0.022194717 -0.023773773 -0.018232295 -0.019936955 0.033078134 -0.024447981
0.031803835 0.030913388 0.018573295 -0.0054512043 -0.027243728 -0.005349879 0.024674287 -0.023880206
0.018250985 0.011028896 -0.028899722 0.02802361 -0.032130357 -0.0044219913 0.008948123 0.014570424
0.019751405 0.024018412 -0.008064463 -0.013869653 0.023343792 0.020288732 -0.0055492544 -0.025450954
0.00982241 -0.008764478 -0.0029752003 -0.012538403 0.007446433 -0.008050315 0.015702663 -0.002750204
-0.025586436 0.034773536 -0.01586572 0.026858697 0.0019114808 -0.011867284 0.028354542 -0.020651875
-0.0085369 -0.01627514 0.03081845 0.002687189 -0.032343917 -0.010830589 0.0142371 0.012962568
-0.010023845 -0.01036286 -0.020137338 -0.028001897 -0.0020604823 0.02012085 -0.02407678 -0.02573488
-0.020060958 -0.019330513 -0.014558634 0.026485007 -0.0031091154 0.014984162 0.016370736 -0.019364707
0.021909267 0.03555202 -0.01935951 -0.02693263 -0.01305451 -0.008808996 0.021085916 0.029228188

bias f4 [64]
00000000: b6a1 d4bc 5a02 0dbd f3be a03a dc8c 883c
00000010: 1702 eebc 7228 053b 6539 e1bc 8cf3 e2b9
00000020: edf5 a43c 161d 3abc 443b e2bb 1e07 afbb
00000030: 9daa bc3c 9949 1ebd c470 c8bc aa9a 553c
00000040: 6d5f 4c3c f729 74bb aa47 913c 26dc 803c
00000050: c43e aebc 0e25 0dbb 270e 693c 1a3a 1a3d
00000060: 71d4 d8bc eb89 8f3c f9b2 9fbc 64d5 1dbc
00000070: c1ae acbc 951e 7cbc 3eb3 10bd 69bb 5e3c
00000080: 910e 1a3c ceed b23c 0545 23ba 287a 853c
00000090: 9491 84bc 367e 49bc 939f 50bd 4f02 d93b
000000a0: 7db5 c03c 392b 513c de9c d1bb 10ef 0f3c
000000b0: 3d1c fc3c d5b1 49bc 2e78 60bc d670 1b3c
000000c0: 487c a4bc e634 823c bd76 3e3b 263d 6ebb
000000d0: 4e0a a93c e203 e0bc 8b19 f4bc c462 8bbc
000000e0: f7f3 1438 0e24 98b9 7997 173d 1fc8 b6bb
000000f0: 02d0 caba 52ee 52bb 9713 523c 05c7 2d3b
-0.025956016 -0.03442607 0.0012263939 0.01666873 -0.02905373 0.0020318297 -0.027493188 -0.00043287536
0.020136798 -0.011359474 -0.0069040377 -0.0053414246 0.023030574 -0.038644407 -0.024467833 0.013037363
0.012473923 -0.0037256458 0.017734367 0.015729975 -0.021270163 -0.002153698 0.014224566 0.037653066
-0.026468487 0.01752182 -0.01949452 -0.009633396 -0.021079423 -0.015388151 -0.03532719 0.013594487
0.009402887 0.02184191 -0.0006228241 0.0162936 -0.016182698 -0.012298157 -0.05093343 0.0066225897
0.02352404 0.012766653 -0.006396874 0.008785024 0.030775184 -0.012310465 -0.013700528 0.009487351
-0.020078793 0.015894365 0.0029062473 -0.0036352365 0.020634796 -0.027345601 -0.029797336 -0.017014869
3.551316e-05 -0.00029018562 0.03700969 -0.0055780555 -0.0015473368 -0.0032185507 0.012822053 0.002651633

weight f4 [10, 64]
00000000: 30bc 63bc 2ebf 913c 6026 c7bc ebd4 aa3d
00000010: 96fe 23bd cff2 023e c3a0 63bc bb73 373d
00000020: 3037 c9bd e2c0 b53d e7d8 653c 9875 1bbd
00000030: 62a3 98bc 91c8 003c 8b7e f43d 208f c73d
00000040: f221 0cbe 75d4 363d dd9c e5bd c88f 95bd
00000050: 4018 f6bd 065a ecbc 4683 233d 44ca d73c
00000060: ad8a 8c3d 362e f93d dbd9 f7bd 4b75 c63d
00000070: 5cd7 08bd 6c2c c53d 3f0b fd3d 045e 893d
00000080: bdfa 0fbd b938 503d 9005 26bd 7daf 843d
00000090: 599a b6ba cca4 97bd 517a 073e ccb2 4cbd
000000a0: 38c2 f0bc 4aa3 44bb 937b fe3d f908 f9bd
000000b0: badd 95bd 2034 bfbd 1c0a ebbd f47f 04bd
000000c0: 1ff4 ce3d ef8b 883a 1026 90bd 0228 20bd
000000d0: 81e2 af3c b653 dbbd fc6c 87bc 3cec a63d
000000e0: cf59 073e 8289 c1bd da7b 03be ce53 e13d
000000f0: 2e35 fabd 6b16 31bc 61f8 eebd 3368 063d
00000100: 5bbc c4bd c936 063e f003 163e ea70 853d
00000110: ff92 473d 3a95 0cbe de1d c8bd e397 8a3d
00000120: 793b d73c a25d 0dbe 188e 843c 47a2 dd3b
00000130: f0b7 34be 09e4 03bd 42fc 18be 8942 843d
00000140: eecc a8bd b854 e2bd b9fa 36bd 466d 0c3c
00000150: d872 51bd db5e e9bd 8947 b4bd 12db 743d
00000160: fd17 fdbd 7df6 15be 8887 bf3c 0bf5 f63d
00000170: 0c83 a53d f5c6 393e 49af 86bd 4e11 1cbb
00000180: 52a6 c73d ea8c bb3c e244 26be ee97 c0bd
00000190: 1518 3bbd 4bb7 1bbd f7a8 dfbc 29d6 2f3e
000001a0: c237 c33d d1c9 703c ba9a 17be 296e ae3d
000001b0: 283d 69bd 87cd a2bd df7f fd3b cca7 173b
000001c0: 75c4 85bd efdb a53d 43c9 013e 96aa d4bd
000001d0: 1e44 bebd e10f 3bbd 5da6 153e 9ee6 8dbd
000001e0: 23be 14be 85dd 9c3d a1a8 35bd b49a 27bb
000001f0: 44f5 d43d 8bf3 e5bc 42a5 eabd ff15 f23d
00000200: 5abb ee3d 7510 62bd 2ab5 1fbd 8eec f7ba
00000210: fb40 803d b6ab 4dbd 88cd babb 03a9 9ebd
00000220: 294c 133e bc1b 903d e89f d13d d115 9a3d
00000230: 135f d03b 7d91 fcbd 5f25 1fbd bc8c cc3c
00000240: cd5e b73d deb5 83bd b16d c6bd f02b 62bc
00000250: 3c7a 38bd fecd 923d d156 9cbd b3a6 ebbc
00000260: cc92 35bd 2003 143e 0592 e5bd 3d72 babd
00000270: a4ae 8f3d 4abf f7bd 8d85 f2bd e5a6 90bd
00000280: fc03 9c3a 06d2 1cbd 139c c5bd a18e 1dbd
00000290: 31c4 77bd 5ba0 ea3d cb61 70bc 2393 17be
000002a0: 24e4 acbd 736f dfbc 5494 023e c55f f93b
000002b0: 4fcd b5bd 5092 b43d 3f9e cb3d f175 04be
000002c0: c264 dd3d 2f49 953a b518 acbd ff44 bc3d
000002d0: 88ca d4bc faaa 5dbd 8ecc fc3d fefb 2bbd
000002e0: a369 2c3e 14db f93d f27b 8c3d b81d d93b
000002f0: 96b7 09be 00a7 b63d 9206 a6bd 3b2e 61bd
00000300: 58d6 e73d 135a 0e3d bd68 f23c 90a9 563d
00000310: 88f9 a43c fc32 dcbd d0c9 dc3d 910a 59bd
00000320: 6a3e 17bd 7721 cbbd 34d4 f63d 0d91 18bc
00000330: 5fa9 403c da38 eb3c 038a 32bd ba79 13be
00000340: dd21 c63d 6bef 18bd 7ab5 103d 64a0 303d
00000350: eaab 913d c976 fb3d c608 7dbc 533a f33d
00000360: df42 9f3d 45f2 b3bd 2a2c 593b e54f e4bd
00000370: 010c f6bd c5b2 383c 20b2 16be 493e 06be
00000380: da65 a63d 4068 f53d ef64 a9bd 8daf 08be
00000390: 8424 b83d ba00 e13c df4f 1f3d 8f7d ae3d
000003a0: 6295 51bd 0830 693d 0447 42bd e554 5f3d
000003b0: 5b4f d03b 32c3 803d 530a 3a3d 7d16 88bc
000003c0: de2c 4cbd d8c4 ca3d 0bf5 5b3b a083 e23c
000003d0: 7423 09bd e025 863d ef31 84bd 0342 233e
000003e0: 2e68 e2bc 742b 643d 74a3 983d 8d07 523d
000003f0: b1df 83bd 001c eebc d65c 2f3c 95bc a03c
-0.013899848 0.017791357 -0.02431029 0.08341392 -0.040037714 0.12787937 -0.013893309 0.044788104
-0.09824979 0.0887468 0.014028764 -0.037953943 -0.018632594 0.007860319 0.11938199 0.09744096
-0.13684824 0.04463621 -0.1121156 -0.07302815 -0.12016344 -0.02885152 0.039920114 0.026341565
0.06862388 0.12167017 -0.121020995 0.096903406 -0.033408508 0.096276134 0.12355661 0.06707385
-0.035151232 0.050835345 -0.04053265 0.06478784 -0.0013931497 -0.074044794 0.13230254 -0.0499752
-0.029389486 -0.0030004554 0.12425914 -0.121599145 -0.073176816 -0.09336114 -0.114765376 -0.032348588
0.10105156 0.001041768 -0.0703851 -0.039100654 0.02147031 -0.10709326 -0.01653146 0.08150527
0.13217853 -0.09450056 -0.12840214 0.110023126 -0.122171745 -0.0108085675 -0.11668468 0.032814216
-0.096062385 0.13106836 0.1464994 0.06515677 0.04872417 -0.137288 -0.09771322 0.06767251
0.026273476 -0.1380525 0.016181037 0.0067637297 -0.17648292 -0.032199893 -0.14939979 0.06458003
-0.08242212 -0.11051315 -0.0446727 0.008570975 -0.051134914 -0.11395045 -0.08802707 0.059779234
-0.12358091 -0.14644809 0.023380056 0.12058457 0.08081636 0.18142302 -0.06576402 -0.0023814025
0.0974852 0.022894341 -0.16237214 -0.09403978 -0.045677263 -0.0380166 -0.027302248 0.1717154
0.09532119 0.014696554 -0.14805117 0.08517105 -0.05694309 -0.079493575 0.0077361907 0.0023140786
-0.06531612 0.0809859 0.12674432 -0.10384099 -0.09290336 -0.04566944 0.14614244 -0.06928752
-0.14525656 0.07659439 -0.04435027 -0.0025574388 0.10398343 -0.028070232 -0.11457302 0.11820602
0.11656828 -0.055191476 -0.03899113 -0.0018915103 0.06262394 -0.050212584 -0.0057007708 -0.0774708
0.14384522 0.0703654 0.10235578 0.075236924 0.00635899 -0.12332437 -0.038854 0.024969451
0.08953629 -0.06431173 -0.09688891 -0.013804421 -0.045038447 0.07168196 -0.076337464 -0.028766012
-0.04432945 0.14454317 -0.11209492 -0.091038205 0.07015732 -0.12097032 -0.11841879 -0.070630826
0.0011903043 -0.03828623 -0.096489094 -0.0384661 -0.060489837 0.11456367 -0.014671753 -0.14802222
-0.08441952 -0.027274823 0.12751895 0.0076102936 -0.0887705 0.088169694 0.099422924 -0.12935616
0.10810234 0.0011389608 -0.0840315 0.091928475 -0.02597548 -0.054118134 0.12343703 -0.041988365
0.16837172 0.12199989 0.06859578 0.006625857 -0.13448939 0.089185715 -0.08106722 -0.05497573
0.1132018 0.03475387 0.029590959 0.0524078 0.020138517 -0.10751912 0.1078068 -0.052988593
-0.036924757 -0.09918492 0.12052193 -0.009311927 0.011759131 0.028713632 -0.04358865 -0.14401904
0.09674428 -0.0373377 0.03532932 0.04312171 0.07112868 0.12278516 -0.015443986 0.11876359
0.077764265 -0.087864436 0.0033137896 -0.11148051 -0.12014008 0.011273091 -0.14716387 -0.13109697
0.081248954 0.11982775 -0.08271205 -0.13348217 0.0899134 0.027466167 0.03889453 0.08520042
-0.051167853 0.05693057 -0.047431007 0.05452432 0.006357116 0.062872306 0.045420002 -0.016612286
-0.049847476 0.09900826 0.0033562805 0.027650654 -0.033481076 0.06550193 -0.064548366 0.1594315
-0.027637567 0.055705503 0.07453051 0.051276732 -0.0643915 -0.029066086 0.010703286 0.019621173

bias f4 [10]
00000000: 3203 a2bd 9092 84bd a030 88bd bcbb 58bd
00000010: 7fe0 523d 2753 4bbd a051 7abd abf5 733d
00000020: 9397 9cbd afd1 95bd
-0.07910766 -0.06473267 -0.066498995 -0.052913412 0.051483627 -0.049639847 -0.061113 0.05956046
-0.07646098 -0.073153846
