project01/first_train/snn_5.pth (torch, 587335 bytes, 10 tensors)

weight f4 [32, 3, 5, 5]
-0.052545592 -0.13028002 -0.1914153 -0.13615666 0.02464408 -0.10539747 -0.04937247 -0.100558706
0.06269196 -0.05467344 0.078267395 0.105138846 0.06676039 -0.040338866 -0.092243224 -0.0690589
0.016133044 -0.04219913 0.06078794 0.10738234 0.1288725 0.01152988 0.13127223 0.044451457
0.07237175 -0.02746781 -0.08717109 -0.1512547 -0.14434245 -0.0035279552 -0.019348491 -0.006639781
0.05028956 -0.0097761685 0.05825493 0.12510948 0.035023637 0.07110575 -0.041539054 0.019638956
0.05742335 0.0971413 0.09721375 0.123209186 0.037649572 0.029239116 0.11226244 -0.039326925
-0.04145724 -0.062325384 -0.052450683 0.00016013025 0.0733108 -0.12051346 -0.008336646 -0.0147893615
0.074889034 -0.0974973 0.03333472 0.011066672 0.116997264 -0.03669859 -0.06068997 -0.093991406
0.07534337 0.12986428 0.043484394 0.1515164 0.00017101834 -0.03556285 0.13920075 0.056957934
0.0068191085 0.02105958 0.018535648 -0.053088933 0.12846588 -0.082529046 0.059738822 0.026600279
0.04835733 -0.049947083 0.035769507 -0.07319359 0.024873354 0.15701213 0.0191279 -0.096267655
-0.15665537 0.0027310858 0.122803874 -0.021602236 0.020632058 -0.08995781 0.15714791 0.09295995
0.031172086 -0.07533473 -0.03431636 0.15206727 0.12846528 -0.047508962 0.035938233 0.00060823583
0.027900616 0.08677592 0.04708775 0.05546453 0.02954594 0.062087286 0.06728849 0.04357361
-0.035053574 -0.14575998 0.13035113 0.099488385 -0.079855636 -0.11943231 0.01009917 0.1368059
-0.07109456 -0.0071150456 0.019951634 0.11082051 0.036830626 -0.12226717 0.007302996 -0.06175115
-0.10054033 -0.07342368 -0.06797005 0.023947692 -0.13775702 -0.13073456 -0.03330474 0.09689427
0.07232392 -0.1751559 -0.15606195 -0.0061919987 -0.011552695 -0.11015577 -0.13486168 -0.0850442
0.091121964 -0.10598241 -0.14887388 -0.19949265 -0.02061632 0.10651884 -0.08569581 -0.09253319
-0.025562214 -0.044980846 -0.133809 -0.100608744 -0.03145461 -0.005531611 -0.08482231 0.026072016
-0.030177156 0.11544879 0.103482775 -0.06065257 0.013642799 0.12710594 0.13253021 0.064457424
0.100480296 -0.103391334 -0.08811538 -0.03533737 -0.056422707 -0.019254005 -0.0072036223 0.102244094
0.059266213 0.07503834 0.057233363 -0.01647488 -0.021507647 -0.081194155 -0.07627753 0.038643233
-0.0670959 0.06734072 0.09945909 0.050883602 -0.029936876 0.009606666 0.085308045 0.12480148
-0.026676012 0.1305704 0.09477237 -0.027518783 -0.06843861 -0.119063 -0.08594818 0.0069246306
0.06153364 -0.07335486 -0.03359584 -0.12061814 0.09076783 -0.056074146 -0.14517994 -0.13311245
-0.0092223985 -0.12604089 0.10783261 0.05817295 0.11868932 0.0367056 0.10510291 0.060987446
-0.04607071 0.082591824 0.07095718 0.02826609 -0.09790409 -0.0533044 0.02373732 0.0109981485
0.058301687 -0.097666 0.04732406 -0.020654706 0.059704658 0.00080624875 0.02083407 0.0061955554
-0.048734527 0.032439634 0.087358944 0.029286427 -0.15761982 0.0913377 0.036244005 -0.086149454
0.01428424 -0.07696627 0.012213565 0.07465715 0.105712466 -0.031951774 0.024850316 0.06307564
0.074515015 0.045522332 -0.022664502 0.030244427 -0.049468085 -0.033438407 0.0850263 0.050718382
00000000: 0c3a 57bd 2068 05be 5f02 44be a76c 0bbe
00000010: 62e2 c93c a1da d7bd c93a 4abd b9f1 cdbd
00000020: a464 803d 42f1 5fbd a84a a03d 0953 d73d
00000030: acb9 883d 5e3a 25bd 04ea bcbd c16e 8dbd
00000040: 7229 843c ffd8 2cbd c6fc 783d 46eb db3d
00000050: 27f7 033e d2e7 3c3c 3a6c 063e bb12 363d
00000060: a437 943d 2c04 e1bc c286 b2bd 83e2 1abe
00000070: 82ce 13be 4435 67bb ba80 9ebc 8592 d9bb
00000080: 6dfc 4d3d 392c 20bc b99c 6e3d b31c 003e
00000090: f274 0f3d e49f 913d db24 2abd e0e1 a03c
000000a0: bf34 6b3d 05f2 c63d 0118 c73d 1955 fc3d
000000b0: 7036 1a3d df86 ef3c dae9 e53d 4515 21bd
000000c0: 11cf 29bd e748 7fbd 87d6 56bd a3e8 2739
000000d0: f923 963d c3cf f6bd 6d96 08bc 144f 72bc
000000e0: 6c5f 993d aaac c7bd fd89 083d fd50 353c
000000f0: 439c ef3d 4351 16bd 0c96 78bd 917e c0bd
00000100: a04d 9a3d 24fb 043e b11c 323d 1d27 1b3e
00000110: 6353 3339 5aaa 11bd a48a 0e3e b94c 693d
00000120: d472 df3b 2485 ac3c 12d8 973c c873 59bd
00000130: 8f8c 033e fd04 a9bd b2b0 743d d4e8 d93c
00000140: 5612 463d 5095 4cbd 0c83 123d 85e6 95bd
00000150: 34c3 cb3c cac7 203e 1db2 9c3c fa27 c5bd
00000160: 446a 20be 04fc 323b 9980 fb3d 2cf7 b0bc
00000170: 9004 a93c cd3b b8bd 62eb 203e c961 be3d
00000180: 9a5c ff3c 1849 9abd 508f 0cbd 86b7 1b3e
00000190: 678c 033e c298 42bd f833 133d 0472 1f3a
000001a0: d58f e43c 93b7 b13d 16df 403d c62e 633d
000001b0: 540a f23c 3d4f 7e3d 8cce 893d 3e7a 323d
000001c0: 5694 0fbd 1b42 15be c47a 053e 91c0 cb3d
000001d0: 5a8b a3bd ed98 f4bd fd76 253c d916 0c3e
000001e0: 069a 91bd 5425 e9bb 9c71 a33c ddf5 e23d
000001f0: b6db 163d 3667 fabd f84d ef3b c6ee 7cbd
00000200: 17e8 cdbd 285f 96bd e233 8bbd f32d c43c
00000210: 2d10 0dbe 48df 05be 8d6a 08bd 8170 c63d
00000220: 901e 943d 115c 33be b4ce 1fbe 40e6 cabb
00000230: 8447 3dbc 5999 e1bd 2e19 0abe a72b aebd
00000240: 279e ba3d 4e0d d9bd 6572 18be cd47 4cbe
00000250: 8fe3 a8bc 8d26 da3d 4981 afbd 0b82 bdbd
00000260: d967 d1bc d63d 38bd 3a05 09be f50b cebd
00000270: 8dd6 00bd 8442 b5bb 52b7 adbd fb94 d53c
00000280: 1536 f7bc 6a70 ec3d c7ee d33d d46e 78bd
00000290: 0c86 5f3c 0f28 023e 00b6 073e 4102 843d
000002a0: 9dc8 cd3d d6be d3bd d675 b4bd ebbd 10bd
000002b0: 7f1b 67bd 93ba 9dbc 5d0c ecbb 5a65 d13d
000002c0: 21c1 723d b4ad 993d 886d 6a3d 54f6 86bc
000002d0: ce30 b0bc 1f49 a6bd 6537 9cbd 5e48 1e3d
000002e0: 9369 89bd eee9 893d 35b1 cb3d 536b 503d
000002f0: 2e3e f5bc 4765 1d3c fcb5 ae3d eb97 ff3d
00000300: a787 dabc 3fb4 053e 0418 c23d 126f e1bc
00000310: 8b29 8cbd 4dd7 f3bd 9905 b0bd 03e8 e23b
00000320: b30a 7c3d 133b 96bd cb9b 09bd a506 f7bd
00000330: 7ce4 b93d 01ae 65bd 0daa 14be a14e 08be
00000340: 8b19 17bc dd10 01be 58d7 dc3d c246 6e3d
00000350: 6313 f33d 9c58 163d 3240 d73d f9cd 793d
00000360: a4b4 3cbd e725 a93d ff51 913d 4a8e e73c
00000370: f181 c8bd b755 5abd c574 c23c 9431 343c
00000380: c0cd 6e3d 1d05 c8bd e0d6 413d 0f34 a9bc
00000390: df8c 743d 705a 533a 36ac aa3c 1604 cb3b
000003a0: db9d 47bd 6cdf 043d 3fe9 b23d 17ea ef3c
000003b0: 1767 21be 430f bb3d 9874 143d 206f b0bd
000003c0: 7208 6a3c 7ea0 9dbd 681b 483c d9e5 983d
000003d0: c77f d83d dddf 02bd e492 cb3c cd2d 813d
000003e0: 549b 983d a075 3a3d e8aa b9bc 29c3 f73c
000003f0: 0c9f 4abd b6f6 08bd 4522 ae3d 14be 4f3d

bias f4 [32]
-0.22471935 0.19002575 0.0052598985 -0.05624608 -0.2166275 -0.020388683 -0.14435056 -0.027968489
-0.09643858 0.10862502 -0.033118166 0.0681334 0.18679051 0.06496358 -0.14914417 -0.023805015
-0.080437005 0.036395922 -0.04993047 -0.155737 -0.20548716 0.030297572 0.020781457 0.16034321
-0.004853475 0.046240903 -0.031886313 0.30235988 -0.050710883 0.01213322 -0.11298908 0.051964983
00000000: d41c 66be 1c96 423e 3a5b ac3b 4a62 66bd
00000010: 99d3 5dbe 2b06 a7bc a2d0 13be 2c1e e5bc
00000020: 9781 c5bd cb76 de3d eaa6 07bd 8689 8b3d
00000030: 0346 3f3e a00b 853d 40b9 18be bc02 c3bc
00000040: 28bc a4bd e413 153d e483 4cbd 8579 1fbe
00000050: 3a6b 52be 9d32 f83c e03d aa3c 0331 243e
00000060: e609 9fbb 1a67 3d3d 399b 02bd eace 9a3e
00000070: 37b6 4fbd 6aca 463c d266 e7bd 3cd9 543d

weight f4 [32, 32, 5, 5]
-0.011807023 0.009877053 0.043228358 0.018915795 0.006320289 -0.028957836 -0.01110163 -0.026629863
-0.025879703 0.017840436 -0.0385312 -0.035560757 -0.045281094 -0.027334154 0.004603417 0.024915313
0.019477533 0.025738247 -0.03524612 -0.0045068027 -0.0155923115 0.021738734 -0.011147898 -0.013477795
-0.040230177 0.008746379 -0.028716994 0.024862997 -0.00856305 -0.011680481 0.011217873 -0.031208565
-0.030095337 0.03313519 0.038261153 0.021412464 -0.019396657 -0.006123774 0.0267961 -0.011690977
-0.043325406 -0.02510902 -0.022778211 -0.03416167 -0.009051943 -0.005425502 0.006818231 0.0022013877
0.034209568 0.008333411 -0.018185405 0.018846149 0.023979483 -0.01227258 0.04947525 0.003633767
-0.020250376 -0.020182502 0.03165498 0.018469315 -0.03385775 -0.026305774 -0.0050878976 -0.015975961
0.00024670962 -0.018889626 0.023156133 0.0071004466 -0.038537666 -0.023704497 0.017802184 -0.02764016
-0.000115391 -0.0019609805 0.0016221805 0.0025608512 0.018132366 0.039097227 0.03792427 0.043987498
-0.028655143 0.019245036 -0.004139559 -0.015258021 -0.0044876277 -0.038026005 0.028076187 0.017164677
0.031086363 -0.0029218318 0.014943014 0.019174041 -0.0042798026 0.031883247 -0.02990469 -0.0020158028
-0.039652627 -0.013497276 0.016033499 -0.033673305 0.03421338 0.04721351 0.06326855 0.056079432
0.03887027 0.012315529 -0.016655697 0.021617219 0.02790434 -0.0112542985 0.0065824203 -0.023223305
0.013109271 0.028159037 -0.004646498 -0.0023495876 0.010348577 0.023404608 -0.015056431 0.029078819
-0.02364075 -0.006458597 0.020924948 0.026180184 -0.0239975 -0.0033333206 0.026549667 0.03998672
8.047441e-06 0.0067055053 -0.012839922 0.019440947 0.004405805 0.010552081 -0.0032023764 0.015300942
-0.018589463 0.0052499427 0.027737884 -0.012270207 0.022478655 0.017494101 -0.02393936 -0.011966392
0.01744104 -0.013817683 0.023642598 -0.036288958 -0.016421476 -0.027190845 -0.04345969 -0.0285903
-0.030914037 -0.036765937 -0.011957978 0.020743279 -0.036468588 0.008407715 -0.0031986695 -0.042168148
-0.031036638 0.020144302 -0.0077435123 -0.037118677 -0.043895714 -0.029134167 0.028114492 0.008687813
0.018908879 -0.0028507179 0.0020105662 -0.0003885474 -0.024840029 -0.023897927 0.006063868 0.034795236
0.024117205 -0.010200181 0.0030189378 0.017706491 -0.025833039 0.0073041925 -0.0010120211 0.037138775
-0.012267428 0.0317606 0.0089629 0.0074466625 0.0036764431 -0.025274163 0.026952127 0.007915214
0.02177693 0.03201526 0.016759122 0.0038238105 0.02462783 -0.0113827335 -0.004071771 -0.020526452
-0.014229763 0.004501081 0.030527607 -0.026417518 0.03507656 0.035777092 0.027664796 -0.01638447
-0.01951357 0.042565025 0.027558561 0.055108704 0.036899105 0.010523195 -0.014690772 0.026505848
-0.005385423 -0.009987292 0.020583903 0.0016813609 0.047891755 0.011269742 -0.01300194 0.04019065
0.005748961 -0.046463612 -0.033076506 -0.011159314 -0.031421654 -0.039588362 -0.0254831 -0.0028973112
-0.044204846 -0.02260271 -0.002269398 -0.030197369 -0.0021751598 0.003998839 -0.034991406 -0.025855571
-0.036855366 -0.031136794 0.02297883 0.016324552 -0.013211133 0.019157728 0.034407157 -0.009879293
-0.032908484 0.026036382 0.017073572 -0.006185331 0.024219172 0.04469163 -0.0147740925 0.019102223
00000000: 3e72 41bc 5dd3 213c 3810 313d 4cf5 9a3c
00000010: 6d1a cf3b fc38 edbc 9ce3 35bc df26 dabc
00000020: ac01 d4bc 1b26 923c e4d2 1dbd 28a8 11bd
00000030: ab78 39bd e0eb dfbc 43d8 963b 331b cc3c
00000040: 598f 9f3c 04d9 d23c 3c5e 10bd cdad 93bb
00000050: e576 7fbc 6e15 b23c aca5 36bc f8d1 5cbc
00000060: 66c8 24bd f94c 0f3c e73f ebbc 7cad cb3c
00000070: 094c 0cbc 7d5f 3fbc 2bcb 373c 1ba9 ffbc
00000080: 7f8a f6bc c4b8 073d bab7 1c3d 3169 af3c
00000090: bde5 9ebc f1a9 c8bb 7f83 db3c 838b 3fbc
000000a0: fb75 31bd 6eb1 cdbc 5f99 babc 1bed 0bbd
000000b0: 9a4e 14bc 69c8 b1bb 786b df3b 2845 103b
000000c0: 551f 0c3d dc88 083c 8ff9 94bc 3d63 9a3c
000000d0: 9f70 c43c ee12 49bc 8fa6 4a3d 7e24 6e3b
000000e0: 1ee4 a5bc c655 a5bc a7a8 013d f64c 973c
000000f0: 6dae 0abd 357f d7bc 61b8 a6bb 05e0 82bc
00000100: ce58 8139 6bbe 9abc eeb1 bd3c ddaa e83b
00000110: acd9 1dbd ef2f c2bc e3d5 913c 9e6d e2bc
00000120: 12fe f1b8 cb83 00bb 589f d43a f4d3 273b
00000130: 548a 943c 6a24 203d 7b56 1b3d 3c2c 343d
00000140: 31be eabc c4a7 9d3c 23a5 87bb c7fc 79bc
00000150: f30c 93bb 28c1 1bbd 0800 e63c f09c 8c3c
00000160: d4a8 fe3c 347c 3fbb 8bd3 743c e112 9d3c
00000170: 963d 8cbb 0298 023d aefa f4bc 8f1b 04bb
00000180: cb6a 22bd ae23 5dbc af58 833c 05ed 09bd
00000190: 5423 0c3d f462 413d f192 813d 8cb3 653d
000001a0: 6f36 1f3d 13c7 493c 8771 88bc 9816 b13c
000001b0: a497 e43c f363 38bc 58b1 d73b cd3e bebc
000001c0: 45c8 563c c8ad e63c a641 98bb 8afb 19bb
000001d0: 148d 293c 05bb bf3c 40af 76bc b436 ee3c
000001e0: 3faa c1bc a3a2 d3bb cc6a ab3c d377 d63c
000001f0: 6896 c4bc d773 5abb b07e d93c 1dc9 233d
00000200: 7f03 0737 dbb9 db3b 895e 52bc 9f42 9f3c
00000210: 925e 903b a3e2 2c3c f6de 51bb cdb0 7a3c
00000220: ee48 98bc b607 ac3b 8f3a e33c fa08 49bc
00000230: 2825 b83c ca4f 8f3c 7a1c c4bc b00e 44bc
00000240: 83e0 8e3c 9063 62bc 1fae c13c bba3 14bd
00000250: 5586 86bc 56bf debc ca02 32bd 3436 eabc
00000260: 6f3f fdbc e197 16bd 65eb 43bc cfed a93c
00000270: 1660 15bd 83c0 093c c5a0 51bb 82b8 2cbd
00000280: 8c40 febc aa05 a53c 4abd fdbb c109 18bd
00000290: fecb 33bd c7aa eebc 5d50 e63c 5457 0e3c
000002a0: cbe6 9a3c 1cd3 3abb b4c3 033b f3b5 cbb9
000002b0: 517d cbbc 96c5 c3bc 69b3 c63b 7385 0e3d
000002c0: 7291 c53c a91e 27bc 5fd9 453b 340d 913c
000002d0: cf9f d3bc 0258 ef3b cba5 84ba d41e 183d
000002e0: 53fd 48bc 6717 023d 21d9 123c 2203 f43b
000002f0: 7bf0 703b c30b cfbc b5ca dc3c d0ae 013c
00000300: 8865 b23c 6f22 033d 6d4a 893c e598 7a3b
00000310: 4ec0 c93c a57e 3abc 7e6c 85bb 1727 a8bc
00000320: f423 69bc ce7d 933b 0815 fa3c 8d69 d8bc
00000330: 70ac 0f3d 008b 123d 48a1 e23c b938 86bc
00000340: ecda 9fbc aa58 2e3d 7ec2 e13c aab9 613d
00000350: 8423 173d 7b69 2c3c 90b1 70bc cb22 d93c
00000360: 3478 b0bb bda1 23bc 939f a83c 1c61 dc3a
00000370: 252a 443d b9a4 383c 1706 55bc f39e 243d
00000380: c861 bc3b a150 3ebd 3b7b 07bd 8ed5 36bc
00000390: feb3 00bd 6827 22bd efc1 d0bc d1e0 3dbb
000003a0: 2410 35bd 5229 b9bc 2eba 14bb 7960 f7bc
000003b0: 208d 0ebb b108 833b 2653 0fbd 10cf d3bc
000003c0: a7f5 16bd 9712 ffbc 193e bc3c 11bb 853c
000003d0: 8273 58bc abf0 9c3c 85ee 0c3d c2dc 21bc
000003e0: 0ccb 06bd 404a d53c e0dd 8b3c 51ae cabb
000003f0: 4967 c63c 920e 373d 090f 72bc 447c 9c3c

bias f4 [32]
-0.006491436 -0.01140062 -0.026268594 -0.03481492 -0.03826112 -0.014907511 -0.109521694 -0.06187495
-0.067027524 -0.083783284 0.057915963 0.015417492 -0.050179113 -0.0057130465 0.043597404 -0.02451775
0.029870613 0.06616599 -0.024590908 -0.051768236 0.08562632 0.03909757 -0.0049108127 0.021154227
-0.038079545 -0.057005107 -0.038624015 -0.0076569133 0.01791572 -0.02878665 -0.006935513 -0.040997267
00000000: 1db6 d4bb abc9 3abc 3c31 d7bc 179a 0ebd
00000010: b1b7 1cbd a23e 74bc e94c e0bd 9670 7dbd
00000020: ba45 89bd 9296 abbd 4a39 6d3d a699 7c3c
00000030: 9d88 4dbd 8234 bbbb 3193 323d 73d9 c8bc
00000040: 37b3 f43c 0982 873d df72 c9bc ee0a 54bd
00000050: da5c af3d c624 203d e2ea a0bb a14b ad3c
00000060: 4cf9 1bbd 307e 69bd 3734 1ebd d8e6 fabb
00000070: fdc3 923c fbd1 ebbc 4d43 e3bb c0ec 27bd

weight f4 [64, 32, 5, 5]
-0.01569748 -0.020037407 0.0030129673 0.02175574 -0.013095349 0.024019653 0.036965456 -0.011514578
0.0007820553 -0.025288321 0.028525125 0.016274288 0.04066174 0.04511253 -0.0052911807 0.019770283
0.013456833 0.0042896154 -0.017972061 0.00057895755 -0.014702253 -0.012164886 0.0033851494 -0.012522777
0.0011939653 -0.037410654 0.004578257 -0.026428973 0.00828063 0.029712627 -0.010295864 0.0073834467
0.021634707 -0.0048023416 -0.019320106 -0.016271282 -0.0056338497 -0.024595086 -0.015843485 -0.00044878785
0.044377435 0.023906983 0.02243241 -0.0073329792 0.0027873893 0.02742422 0.023152797 0.025038918
-0.027083788 0.03509221 -0.008790611 -0.0015970212 0.014640832 0.026752668 0.021153582 -0.020203413
0.023420462 0.020974638 -0.0075437212 0.027390536 -0.029855194 -0.03868823 -0.014839645 0.013046923
-0.010922976 0.023900181 -0.030022949 0.027528737 -0.0049440493 -0.029827839 0.028348448 -0.035558783
0.00043469778 0.016424568 0.008459623 -0.006582949 -0.01411688 -0.030747322 -0.030415434 -0.033888936
0.014193183 0.03184508 0.033872597 -0.03776211 0.019827394 -0.021742875 0.01728025 0.015731402
-0.021680636 -0.014679515 0.012314317 -0.02428361 -0.026562316 0.003466785 -0.01031554 0.040304754
0.005453066 -0.029599456 -0.012050963 0.0010721632 0.035178643 -0.009746858 -0.026542854 -0.037773993
0.0049878918 0.0016703878 0.035346773 0.023798332 0.021354225 0.014085081 -0.011850739 0.048318755
0.00016853603 0.01820012 0.030231748 0.02762846 0.036878582 0.0029074545 0.015859608 -0.02174913
-0.017556552 0.049580004 -0.01666456 0.0067048687 0.033735897 -0.024124837 0.037789002 0.022043755
-0.020878138 -0.01966824 -0.035969913 0.005525764 0.05298903 0.03712025 0.008596566 -0.0019640662
0.011503623 -0.022713667 0.038053982 0.026702484 -0.009214928 -0.025411712 0.02825081 -0.012478628
-0.0065469923 -0.040671065 -0.032020133 -0.022307076 -0.046610057 0.01061134 -0.013405713 0.05206262
0.060562126 0.015203151 0.043915477 -0.01594289 0.019306216 0.062952876 0.03524133 0.013033425
-0.052241404 -0.040064767 -0.016220046 0.03785929 0.03275014 -0.048391234 0.01118753 -0.035114963
-0.007660022 -0.020959422 0.017394925 0.024151023 -0.0117928125 0.03023698 -0.010402448 -0.022945201
-0.00073227007 -0.040782657 0.0016677434 0.011299653 0.04981198 0.04859199 0.005209229 -0.018065998
0.012554678 0.0025067176 -0.00659469 0.032499522 0.028932735 -0.033621438 -0.030128863 0.036984887
0.045718927 0.004383563 0.006508605 -0.013326401 0.01458225 -0.003450364 0.013629194 -0.017521005
-0.019971196 0.017760044 0.011712291 -0.00733695 0.011594293 -0.023261761 0.010196912 0.0033791517
0.044193666 0.04328543 -0.023260634 -0.015403391 -0.02079276 -0.02187098 -0.037753023 -0.016327078
0.009891836 0.0132194385 -0.012896963 -0.0038456526 -0.036957614 0.027243031 -0.0056287544 0.028501084
-0.021668518 0.02193587 -0.008362238 0.022726169 0.015132234 0.025017032 0.0064226887 -0.009769383
-0.0007749212 0.011345257 0.011081893 0.022319768 0.034075398 -0.0138232205 -0.013416313 -0.021375412
-0.022915103 0.011381082 -0.012443324 0.022167984 0.015163133 -0.015780516 0.00046421128 -0.014063094
0.014429921 -0.029227763 -0.029801203 -0.018046437 -0.040680405 -0.01665321 -0.03462325 0.032457788
00000000: 0098 80bc 7d25 a4bc 3475 453b 1839 b23c
00000010: e08d 56bc ddc4 c43c 1769 173d a4a7 3cbc
00000020: d802 4d3a 7429 cfbc 86ad e93c a851 853c
00000030: ed8c 263d ebc7 383d a461 adbb 4af5 a13c
00000040: 0c7a 5c3c e78f 8c3b 253a 93bc 2fc5 173a
00000050: b8e1 70bc 3b4f 47bc 62d9 5d3b 552c 4dbc
00000060: d47e 9c3a ea3b 19bd 3405 963b 9381 d8bc
00000070: 7bab 073c e567 f33c fcaf 28bc d7f0 f13b
00000080: 453b b13c f65c 9dbb 3345 9ebc 5a4b 85bc
00000090: 289c b8bb a27b c9bc 32ca 81bc 494b ebb9
000000a0: 1dc5 353d 94d8 c33c 2cc4 b73c 7d49 f0bb
000000b0: a2ac 363b c2a8 e03c efaa bd3c 6b1e cd3c
000000c0: d2de ddbc d9bc 0f3d 7f06 10bc 2453 d1ba
000000d0: 1ae0 6f3c 6928 db3c 474a ad3c a181 a5bc
000000e0: 45dc bf3c 01d3 ab3c 5231 f7bb 1e62 e03c
000000f0: e192 f4bc 8d77 1ebd fb21 73bc c3c2 553c
00000100: 48f6 32bc 50ca c33c b0f2 f5bc f283 e13c
00000110: b101 a2bb 8359 f4bc 013b e83c 16a6 11bd
00000120: 26e8 e339 d18c 863c 3b9a 0a3c c7b5 d7bb
00000130: 7c4a 67bc cfe1 fbbc ca29 f9bc 20cf 0abd
00000140: 868a 683c fd6f 023d febd 0a3d 71ac 1abd
00000150: 0f6d a23c 1d1e b2bc 508f 8d3c 24df 803c
00000160: 979b b1bc 5982 70bc fdc1 493c 6cee c6bc
00000170: 3799 d9bc 0033 633b 8302 29bc 9916 253d
00000180: a2af b23b 8f7a f2bc 6771 45bc d487 8c3a
00000190: 7b17 103d 49b1 1fbc 6670 d9bc e7b8 1abd
000001a0: 7871 a33b eaf0 da3a c7c7 103d b8f4 c23c
000001b0: 0eef ae3c 1dc5 663c 9a29 42bc e3e9 453d
000001c0: 0cb9 3039 6b18 953c 92a8 f73c 1555 e23c
000001d0: ff0d 173d fe8a 3e3b 02ec 813c 3b2b b2bc
000001e0: c2d2 8fbc 6714 4b3d 1e84 88bc 84b4 db3b
000001f0: a72e 0a3d 73a1 c5bc a4c8 1a3d 1b95 b43c
00000200: a108 abbc 4a1f a1bc 3055 13bd 7811 b53b
00000210: 060b 593d 670b 183d 9cd8 0c3c 90b7 00bb
00000220: b179 3c3c 0312 babc 7ede 1b3d 2bbf da3c
00000230: 36fa 16bc 392c d0bc 3e6e e73c 2973 4cbc
00000240: 2788 d6bb b496 26bd 8b27 03bd 54bd b6bc
00000250: 30ea 3ebd 30db 2d3c a3a3 5bbc 9d3f 553d
00000260: fe0f 783d a316 793c b7e0 333d aa9a 82bc
00000270: 1228 9e3c 70ed 803d 3659 103d 268a 553c
00000280: 15fb 55bd f41a 24bd e7df 84bc 5812 1b3d
00000290: 0325 063d e335 46bd e74b 373c b5d4 0fbd
000002a0: ec00 fbbb 18b3 abbc cd7f 8e3c 5ed8 c53c
000002b0: a436 41bc 8bb3 f73c 076f 2abc 93f7 bbbc
000002c0: d0f5 3fba b70b 27bd 2f98 da3a 2e22 393c
000002d0: a607 4c3d 6508 473d 2eb2 aa3b 25ff 93bc
000002e0: 23b2 4d3c be47 243b 4518 d8bb 381e 053d
000002f0: 5804 ed3c a2b6 09bd ced0 f6bc 777d 173d
00000300: c543 3b3d fea3 8f3b 2346 d53b fa56 5abc
00000310: 64ea 6e3c 811f 62bb fc4c 5f3c 3688 8fbc
00000320: a29a a3bc 837d 913c e9e4 3f3c cc6a f0bb
00000330: fdf5 3d3c 738f bebc f310 273c c274 5d3b
00000340: 6b04 353d 104c 313d 168d bebc 815e 7cbc
00000350: 9455 aabc c52a b3bc eaa2 1abd 5dc0 85bc
00000360: 5e11 223c 5896 583c c94d 53bc 5807 7cbb
00000370: de60 17bd c72c df3c 6a71 b8bb 1b7b e93c
00000380: 2d82 b1bc dbb2 b33c c501 09bc 3b2c ba3c
00000390: 31ed 773c 85f0 cc3c 6b75 d23b c30f 20bc
000003a0: 1524 4bba 75e1 393c d490 353c f2d7 b63c
000003b0: a592 0b3d ca7a 62bc 18d0 5bbc 7d1b afbc
000003c0: 74b8 bbbc b877 3a3c 15df 4bbc a299 b53c
000003d0: ca6e 783c 2446 81bc 6261 f339 e468 66bc
000003e0: 7a6b 6c3c 106f efbc a721 f4bc 1fd6 93bc
000003f0: 7fa0 26bd 506c 88bc 1cd1 0dbd 75f2 043d

bias f4 [64]
-0.023364881 -0.079679556 0.003392304 -0.035460316 -0.049477097 -0.029784402 -0.052551813 -0.026776748
-0.040893476 -0.01862756 -0.028098013 -0.009013069 -0.01704094 -0.010416396 0.00038082484 -0.011229423
-0.03257209 -0.043115232 -0.0396085 -0.024320327 -0.010735029 -0.053612426 -0.0042517306 -0.0584145
-0.00457799 0.009101046 0.03786042 -0.0074256207 -0.048690386 0.004549872 0.030288631 -0.05453787
-0.054734014 -0.006453108 -0.00015401602 0.014205545 -0.04590882 -0.009774438 -0.0036960235 0.0033120604
0.012399491 -0.012381672 -0.0048101796 0.019295232 -0.041054424 -0.006923304 -0.011085683 0.0016872493
-0.020426564 -0.0053847698 -0.08356007 -0.007845422 -0.02140552 -0.018711913 0.014287841 -0.022996325
0.0019220313 -0.029879054 -0.030552331 -0.06576938 -0.018472679 0.015904015 0.012177116 -0.046329785
00000000: b567 bfbc 092f a3bd 6b51 5e3b d63e 11bd
00000010: 7fa8 4abd 6bfe f3bc 9240 57bd e95a dbbc
00000020: eb7f 27bd d398 98bc ce2d e6bc 8dab 13bc
00000030: 7199 8bbc 88a9 2abc 72a9 c739 9dfb 37bc
00000040: 506a 05bd 9999 30bd 863c 22bd 6c3b c7bc
00000050: fae1 2fbc b498 5bbd 1a52 8bbb 0b44 6fbd
00000060: f702 96bb 8e1c 153c 8713 1b3d 9f52 f3bb
00000070: 926f 47bd 1817 953b dd1f f83c 1a63 5fbd
00000080: c630 60bd 9874 d3bb 5c7f 21b9 60be 683c
00000090: e30a 3cbd f724 20bc fc38 72bb 270f 593b
000000a0: 3c27 4b3c 7fdc 4abc b69e 9dbb 0911 9e3c
000000b0: af28 28bd e2dc e2bb b9a0 35bc b126 dd3a
000000c0: 9c55 a7bc b972 b0bb 8b21 abbd 168a 00bc
000000d0: a15a afbc ba49 99bc 8c17 6a3c ca62 bcbc
000000e0: abec fb3a ebc4 f4bc e248 fabc 19b2 86bd
000000f0: 0454 97bc 2349 823c 8782 473c 4dc4 3dbd

weight f4 [64, 1024]
-0.006894746 0.0007196733 1.8906016e-05 0.017135685 0.0145121785 0.026008658 -0.009146281 0.0050793677
0.02450803 0.028427765 -0.027326573 -0.005943314 0.026725508 0.0061656134 0.0058928127 0.017927898
-0.022734212 0.0024155113 0.019422613 0.01389111 -0.015575405 -0.0027834324 0.02341987 0.024246855
0.0109170275 -0.007137378 -0.018804852 -0.022750804 0.028534712 -0.008670008 0.006320118 -0.025285106
-0.0227515 0.019150617 -0.014336683 -0.009222039 -0.009803081 -0.028112967 -0.0005172147 -0.045793507
0.018531712 -0.0117430845 -0.02073433 0.0061973864 0.005210762 0.03924073 0.02168671 -0.007743373
0.009873632 0.0008734868 -0.022623837 0.029048692 0.009694197 -0.019382345 0.05535534 -0.017565751
-0.012100198 -0.013820799 0.035241026 0.022307394 0.022938982 0.0075628827 0.040479384 -0.0008884577
-0.022637619 0.016883211 0.002070994 -0.03129525 -0.013212789 -0.020203164 -0.054080784 -0.03231978
0.041671112 -0.026572537 0.01299943 0.021496495 -0.034795437 -0.010736143 0.014069595 -0.0018154073
-0.0028154163 0.01905431 -0.020320782 0.0071425606 -0.042771958 -0.037663706 -0.014635684 0.021105925
-0.0048212255 -0.012493994 -0.022852797 0.015981536 -0.036349047 -0.04544033 0.014867841 -0.006048011
0.030520376 0.03050743 -0.0058119725 0.04287316 -0.028354986 0.00088890834 0.030826787 -0.028895441
0.011311935 0.025217371 0.0039630844 -0.013113527 -0.030167585 -0.040316932 -0.0002645732 -0.02348393
0.022848807 0.014806493 0.0012172895 0.03797635 0.035708074 0.019438647 -0.023331454 0.03175492
-0.0014589784 -0.010966755 0.0041527124 -0.0233586 0.005157103 0.021290114 -0.0152832875 0.02160381
0.0036311669 -0.01262453 -0.029819071 -0.019517455 0.013807471 -0.009123831 -0.0023810572 0.026648682
0.023475595 0.0077636368 0.02481022 0.005884467 0.00402959 0.025354426 -0.0034226982 0.038572297
0.019210065 0.012421702 -0.03290481 -0.02046961 0.019443275 0.03634825 0.028263899 -0.021661276
0.022554645 -0.015409807 -0.0005073542 -7.6841876e-05 0.0066237617 0.017236907 0.005078923 0.032378007
0.0013031624 -0.0042904275 0.0016117682 0.03707888 -0.032907315 0.020586608 -0.011646139 0.002937168
-0.015188197 -0.031385127 0.014110972 0.017157735 0.008712456 -0.011911658 -0.024408603 0.032413792
-0.019987449 0.008024776 0.031135581 -0.021287058 -0.020508142 -0.0152693195 0.031387154 -0.030568032
0.039156333 0.040787194 0.022498414 -0.0043607815 -0.027095558 0.0016773746 0.021361254 -0.02724577
0.025687488 0.022266801 -0.028762221 0.040255163 -0.038796853 0.0016257624 0.013847012 0.014047993
0.010390735 0.023353152 -0.00037030823 -0.011415098 0.024446405 0.02320301 0.0040948037 -0.021936623
0.0045604077 -0.017014135 -0.008141439 -0.013823276 0.007473772 -0.0067953747 0.012245792 -0.0012420407
-0.018793767 0.04962193 -0.0027269502 0.027195705 0.00025276185 0.00047745896 0.037531942 -0.025878144
-0.0042408486 -0.006772766 0.031010062 0.008827766 -0.041390155 -0.011509477 0.013944065 0.012842438
-0.015704237 -0.020686122 -0.015966328 -0.02150066 0.0015088938 0.027970346 -0.021010708 -0.021239216
-0.013767391 -0.012891829 -0.0148154395 0.03449709 0.0075041503 0.024247184 0.029209986 -0.020022394
0.027276956 0.048308276 -0.005054683 -0.03619485 -0.009413375 0.00033716456 0.03054272 0.035576593
00000000: 52ed e1bb 75a8 3c3a 5c98 9e37 2360 8c3c
00000010: 7dc4 6d3c 1c10 d53c 48da 15bc d370 a63b
00000020: 10c5 c83c 58e1 e83c fadb dfbc 22c0 c2bb
00000030: 74ef da3c ea08 ca3b 7f18 c13b 87dd 923c
00000040: 193d babc 8e4d 1e3b 2c1c 9f3c 8a97 633c
00000050: fc2f 7fbc 3f6a 36bb 07db bf3c 57a1 c63c
00000060: 55dd 323c abe0 e9bb a20c 9abc e55f babc
00000070: a1c1 e93c a60c 0ebc fe18 cf3b b622 cfbc
00000080: 5b61 babc c1e1 9c3c 68e4 6abc 0918 17bc
00000090: 1a9d 20bc 2a4d e6bc b195 07ba f991 3bbd
000000a0: d1cf 973c 1166 40bc 0bdb a9bc 7213 cb3b
000000b0: 0abf aa3b e3ba 203d 54a8 b13c 1fbc fdbb
000000c0: 04c5 213c b5fa 643a a055 b9bc 86f7 ed3c
000000d0: 69d4 1e3c b9c7 9ebc 48bc 623d 0de6 8fbc
000000e0: e93f 46bc a270 62bc e558 103d ffbd b63c
000000f0: 88ea bb3c 0fd2 f73b b6cd 253d 63e7 68ba
00000100: 8772 b9bc a94e 8a3c 84b9 073b 732f 00bd
00000110: 747a 58bc 1b81 a5bc d083 5dbd bf61 04bd
00000120: 54af 2a3d a6ae d9bc 90fb 543c 6b19 b03c
00000130: a985 0ebd a6e6 2fbc 2984 663c f6f2 edba
00000140: d982 38bb c917 9c3c c577 a6bc 240c ea3b
00000150: a631 2fbd 4245 1abd 82ca 6fbc 55e6 ac3c
00000160: 5ffb 9dbb 9cb3 4cbc ca35 bbbc b6eb 823c
00000170: bde2 14bd a41f 3abd 3f98 733c 652e c6bb
00000180: de05 fa3c b8ea f93c 5c72 bebb c49b 2f3d
00000190: b748 e8bc a105 693a 7588 fc3c 22b6 ecbc
000001a0: b255 393c a994 ce3c c3dc 813b 1eda 56bc
000001b0: 0322 f7bc 5e23 25bd 6ab6 8ab9 5f61 c0bc
000001c0: 6c2d bb3c ef96 723c 758d 9f3a 178d 1b3d
000001d0: a142 123d cc3d 9f3c 9b21 bfbc 7211 023d
000001e0: 313b bfba e8ad 33bc 7a13 883b 895a bfbc
000001f0: eafc a83b 9b68 ae3c c166 7abc 79fa b03c
00000200: dff8 6d3b 1ed7 4ebc 2047 f4bc 12e3 9fbc
00000210: bb38 623c 1f7c 15bc 830b 1cbb 564e da3c
00000220: e44f c03c 1b66 fe3b cd3e cb3c 7dd2 c03b
00000230: a70a 843b 16b4 cf3c 594f 60bb fcfd 1d3d
00000240: 6d5e 9d3c 6584 4b3c 32c7 06bd e2af a7bc
00000250: 8147 9f3c e7e1 143d b189 e73c fd72 b1bc
00000260: 85c4 b83c 6a79 7cbc f7ff 04ba 2b26 a1b8
00000270: 240c d93b 6a34 8d3c 186d a63b cd9e 043d
00000280: e0ce aa3a b796 8cbb f741 d33a 06e0 173d
00000290: d2c9 06bd 3fa5 a83c 73cf 3ebc 817d 403b
000002a0: ead7 78bc b18d 00bd b531 673c 618e 8c3c
000002b0: b0be 0e3c 1d29 43bc 8df4 c7bc 53c4 043d
000002c0: b8bc a3bc 5a7a 033c 0c10 ff3c 3262 aebc
000002d0: b100 a8bc 2b2c 7abc d18f 003d cf69 fabc
000002e0: 6462 203d 7910 273d 984e b83c e3e4 8ebb
000002f0: 81f7 ddbc 5adb db3a ccfd ae3c 8532 dfbc
00000300: 916e d23c de68 b63c c09e ebbc 99e2 243d
00000310: 73e9 1ebd 8917 d53a 94de 623c 8e29 663c
00000320: e73d 2a3c 1c4f bf3c ee25 c2b9 6406 3bbc
00000330: d443 c83c 3d14 be3c b42d 863b 6fb4 b3bc
00000340: 796f 953b 3a61 8bbc ac63 05bc 067b 62bc
00000350: 8be6 f43b bcab debb 93a2 483c f8cb a2ba
00000360: 63f5 99bc 5d40 4b3d a2b6 32bb 87c9 de3c
00000370: 1f85 8439 7553 fa39 18bb 193d 67fe d3bc
00000380: d1f6 8abb 14ee ddbb d008 fe3c 56a2 103c
00000390: b988 29bd 3f92 3cbc a675 643c 1769 523c
000003a0: 2ca6 80bc f175 a9bc d1cb 82bc 2722 b0bc
000003b0: 13c6 c53a 1122 e53c a61e acbc ddfd adbc
000003c0: a090 61bc 4038 53bc 75bc 72bc d24c 0d3d
000003d0: 60e5 f53b 08a2 c63c c849 ef3c 0106 a4bc
000003e0: ec73 df3c e6de 453d c1a1 a5bb 0d41 14bd
000003f0: 8e3a 1abc 76c5 b039 ba34 fa3c c3b8 113d

bias f4 [64]
-0.011769089 -0.035636168 -0.0052455217 0.009560287 -0.028894281 0.0033637946 -0.008042017 -0.0070702857
0.03458357 -0.015879652 -0.0011802325 8.32234e-05 0.028255709 -0.03283202 -0.045243755 0.0063320687
0.0197328 -0.010116383 0.018057339 0.023964597 -0.019130085 0.000803874 0.008991811 0.050293375
-0.01441851 0.018790187 -0.029009692 -0.021854335 -0.03556076 -0.040886465 -0.056991294 0.019499986
0.020201439 0.011090716 -0.003653944 0.008199807 -0.0008591309 -0.009588718 -0.069448836 0.023248304
0.017660286 0.0152697135 -0.017402085 0.02396238 0.0344837 -0.0050428538 0.001713831 -0.0042611756
-0.010564254 0.020247133 0.015498118 0.0005686161 0.02084238 -0.023814563 -0.053707507 -0.010706331
-0.0069726785 0.01012372 0.057933427 -0.023198958 -0.0033768786 -0.0065057864 0.026955293 -0.023752453
00000000: 23d3 40bc 3bf7 11bd a0e2 abbb c0a2 1c3c
00000010: b3b3 ecbc 1c73 5c3b aac2 03bc dbad e7bb
00000020: 80a7 0d3d 0b16 82bc 08b2 9aba 3988 ae38
00000030: 8478 e73c de7a 06bd 8451 39bd 3e7d cf3b
00000040: aea6 a13c 30bf 25bc fcec 933c 6751 c43c
00000050: b2b6 9cbc 12bb 523a 6452 133c 6d00 4e3d
00000060: 9d3b 6cbc e1ed 993c bca5 edbc dd07 b3bc
00000070: 29a8 11bd 9178 27bd b46f 69bd 6fbe 9f3c
00000080: 7d7d a53c d6b5 353c 0277 6fbb 7c58 063c
00000090: 4c37 61ba 001a 1dbc 313b 8ebd 3a73 be3c
000000a0: 4eac 903c d22d 7a3c d18e 8ebc c14c c43c
000000b0: c83e 0d3d 863e a5bb a0a2 e03a 55a1 8bbb
000000c0: b115 2dbc 51dd a53c d1eb 7d3c 2e0f 153a
000000d0: a4bd aa3c c216 c3bc 67fc 5bbd 9b69 2fbc
000000e0: 117b e4bb f6dd 253c 9a4b 6d3d be0b bebc
000000f0: 9f4e 5dbb 7e2e d5bb 59d1 dc3c 8194 c2bc

weight f4 [10, 64]
-0.016142903 0.046807643 -0.026336955 0.115455456 -0.036750685 0.14674075 -0.035362773 0.06373195
-0.12205025 0.102651104 0.021869631 -0.046559237 -0.06611027 -0.00017286798 0.10950261 0.134399
-0.17487143 0.0677436 -0.15320432 -0.12099499 -0.15253755 -0.058509886 0.043464106 0.0441461
0.06480517 0.14308377 -0.16913424 0.13270469 -0.044275492 0.12602785 0.17273428 0.10570384
-0.04109087 0.059056193 -0.066120006 0.06441295 0.019392416 -0.117161386 0.16467944 -0.047743775
-0.04453943 -0.009342684 0.13075036 -0.10811057 -0.09549099 -0.11505643 -0.12738413 -0.046534125
0.14431573 0.0042777527 -0.051315255 -0.06985812 0.009871018 -0.15962072 -0.002358999 0.10860977
0.170668 -0.106197596 -0.16321829 0.10838253 -0.15735653 0.0036499307 -0.16683878 0.053054743
-0.109352075 0.21270187 0.19676633 0.061516102 0.12496945 -0.15017654 -0.10304264 0.08006296
0.029562403 -0.16491644 -0.050238807 0.018227134 -0.21253243 -0.046427045 -0.18356492 0.10066766
-0.14282893 -0.14720051 -0.089341365 0.008451437 -0.10759937 -0.17601576 -0.1372429 0.06905682
-0.14111964 -0.17525604 -0.01948009 0.16768903 0.08072556 0.24522606 -0.041576512 0.033701885
0.13785736 0.0038789297 -0.24767041 -0.099859394 -0.056447614 -0.10250418 -0.056385774 0.21634896
0.1321717 0.004654151 -0.20482129 0.10620062 -0.08566842 -0.101605624 0.0034918168 0.007302608
-0.05206111 0.091402344 0.1939789 -0.19148771 -0.13904613 -0.093117595 0.17676343 -0.11638943
-0.1719421 0.08058173 -0.07656486 -0.021603622 0.11421197 -0.028906463 -0.16775742 0.13950883
0.16363308 -0.0709843 -0.05609268 -0.014957821 0.09252474 -0.07840977 -0.022264088 -0.11800172
0.14847006 0.10446853 0.13068715 0.09741568 -0.00706091 -0.15454336 -0.006008162 0.010894075
0.14920305 -0.06995061 -0.10417886 -0.040128928 -0.031691834 0.11422537 -0.080722876 -0.039278246
-0.07569593 0.1368873 -0.14712161 -0.118975624 0.08288147 -0.14750093 -0.123362355 -0.11888541
0.0070030736 -0.040828034 -0.07909781 -0.03772467 -0.072530985 0.14049809 -0.0043583685 -0.211181
-0.082672685 -0.028308012 0.14775741 0.0023710304 -0.10605703 0.12006042 0.12048703 -0.1424643
0.12288144 -0.0064777276 -0.1129292 0.11008599 -0.029819626 -0.05944076 0.17462698 -0.03198387
0.20988803 0.1403823 0.074884936 0.028738972 -0.19435889 0.0896509 -0.10028719 -0.028448325
0.15236846 0.004605196 -0.008710813 0.05617387 -0.007299718 -0.14251433 0.12595792 -0.07636205
-0.032407917 -0.07288984 0.14671965 -0.027117746 0.033821702 0.030622834 -0.016285187 -0.17119248
0.16553958 -0.03804103 0.0841748 0.03073059 0.104987994 0.17566656 0.013139404 0.12416029
0.06911977 -0.093948215 0.033917967 -0.13765112 -0.13922133 -0.0012547217 -0.15837657 -0.18141823
0.099354014 0.14946765 -0.036043886 -0.1743084 0.092507586 0.064264044 0.030300194 0.07580151
-0.028685613 0.06746753 -0.0129180495 0.028577099 0.020765176 0.09453944 0.0661464 -0.038286343
-0.07531451 0.117503755 -0.01781431 0.06450141 -0.012808084 0.11564094 -0.07543202 0.22015594
-0.024109216 0.048394572 0.06440274 0.06988566 -0.08050326 -0.053277634 0.019662399 0.027718998
00000000: 1f3e 84bc 5fb9 3f3d 99c0 d7bc e973 ec3d
00000010: e387 16bd 3543 163e 8ed8 10bd e685 823d
00000020: 7bf5 f9bd be3a d23d f127 b33c e6b4 3ebd
00000030: d264 87bd e543 35b9 e842 e03d e49f 093e
00000040: 7f11 33be 28bd 8a3d 98e1 1cbe 39cc f7bd
00000050: ce32 1cbe 10a8 6fbd 6b07 323d 8ad2 343d
00000060: 93b8 843d 8d84 123e 8731 2dbe bde3 073e
00000070: 385a 35bd 720d 013e 41e1 303e 417b d83d
00000080: e64e 28bd e8e4 713d ed69 87bd f0ea 833d
00000090: d8dc 9e3c 4ff2 efbd baa1 283e fa8e 43bd
000000a0: fa6e 36bd 0f12 19bc 6ce3 053e 1369 ddbd
000000b0: c890 c3bd b5a2 ebbd fc70 02be 919a 3ebd
000000c0: 81c7 133e 642c 8c3b f22f 52bd c611 8fbd
000000d0: 0dba 213c 9d73 23be 7099 1abb cd6e de3d
000000e0: 98c3 2e3e 207e d9bd b222 27be a9f7 dd3d
000000f0: 1222 21be ad33 6f3b c9d7 2abe ee4f 593d
00000100: fbf3 dfbd 85ce 593e 1d7d 493e 4ff8 7b3d
00000110: fcef ff3d e1c7 19be 0508 d3bd 0df8 a33d
00000120: da2c f23c dbdf 28be 35c7 4dbd 1251 953c
00000130: 1aa2 59be 492a 3ebd 71f8 3bbe d92a ce3d
00000140: bf41 12be bbbb 16be 9bf8 b6bd e577 0a3c
00000150: 0f5d dcbd 7a3d 34be 6789 0cbe a96d 8d3d
00000160: ab81 10be 5276 33be b694 9fbc acb6 2b3e
00000170: 7153 a53d 8a1c 7b3e 224c 2abd fd0a 0a3d
00000180: 7b2a 0d3e a435 7e3b 509d 7dbe 1583 ccbd
00000190: 9d35 67bd b6ed d1bd c5f4 66bd 958a 5d3e
000001a0: 0558 073e d981 983b acbc 51be b67f d93d
000001b0: ed72 afbd 9c16 d0bd f7d6 643b b74a ef3b
000001c0: 083e 55bd 2731 bb3d 68a2 463e 5b15 44be
000001d0: 1c62 0ebe 70b4 bebd 7901 353e 955d eebd
000001e0: 9711 30be 0908 a53d 0ace 9cbd 14fa b0bc
000001f0: f7e7 e93d 3fcd ecbc 9ac8 2bbe 67db 0e3e
00000200: 6e8f 273e 3760 91bd 70c1 65bd a611 75bc
00000210: 9c7d bd3d 4d95 a0bd 2d63 b6bc e3aa f1bd
00000220: 8908 183e 99f3 d53d dad2 053e df81 c73d
00000230: 355f e7bb 9d40 1ebe 1ee0 c4bb 107d 323c
00000240: afc8 183e 4442 8fbd ba5b d5bd 3b5e 24bd
00000250: 4ccf 01bd feee e93d 0952 a5bd 3ae2 20bd
00000260: 7806 9bbd 2f2c 0c3e 0ca7 16be 7ea9 f3bd
00000270: c3bd a93d 7c0a 17be 67a5 fcbd 327a f3bd
00000280: 0a7a e53b 4c3b 27bd 08fe a1bd 2f85 1abd
00000290: 208b 94bd bbde 0f3e a5d0 8ebb d53f 58be
000002a0: 4c50 a9bd 34e6 e7bc b84d 173e 4a63 1b3b
000002b0: 6e34 d9bd 3de2 f53d e7c1 f63d 29e2 11be
000002c0: 44a9 fb3d 1e43 d4bb 6d47 e7bd c374 e13d
000002d0: 4a48 f4bc 2878 73bd 6ad1 323e 8501 03bd
000002e0: e3ec 563e 61c0 0f3e 465d 993d fe6d eb3c
000002f0: 0406 47be e49a b73d 5f63 cdbd 760c e9bc
00000300: 7a06 1c3e 2fe7 963b ccb7 0ebc 9216 663d
00000310: 7932 efbb 47ef 11be 1dfb 003e b563 9cbd
00000320: 2abe 04bd 4547 95bd ad3d 163e 0926 debc
00000330: a088 0a3d bddc fa3c 8368 85bc 154d 2fbe
00000340: 3583 293e e9d0 1bbd d663 ac3d b8be fb3c
00000350: f203 d73d efe1 333e a846 573c c047 fe3d
00000360: aa8e 8d3d ec67 c0bd 91ed 0a3d 6af4 0cbe
00000370: 0990 0ebe 7975 a4ba 782d 22be b3c5 39be
00000380: 1e7a cb3d 0c0e 193e c1a2 13bd e77d 32be
00000390: 9e74 bd3d de9c 833d 1d38 f83c d23d 9b3d
000003a0: 17fe eabc 6b2c 8a3d 3aa6 53bc 851a ea3c
000003b0: bb1b aa3c e59d c13d c477 873d 24d2 1cbd
000003c0: 7e3e 9abd cfa5 f03d 51ef 91bc 5119 843d
000003d0: ffd8 51bc 28d5 ec3d 1a7c 9abd 8f70 613e
000003e0: b180 c5bc 6339 463d 95e5 833d 3720 8f3d
000003f0: e5de a4bd a639 5abd 0a13 a13c f412 e33c

bias f4 [10]
-0.14157803 -0.084227085 -0.04854143 -0.019339163 0.09364822 -0.09915101 -0.026884895 0.026195968
-0.037784364 -0.07491454
00000000: d5f9 10be 407f acbd 61d3 46bd 2a6d 9ebc
00000010: a3ca bf3d af0f cbbd b63d dcbc ed98 d63c
00000020: c7c3 1abd cb6c 99bd
