project01/first_train/snn_4.pth (torch, 587335 bytes, 10 tensors)

weight f4 [32, 3, 5, 5]
00000000: 693c 29bd dc10 f2bd c21b 36be 6052 fdbd
00000010: 9e22 093d ddfb c5bd 0ebf 29bd bbaa babd
00000020: 942b 943d aa34 37bd 253c a43d 442a d73d
00000030: 2e7e 8b3d 5ef4 0fbd 5a04 abbd a1cc 92bd
00000040: a64b 383c 872e 40bd 631a 733d ae43 e13d
00000050: dd3f 023e 1263 133c 364e 043e c25c 343d
00000060: 7b59 993d 8761 d4bc 1a0d aebd 178d 16be
00000070: ea41 0fbe 4076 04bb 794f 9cbc 94f9 eabb
00000080: 6592 543d a617 ddbb 005b 7e3d 4d3e f73d
00000090: ec70 eb3c 8664 893d 928d 26bd 3622 c93c
000000a0: 5872 543d 79ee b63d 5021 b93d 9518 f73d
000000b0: 11d1 223d b53c df3c 0129 e03d 4766 27bd
000000c0: 2e3c 26bd 3643 6ebd cb1e 51bd b912 e93a
000000d0: 9494 9d3d 60e6 ecbd d053 9bbb 7de7 66bc
000000e0: b115 993d a98a c3bd ea6b 193d 25b5 8d3c
000000f0: 5d26 ea3d f42e 27bd 5b23 80bd 48ba b9bd
00000100: e709 ab3d 5214 023e e5bf 1f3d a3ab 173e
00000110: a943 a23a 484d f0bc 3800 0f3e 57c2 693d
00000120: f1f3 063c 34c1 cd3c 31b9 d73c 7ac8 52bd
00000130: 79d9 023e 3de3 a2bd 5fcf 843d 79b4 ed3c
00000140: 1d0d 4c3d 8549 52bd 9dd7 263d cb41 83bd
00000150: 8e0f d03c 4054 1e3e e2d7 993c 581e afbd
00000160: 8a86 14be 52dd 57bb b1b1 f63d f349 83bc
00000170: 9c9e 0b3d 1929 acbd 08e2 153e 33ac c63d
00000180: 13c3 203d 2d61 89bd 3471 09bd 1a95 153e
00000190: c0c0 013e a2b4 50bd 408e 173d a3a1 2e3b
000001a0: 985a d93c ecf0 ad3d 5d5a 313d b6de 6f3d
000001b0: bde2 103d c691 6f3d ebd9 7f3d 6636 2a3d
000001c0: 4bad d0bc 5618 0cbe 85e4 f73d 6ba0 be3d
000001d0: 5bdf 9fbd e755 dfbd fd86 423c 8b1b f93d
000001e0: c66b 91bd b6e8 2abb f2ba d13c a2b0 dd3d
000001f0: f3e6 df3c 0d53 fcbd 5e17 953b a53a 75bd
00000200: b286 cbbd 4bcd 9abd dd99 8cbd a2f2 ab3c
00000210: cc3a 09be 6e01 01be 4b91 19bd e88b c13d
00000220: 7b57 933d 3b32 28be 4b7d 16be 310d 6bbc
00000230: 77d4 86bc 65d4 dcbd e49a fdbd 3411 aabd
00000240: db5d 9e3d 10f6 d6bd ad58 13be b838 45be
00000250: 6e78 b7bc 4f5f c93d b216 9fbd 95a6 a8bd
00000260: c69d 9dbc c31d 23bd 534d 03be bd1b adbd
00000270: b8b9 77bc 9052 b13b c699 9bbd b249 0c3d
00000280: 971a e9bc 33e4 e33d 5229 c63d e1bf 7bbd
00000290: 8d17 7a3c fc88 fc3d e398 023e 10df 6c3d
000002a0: b68a c53d c5f6 cebd c9a2 9ebd 90c4 b7bc
000002b0: 9018 41bd 6615 2bbc 6038 9c3a 114f c93d
000002c0: 7cbc 6c3d b69f 8f3d c848 523d b657 b0bc
000002d0: ada8 75bc b502 97bd 907b 97bd 3069 1e3d
000002e0: 4cab 89bd 4225 7b3d 07fe b33d 75bb 163d
000002f0: bfd8 1cbd 48f9 753b 5f89 9c3d 5065 eb3d
00000300: d8d2 1cbd 5637 f83d 3f0c bb3d 55f9 a2bc
00000310: f518 6fbd a563 e6bd a8a4 a3bd f333 463c
00000320: fe2c 7c3d 0429 92bd 7e6d 0cbd d326 fabd
00000330: aec6 b73d 24f5 39bd 890c 09be a360 01be
00000340: 2454 93bb 942f f9bd c23d dc3d e093 573d
00000350: d0b5 e23d 26dd 0c3d 2328 d73d 18f0 6d3d
00000360: fa81 4cbd 766e 9d3d 3d3c 8b3d 8ad2 fe3c
00000370: dea1 b1bd b809 25bd 0594 093d 070e b03c
00000380: 141d 8c3d 552b bdbd 1e7f 523d 5eb1 7abc
00000390: 07a7 6f3d e71f adba 018c dc3c 0fa4 623c
000003a0: b334 31bd 4320 e63c e758 ac3d 0082 083d
000003b0: 5ab8 18be f00b be3d ec54 f23c a868 b9bd
000003c0: 34a6 823c 831d 92bd 231f 353c 82ca 873d
000003d0: 6335 ca3d 7522 e2bc 3924 eb3c 3eae 793d
000003e0: 6ecb 8a3d 5def 273d 5ce0 adbc 0b52 fb3c
000003f0: 3f9b 42bd a2b6 1ebd 8e8b 9f3d 5c45 5c3d
-0.041317377 -0.11819622 -0.17784026 -0.123692274 0.03348028 -0.0966718 -0.04144197 -0.091145955
0.07234874 -0.04472796 0.08019284 0.105061084 0.06811176 -0.035145156 -0.08350439 -0.07167936
0.011248505 -0.046919372 0.059351336 0.10999237 0.12719674 0.008995788 0.1292046 0.044033773
0.0748777 -0.02592541 -0.08498593 -0.14702259 -0.13989988 -0.0020212084 -0.019080864 -0.0071708653
0.051897425 -0.006747204 0.062098503 0.1207243 0.028740369 0.067086264 -0.040662356 0.024552446
0.05186686 0.08932204 0.09039557 0.120652355 0.039750163 0.027250627 0.10945321 -0.040869024
-0.040584736 -0.058169566 -0.051054757 0.0017782069 0.07694355 -0.11567378 -0.004740216 -0.014093277
0.074748404 -0.09547932 0.03745643 0.01729829 0.114330985 -0.040816262 -0.062567435 -0.090687335
0.08351498 0.12703064 0.039001364 0.14811568 0.0012379783 -0.029333726 0.13964927 0.057070103
0.008236871 0.02511654 0.026333423 -0.05146072 0.12778272 -0.079534985 0.064848654 0.02901672
0.049817193 -0.051339645 0.04073297 -0.064090334 0.025398042 0.15461826 0.018779699 -0.085507095
-0.14504448 -0.0032938314 0.12045611 -0.016026473 0.03408681 -0.08406276 0.14637005 0.09700813
0.039248537 -0.06707988 -0.033555225 0.14607659 0.12671185 -0.050953515 0.037000895 0.0026646636
0.026532456 0.08493218 0.043299068 0.058562003 0.035372484 0.05848863 0.062463682 0.041555785
-0.025473258 -0.13681158 0.121041335 0.09307941 -0.078062735 -0.109050564 0.011873004 0.121634565
-0.07100634 -0.0026078648 0.025601838 0.10824706 0.027331805 -0.12320528 0.0045499047 -0.05987038
-0.099378005 -0.07558688 -0.068652846 0.02098972 -0.13401335 -0.12598202 -0.037492078 0.09450513
0.0719442 -0.16425411 -0.14696233 -0.014346407 -0.016458733 -0.107826985 -0.12383059 -0.083040625
0.07732745 -0.104961514 -0.14389296 -0.19259918 -0.022396293 0.09832632 -0.07768001 -0.08234898
-0.019240271 -0.039823305 -0.12822466 -0.08452556 -0.015119962 0.0054114535 -0.07597689 0.03424997
-0.028455062 0.1112751 0.0967585 -0.061462287 0.015264404 0.12330815 0.12753634 0.057829916
0.09645598 -0.10105661 -0.077458926 -0.022432595 -0.047142565 -0.0104421135 0.0011918657 0.09829534
0.05779694 0.07012884 0.05133894 -0.021526199 -0.014993829 -0.07373563 -0.073966146 0.038674533
-0.067221254 0.06131483 0.08788686 0.036799867 -0.038292643 0.0037532616 0.07643389 0.11493933
-0.038287014 0.121199295 0.09133195 -0.019894281 -0.05837341 -0.112494744 -0.0799039 0.012097347
0.061566345 -0.07136729 -0.034284107 -0.122144364 0.08973442 -0.0453998 -0.13383688 -0.1263452
-0.0044961143 -0.12167278 0.10753967 0.05263126 0.11069834 0.03439059 0.10505702 0.0580903
-0.049928643 0.076870844 0.06798599 0.031106252 -0.08673452 -0.04029247 0.033588428 0.021491064
0.06841484 -0.092367806 0.05139076 -0.015301077 0.0585089 -0.001320836 0.026922228 0.01383306
-0.04326315 0.028091555 0.08415394 0.033327103 -0.14914075 0.09279621 0.02958151 -0.09053165
0.015948392 -0.07134535 0.011054787 0.06630422 0.09873464 -0.027604321 0.028703796 0.060957186
0.067770824 0.04099976 -0.021225147 0.03067877 -0.047511335 -0.03874839 0.0779029 0.053777084

bias f4 [32]
00000000: da4b 51be 3a9f 3b3e 78d4 ceba 542d 34bd
00000010: 9138 45be 9f0d 90bc 5853 0cbe ba5c 9ebc
00000020: 078d d0bd 30bd c53d 12dd d6bc c698 5d3d
00000030: 05fd 223e f207 923d a206 0bbe 815e afbb
00000040: 58ef c0bd 5689 b33c 9c65 36bd 3dbf 1abe
00000050: 8c7a 51be 5195 fc3c ef88 333c f254 233e
00000060: 2133 6c3c daaf 4e3d 7bfe 54bc bd5a 863e
00000070: ffad 76bd eb81 1dbb 3f4f d7bd 74b8 293d
-0.20439091 0.18322459 -0.0015779873 -0.04398854 -0.1925986 -0.01758462 -0.13703668 -0.019331325
-0.10183149 0.09655225 -0.026228461 0.054100774 0.15916832 0.07130422 -0.13576749 -0.005351842
-0.09420651 0.021916073 -0.044530496 -0.15112014 -0.20456904 0.030832918 0.0109579405 0.15950373
0.014416487 0.050460674 -0.013000126 0.26241103 -0.06022453 -0.0024033736 -0.10513162 0.041435674

weight f4 [32, 32, 5, 5]
00000000: 8569 39bc f45a 003c d8e6 243d f52e 883c
00000010: 5e53 c73b f8ea d9bc 9fcd 23bc eef8 ccbc
00000020: dd1f cdbc 6043 9e3c 6a53 15bd e8e7 0abd
00000030: 86a2 31bd ddbd d9bc 1e32 ba3b 8e72 c23c
00000040: 6af8 953c c4fc d13c 60d2 0fbd 0b2b 8bbb
00000050: d450 69bc e493 bb3c 1836 1bbc 647d 37bc
00000060: a4df 1bbd be8f 2c3c 95ac e0bc 09a9 d63c
00000070: 412a f6bb bc29 38bc 37ad 643c ad7d f7bc
00000080: 5417 e8bc 495c 0a3d c2db 1e3d 0362 c83c
00000090: 5758 91bc bfff 6ebb 1b4a e83c 714f 31bc
000000a0: 9d00 27bd 0242 b6bc 4af1 9ebc 7ad5 01bd
000000b0: ff63 e5bb dbb2 97bb 17aa 0e3c d3e4 7b3b
000000c0: d653 103d d0a0 283c d9fc 8dbc f81e 983c
000000d0: a41e c13c b2be 48bc b5fa 4b3d 621a b93b
000000e0: 7dc0 95bc 0dde 91bc 321d 0a3d b46e a43c
000000f0: 58f9 febc 51ce bebc 05c8 24bb 029d 67bc
00000100: fea5 cc3a a695 92bc 5669 c93c 1d31 133c
00000110: cb35 16bd 4b99 b7bc f60f 9e3c 4071 d7bc
00000120: 31f4 b53a 05a5 b6b9 e0e8 263b 9c5a 9f3a
00000130: 1709 933c 6b4d 1d3d b372 1b3d 0c9e 333d
00000140: 3bf7 f0bc 7d87 9f3c b692 84bb a9cd 69bc
00000150: 1279 8cbb f130 18bd ac03 ed3c 4235 923c
00000160: b31e 063d 0621 18bb 363c 833c bd97 a63c
00000170: fa9d 4dbb 7d6f 093d 911e f2bc 7364 41ba
00000180: 84c4 1dbd 6af8 3ebc 59aa 8e3c b615 09bd
00000190: 829f 003d bef4 313d 2176 753d a36e 5b3d
000001a0: 101e 193d 47db 373c 2ace 98bc c083 9f3c
000001b0: 31b8 d83c 035a 44bc f199 f83b 964d bcbc
000001c0: 799e 583c cf7b e73c 126a 8abb 158e 2cbb
000001d0: 96da 213c 6d8b be3c f004 76bc cf35 ed3c
000001e0: 04d7 bbbc 2453 ccbb ff6a b13c 1d54 df3c
000001f0: b928 bbbc 1fe2 fbba 96aa d63c 46f8 223d
00000200: 34be d8b8 8072 043c a6b0 24bc a907 b43c
00000210: 9738 e03b c6dd 463c 8c89 a4ba 362b 913c
00000220: b1c7 84bc 399f 003c 6248 f23c c6c1 29bc
00000230: 9126 bc3c 81a8 953c d91f b9bc 3509 2abc
00000240: cdb2 993c f99b 44bc 05b3 d13c 3ab9 0cbd
00000250: f856 6bbc 3573 ccbc 6652 1bbd b74a bfbc
00000260: dc79 cfbc ce88 02bd bad0 02bc 0845 cf3c
00000270: 93ce 05bd d1d6 423c 1e28 a739 08c2 1cbd
00000280: 9dd2 efbc a681 b23c 914b acbb 5fea 0cbd
00000290: a91b 27bd 6f31 e3bc 7ee2 ef3c f0fb 243c
000002a0: 1de8 a33c cb9a 8bba 3a69 0fba b494 45bb
000002b0: 7783 dfbc 92e4 d1bc f431 ae3b 1e62 0e3d
000002c0: 452c bf3c 5059 48bc d9f5 cb3a fc12 873c
000002d0: c008 d8bc c60d f73b 627a adba aef2 173d
000002e0: 1d34 4cbc 19cc 063d 9e4e 293c f71c 073c
000002f0: 66da 8a3b 1a4b c6bc 2494 ea3c 2962 0a3c
00000300: 79d1 bb3c 733c 0a3d f973 973c 4e91 c33b
00000310: dbfb d93c 2574 15bc e8b2 8dba 2a9e 96bc
00000320: fd1d 8cbc c4ab 4c3b e31d ee3c d08c e0bc
00000330: d052 0c3d 6229 063d 2113 d03c 3ee6 91bc
00000340: 55b8 a7bc 96f9 2d3d c22a dd3c 17aa 5c3d
00000350: 0794 153d 31f7 333c 7a43 69bc 1b40 d53c
00000360: 32aa cebb f643 38bc dc6c a13c 7dce af3a
00000370: fbc1 393d 0aae 123c cc0c 75bc 63f3 1c3d
00000380: 6a9e 7a3b e8f5 36bd e5e3 f8bc 3647 17bc
00000390: 5c81 f2bc 8737 1cbd ccde c4bc de27 a1b8
000003a0: c0e6 29bd 5c6f a1bc 0d35 82b9 7c46 edbc
000003b0: d26f 08ba a4f8 cd3b 1d92 05bd c8cd c7bc
000003c0: 65df 12bd 567e f6bc a59f c93c b6df 953c
000003d0: 28be 47bc 32c4 9e3c 758d 0e3d 4dcc 15bc
000003e0: 97f5 05bd cdfb d33c 8a55 893c 9720 f8bb
000003f0: f08c bb3c 0dfe 343d 3c61 75bc 245c a53c
-0.011316662 0.007834185 0.040259212 0.016623953 0.006082936 -0.0266013 -0.009997754 -0.025021043
-0.025039608 0.019319236 -0.036456503 -0.03391257 -0.043367885 -0.026579792 0.005682244 0.023736265
0.01830693 0.025633223 -0.03511274 -0.0042470745 -0.014240462 0.022897668 -0.009473346 -0.011199329
-0.038055077 0.010532318 -0.027426044 0.02620365 -0.0075123613 -0.011240419 0.013957313 -0.030211294
-0.028331436 0.033779416 0.038783796 0.024460798 -0.017742319 -0.0036468355 0.028355649 -0.010822163
-0.04077207 -0.022248272 -0.019402165 -0.031697728 -0.007000446 -0.0046294755 0.008707545 0.003843595
0.035236202 0.010292247 -0.017332481 0.018569455 0.02357418 -0.012252497 0.04979964 0.005648897
-0.018280262 -0.017806077 0.03371925 0.020072319 -0.031124756 -0.023291739 -0.0025143635 -0.014136555
0.0015613434 -0.017893624 0.02458636 0.0089838775 -0.036672395 -0.022411963 0.01929472 -0.026299119
0.0013881979 -0.00034836694 0.0025468394 0.0012157741 0.01794867 0.03840391 0.037951183 0.043851897
-0.029414764 0.019473786 -0.0040458096 -0.014270225 -0.0042868936 -0.03715605 0.028932415 0.01784766
0.03274412 -0.0023213043 0.016019922 0.020336026 -0.003137468 0.03355359 -0.02955559 -0.0007377334
-0.03851749 -0.011655906 0.017415212 -0.03346797 0.03140212 0.043446295 0.05992711 0.05357231
0.037382185 0.011221713 -0.018652994 0.019472003 0.026455017 -0.011984351 0.0075867106 -0.022986215
0.013221377 0.028257279 -0.0042240703 -0.0026329805 0.009878775 0.023259843 -0.015015826 0.028956322
-0.022929676 -0.006235497 0.021657465 0.027261788 -0.022846567 -0.001921717 0.026204389 0.039787553
-0.00010335111 0.00808394 -0.010051882 0.021976309 0.0068426835 0.012137836 -0.0012553199 0.0177208
-0.016208502 0.007850462 0.02957553 -0.010361141 0.022967609 0.018268825 -0.022598194 -0.010378172
0.018762017 -0.012000077 0.025598058 -0.034356333 -0.014363997 -0.024957279 -0.03792038 -0.023351057
-0.025326662 -0.03186875 -0.007984335 0.025301471 -0.032667708 0.011892037 0.00031882612 -0.03827098
-0.029275233 0.021790337 -0.0052580317 -0.0344032 -0.040797863 -0.027733533 0.029282805 0.010069832
0.020008141 -0.001065099 -0.0005470697 -0.0030148448 -0.027284367 -0.025621686 0.0053160135 0.03476154
0.023336539 -0.012228325 0.0015560939 0.016488545 -0.02637136 0.0075394837 -0.0013235325 0.03709667
-0.012463597 0.032909486 0.010333685 0.008246652 0.004237461 -0.024205733 0.028635092 0.008446255
0.022927033 0.033749055 0.018487917 0.0059682494 0.026609352 -0.009121929 -0.0010810765 -0.018385965
-0.017104143 0.003123031 0.029066985 -0.027410895 0.034258664 0.03275431 0.025399746 -0.017809983
-0.020473639 0.04247435 0.026997928 0.053873148 0.036518123 0.010984228 -0.014237279 0.026031544
-0.00630691 -0.011246672 0.019705229 0.0013412979 0.04535101 0.008952627 -0.014956664 0.03831805
0.0038241395 -0.04466811 -0.030382106 -0.009233287 -0.029602699 -0.038138893 -0.02403202 -7.684504e-05
-0.041479826 -0.01970642 -0.00024835058 -0.028964274 -0.0005204651 0.006285744 -0.032610048 -0.024390116
-0.035857577 -0.030089539 0.024612257 0.01829515 -0.012191333 0.019380663 0.034802873 -0.009142947
-0.032704916 0.025876904 0.016764421 -0.0075722444 0.022894353 0.044187594 -0.014976796 0.020185538

bias f4 [32]
00000000: 192f 84bb 5025 abbb 0cf5 ccbc 247b e6bc
00000010: 79f3 10bd 016d 8cbc 1e11 d5bd 2446 75bd
00000020: 22ef 65bd a0c5 8dbd 4b63 553d ad55 793c
00000030: 7c25 1dbd 4cc9 10bc a7df 3c3d 3b0a a5bc
00000040: 26c3 d03c 837d 763d be0e c5bc 2e16 45bd
00000050: 5e37 933d ac1c 243d f542 c13a d27b c63c
00000060: 187a d0bc daf2 52bd ce90 16bd 8c4c b3bb
00000070: 5bfb 673c 7b79 8dbc 193c 18bc 6c06 02bd
-0.004033935 -0.005222954 -0.025019191 -0.02813489 -0.035388444 -0.01714182 -0.104036555 -0.059881344
-0.056136258 -0.069224596 0.052096646 0.015218181 -0.038365826 -0.008837055 0.04611173 -0.02014648
0.025483679 0.06017829 -0.024054881 -0.048116855 0.07188295 0.040066406 0.0014744686 0.024228964
-0.025448844 -0.051501133 -0.03675919 -0.0054717716 0.014159049 -0.01726984 -0.009291672 -0.031744406

weight f4 [64, 32, 5, 5]
00000000: 69f1 8bbc 68a8 99bc 4402 993b eaf2 c13c
00000010: 0dc3 4ebc a55a a03c 927a 133d 9213 2ebc
00000020: bea4 943a 22c5 cfbc a821 dc3c 7850 5d3c
00000030: 7bc8 163d 0558 2e3d 007e d7bb 502a ab3c
00000040: 7e1f 5e3c b06f 3d3b 2993 99bc 2659 4a3a
00000050: bbcf 61bc d498 21bc 011d a13b 48d6 4cbc
00000060: dcc7 87ba f9ce 17bd 77ea 8f3b f6e9 ecbc
00000070: fe56 9c3b c91a db3c 12a3 3dbc b4ef b83b
00000080: d996 953c 983a 08bc 2dca bbbc 0691 95bc
00000090: 22b1 00bc d8b9 d8bc 3ac7 90bc 5633 59bb
000000a0: 96e3 2d3d 9158 bc3c c5a9 be3c 041e f5bb
000000b0: f978 a53a 4498 d23c 6a4e b53c 2d79 d23c
000000c0: d09a d6bc 10d3 0c3d f172 cabb be1e 79ba
000000d0: 5be4 743c 3d85 e13c 89ba ab3c 5675 9ebc
000000e0: a5bc d93c c8da b53c 065b dbbb 82f1 ea3c
000000f0: 9ae8 e0bc 17fc 08bd f445 3ebc 15fb 733c
00000100: 877c 41bc 8c53 bb3c 6bd0 03bd 84eb c03c
00000110: 07f4 a5bb a3fd dbbc cc4b cf3c b99c 0dbd
00000120: 6710 9bba 2797 7d3c 8968 283c 73a5 aebb
00000130: ee04 4ebc cb0c f2bc ef68 f2bc 6e58 07bd
00000140: d0ec 543c ebff f53c c90a 073d fa61 1fbd
00000150: cd14 9a3c 138b bbbc e073 7b3c 49cb 803c
00000160: 784b b9bc f29d 7bbc b568 423c 5093 c6bc
00000170: 9d32 c9bc 7a34 8a3b 82dd 34bc 4313 1f3d
00000180: dcc2 8d3b 3fd0 efbc 53c4 5abc d6b8 22ba
00000190: 7864 083d 06ae 0cbc f67c d1bc de57 15bd
000001a0: af90 973b 12ba 56ba 05d3 0c3d 73ef c73c
000001b0: 7697 c03c 20e9 4c3c f78b 5cbc cd41 343d
000001c0: dab7 70ba 4c2c 9e3c aa4b ec3c 5a38 d83c
000001d0: 4899 fe3c cd9e 4839 fb50 6a3c b9d8 cbbc
000001e0: 491e 9cbc 7515 3b3d ac59 8cbc 4be6 db3b
000001f0: a589 fb3c 8bf8 bdbc fac9 163d cdbc a83c
00000200: b3ab c0bc 843b b4bc fee7 04bd d1e2 e13b
00000210: dfce 543d 1e3a 133d e26f 173c f7b2 c43a
00000220: 3c70 7f3c 23ef acbc 0a66 1e3d 93fb d63c
00000230: f391 11bc 574c c0bc 06d9 fd3c 6287 0fbc
00000240: 13d8 adbb 80d6 23bd 7fda fabc 0e6b a8bc
00000250: 8a6d 37bd 8605 3c3c 6143 0dbc 0bb7 543d
00000260: 281e 703d 86e3 6b3c 5b9e 323d 3f96 39bc
00000270: 9cf1 ab3c 6971 7d3d 97ba 143d c3dc 783c
00000280: f750 4cbd 04f5 10bd 4242 7fbc f7cf 173d
00000290: a5da f63c f6d2 4bbd bb84 343c 3f41 17bd
000002a0: db11 0fbc 7e7b b0bc 5c39 6c3c ca32 ae3c
000002b0: 54f1 82bc 7d0a e33c 3a62 05bc 2338 d2bc
000002c0: bf78 02ba c60e 1cbd f3c5 9b3b 0cab 483c
000002d0: d59a 3b3d 9d90 443d 47dc a43b 3dff a8bc
000002e0: 2758 0d3c c7d5 443a 8c58 0cbc be49 fa3c
000002f0: 8f02 f03c 3bd6 03bd e712 fcbc 5b29 163d
00000300: 801b 313d c1a2 533b 4ddf e83b 67a9 6fbc
00000310: df44 833c 2360 37bb 1e3a 4a3c d459 a7bc
00000320: 918a 9dbc 59ac 973c e5aa 593c af10 b6bb
00000330: 82b9 463c 5178 abbc 9ef0 4b3c e640 993b
00000340: 5e6f 313d 00b1 273d e95d b9bc b972 70bc
00000350: 4813 a2bc 8366 9ebc 7ac3 0cbd 3c8b 92bc
00000360: 8f4d 033c ddec 1b3c 53df 81bc 9891 b0bb
00000370: 113f 1abd 22e6 e03c b7bd c9bb 7355 de3c
00000380: 4002 b9bc c204 b93c 83ac c2bb 5966 d13c
00000390: 3af1 933c 6293 de3c b554 313c ec35 c0bb
000003a0: efb6 2c3b f5eb 7f3c 312c 6d3c bf07 c43c
000003b0: 9e60 083d 8e3a 7abc 1344 34bc 879e 96bc
000003c0: 17f1 c8bc e5eb e73b e631 9abc 4a53 943c
000003d0: b7b7 3b3c 3688 5ebc c036 77ba d93b 84bc
000003e0: b966 573c 4eed ffbc d173 fcbc 1b5f 97bc
000003f0: d06a 21bd 6c83 86bc 874c 0fbd 0cb3 023d
-0.017082887 -0.01875706 0.0046694595 0.0236754 -0.012619746 0.019574473 0.036005564 -0.010624783
0.0011340601 -0.025362555 0.026871517 0.013507955 0.036812287 0.04256441 -0.0065762997 0.0208942
0.013557313 0.0028905682 -0.01874693 0.00077189726 -0.013782437 -0.009863097 0.0049167876 -0.0125022605
-0.0010359245 -0.03706262 0.004391964 -0.028920155 0.0047711125 0.02674617 -0.0115745235 0.005643809
0.018260406 -0.008314751 -0.022923553 -0.01825763 -0.007854732 -0.026455805 -0.017673124 -0.003314217
0.04245337 0.02299145 0.023274312 -0.007480385 0.0012624554 0.025707372 0.022132117 0.025692547
-0.026196867 0.034380972 -0.006178253 -0.0009503177 0.014947022 0.027529353 0.02096297 -0.01934306
0.02657921 0.02219905 -0.0066942004 0.028679613 -0.027454663 -0.033443537 -0.011613358 0.014891406
-0.011809475 0.022866987 -0.032181185 0.023549803 -0.0050644907 -0.026854342 0.025304697 -0.03457329
-0.001183045 0.015477932 0.010278829 -0.0053297817 -0.0125744175 -0.029547116 -0.029591052 -0.033043317
0.012995914 0.030029258 0.03296927 -0.038911797 0.018808747 -0.022893464 0.015347451 0.015721934
-0.022618994 -0.015357481 0.011865784 -0.024240166 -0.024560267 0.0042176815 -0.01103914 0.03883673
0.0043262076 -0.029274104 -0.013352471 -0.0006207352 0.03329894 -0.008586412 -0.025572281 -0.03646075
0.004625402 -0.0008191179 0.03438093 0.02440617 0.023509722 0.012506753 -0.013461105 0.044008065
-0.00091826695 0.019308232 0.028844673 0.026394058 0.03107895 0.00019132644 0.014301534 -0.024883615
-0.01905741 0.04567476 -0.017132603 0.0067108027 0.030705282 -0.023189804 0.036813714 0.02059784
-0.023519373 -0.022001036 -0.032447807 0.0068934937 0.0519551 0.035944097 0.009242984 0.0015006949
0.015590724 -0.021110123 0.03867153 0.026243007 -0.008884895 -0.023473902 0.030987274 -0.008760305
-0.005305299 -0.039999485 -0.030621765 -0.02055886 -0.0447822 0.011475926 -0.008622021 0.051932376
0.05862251 0.0143975075 0.04360805 -0.011327325 0.020989232 0.061875734 0.03631076 0.015189352
-0.0498819 -0.035389915 -0.015579762 0.037063565 0.030133555 -0.049761735 0.011017974 -0.036927458
-0.008732284 -0.02154326 0.014417972 0.021264452 -0.015984215 0.027714962 -0.008141095 -0.025661534
-0.0004977099 -0.038100027 0.004753822 0.012247812 0.045801956 0.047989476 0.005031142 -0.02062952
0.008626974 0.0007508662 -0.008566033 0.030552741 0.029298095 -0.032186728 -0.030770732 0.036660533
0.043239117 0.0032293054 0.0071066977 -0.014627791 0.016024051 -0.0027980886 0.012342958 -0.020428576
-0.019231113 0.018514799 0.013285373 -0.005556188 0.012129189 -0.020931395 0.012447504 0.004676926
0.0433191 0.040940285 -0.022627788 -0.0146757895 -0.019784585 -0.01933599 -0.03436611 -0.017888658
0.008014097 0.009516922 -0.01585356 -0.00538845 -0.0376578 0.027453486 -0.006156649 0.027140355
-0.02258408 0.022585277 -0.005940975 0.025561498 0.018059362 0.027169887 0.010823418 -0.005865803
0.0026354154 0.015620221 0.014475868 0.023929475 0.033295266 -0.01527275 -0.011002558 -0.018386139
-0.024529023 0.0070776814 -0.018822622 0.018106122 0.011457375 -0.01358228 -0.00094304606 -0.016141819
0.01314705 -0.031241085 -0.030816944 -0.018477967 -0.039408505 -0.016420089 -0.03498509 0.031909034

bias f4 [64]
00000000: c4da a2bc 52a8 94bd 70a5 ae3b 4171 02bd
00000010: edfe 39bd 2cbb e1bc 4d08 2fbd 0601 dfbc
00000020: 6731 2fbd e740 95bc 3863 e2bc 9ce8 b6bb
00000030: 3d26 8abc 3ce7 03bc 376c 4f3a b2c6 24bc
00000040: 6aed efbc 4e8e 2cbd 33fb 1dbd 6f46 adbc
00000050: 1262 14bc f433 4fbd fa32 dd38 5ab0 54bd
00000060: fdaa b7ba 0556 3b3c 94d3 2b3d f4de 05bc
00000070: 7ae1 3ebd 77ef cd3b 5dd3 fd3c 3928 4ebd
00000080: 4188 59bd 6f54 90bb c2e1 8c3b fdf7 793c
00000090: 91c2 26bd 5ea7 08bc 24fc 6aba f379 663b
000000a0: bace 803c 5c16 29bc 4bc5 2cbb 2f9d ce3c
000000b0: 77df 17bd 51fc 31bb 6f72 40bc fe02 153b
000000c0: 3bbf babc fba9 95bb 2d8e 9cbd 0fae 86bb
000000d0: 3009 66bc 81a5 80bc 2153 923c 2632 b5bc
000000e0: f2c6 7c3b d610 c1bc 6ada 02bd b8b5 75bd
000000f0: e31c 84bc 794c 843c d921 533c 6fdb 2cbd
-0.019879706 -0.07258667 0.0053297803 -0.03184629 -0.04540913 -0.02755507 -0.042732526 -0.027222168
-0.042771723 -0.018219424 -0.027635202 -0.0055819284 -0.016863937 -0.008050736 0.00079125486 -0.010057138
-0.029288013 -0.0421279 -0.03856964 -0.02115175 -0.009056585 -0.050586656 0.00010547596 -0.051925994
-0.001401275 0.011434083 0.041949823 -0.008170832 -0.04660175 0.00628465 0.030984575 -0.050331328
-0.053108457 -0.0044045965 0.0042993734 0.015256879 -0.040712897 -0.008340685 -0.00089639635 0.0035167902
0.015723575 -0.010320272 -0.0026362713 0.025221435 -0.037078347 -0.002715845 -0.011746033 0.002273738
-0.022796264 -0.0045673824 -0.076443054 -0.004110105 -0.014040276 -0.015703918 0.017861905 -0.02211864
0.003857073 -0.023567598 -0.031946577 -0.059987754 -0.016127056 0.016149746 0.012886488 -0.042201456

weight f4 [64, 1024]
00000000: c003 02bc 98dd 22bb 5b80 083a 3883 8d3c
00000010: 2643 833c 6ae7 d83c 5901 cbbb 34bc a03b
00000020: d6c0 b73c c8b2 e23c c639 f5bc 54bb acbb
00000030: 3a4b c73c 990b 523b e366 663b a6b2 8f3c
00000040: c511 b3bc 8522 423b 63d8 a03c e23e 6d3c
00000050: 33cd 82bc 4b30 a0ba e793 c53c 0e19 c43c
00000060: a9a7 213c 0796 05bc 6159 9abc fd4b c9bc
00000070: 7ab8 e63c bf3c d4bb 5cd7 163c 8184 b3bc
00000080: 845c c0bc 5aea 873c 9914 77bc db29 4ebc
00000090: 8891 0abc 6541 ccbc 2223 99ba ad43 28bd
000000a0: 0e98 9d3c 7319 27bc 515f a0bc e820 e23b
000000b0: b6dc d03b 8b7e 133d f268 9d3c 2d27 0cbc
000000c0: 2066 4d3c 4e46 1cb9 8d43 aebc 6ce7 ea3c
000000d0: f2f8 343c da85 87bc c009 513d b78e 80bc
000000e0: 5890 35bc 3668 53bc a3a7 083d 4d5d c73c
000000f0: 1104 bd3c 2078 523b c41b 1c3d 4a89 8039
00000100: 1836 bdbc 9ff9 893c 94fe 053b 05b3 f6bc
00000110: 218f 5abc a366 97bc 5d32 47bd 45c1 04bd
00000120: 911f 293d a902 cfbc b08f 753c 1022 b63c
00000130: d405 10bd d253 1abc ab5a 833c f7b6 233a
00000140: 4094 05bb 947d 983c 53e5 a3bc c420 de3b
00000150: 7e5c 2dbd 9874 01bd 2412 62bc 6aa4 ae3c
00000160: 19c5 babb 742d 65bc 2722 d6bc 36cc 393c
00000170: 346a 0dbd 5f46 29bd 0f95 8c3c 864b dbbb
00000180: 02dd ec3c 466f df3c f229 bfbb 1b5d 293d
00000190: 97c9 e3bc ff96 4cbb d8f3 f23c 21d1 e3bc
000001a0: 0ecc 663c 6a69 e73c a5cc 8e3b 9a0a 39bc
000001b0: dc40 e2bc bdc9 15bd f957 e63a ab7a b2bc
000001c0: 4777 aa3c 859c 453c 6964 80ba 3c04 163d
000001d0: 30f9 093d 6684 8e3c c347 b5bc 2056 fa3c
000001e0: 2a94 2fb9 102e 4bbc 91d1 723b e5ad b1bc
000001f0: f7a2 8f3b d1a0 9d3c 6e1a 89bc 994e ad3c
00000200: e0c6 ac3a 290f 41bc 73eb e5bc 4786 aebc
00000210: 34a3 3b3c 2fe7 f0bb 25e0 22bb 10dd ca3c
00000220: c233 a93c 614c ea3b ce89 be3c 720b 9b3b
00000230: 0b47 673b 80a9 c43c 1615 70bb 0136 193d
00000240: 2e9d 963c 9ea8 283c bae3 03bd b3fa bfbc
00000250: 16d9 a13c 7266 073d 3322 ea3c 51be a9bc
00000260: ba25 bd3c d908 71bc 6c7d 7aba 4ca0 0cbb
00000270: 332c b83b de84 863c 49c7 9d3b e2de 003d
00000280: 8a91 f539 932f dbbb 9820 883a 3f9e 113d
00000290: c1be ffbc 20f1 a53c c753 43bc e1d6 f33b
000002a0: 1805 58bc 5b62 fdbc 13f6 503c ec9b 7d3c
000002b0: deb9 ff3b 2890 63bc 921b c8bc 3cc6 063d
000002c0: 5fc2 a4bc f046 063c f9b0 f13c e562 b7bc
000002d0: 10de a6bc 8ef3 7cbc 0418 093d cf9f e8bc
000002e0: 1219 163d 9102 213d cf1a b13c b4d1 bebb
000002f0: 5bb8 e3bc 6c8b 033a 5f17 ac3c 3eb1 e3bc
00000300: 4f80 c23c fba7 a53c 28f5 e7bc ea60 193d
00000310: 7f4d 1abd 849b 05ba 9729 573c bbc1 683c
00000320: 0e36 5c3c 509b d33c 1498 d7ba e905 3cbc
00000330: cfdc cf3c 6652 b73c 30d9 f43a 5e3a b4bc
00000340: 2ced e03b 2112 5bbc fe51 abbb 6873 49bc
00000350: c2e5 083c 9a40 c1bb f2d1 663c 2bc0 1cba
00000360: 60c1 a3bc 584b 423d 41a4 9dbb f18c e03c
00000370: d086 213a b8fd 6bba a32b 143d 1d22 d3bc
00000380: ac8d acbb 1822 fdbb c046 fa3c 274b fb3b
00000390: a67f 21bd 469c 36bc 9101 573c d5dd 533c
000003a0: 3e43 7abc 0607 8fbc 6b24 8dbc dd20 bdbc
000003b0: 9bc5 7039 dc44 e13c 2d3b b9bc 30ab bebc
000003c0: aebe 68bc 314e 80bc 0fde 83bc d12d 0e3d
000003d0: 3731 bb3b e8d4 bd3c 9e39 da3c e846 98bc
000003e0: 774c cf3c ab4d 413d 7b4f 01bc dc49 09bd
000003f0: a383 05bc b2c2 8e39 5070 f53c 677b 113d
-0.007935464 -0.0024851318 0.0005207115 0.017274484 0.01602323 0.026477534 -0.006195229 0.004905248
0.022430819 0.02767314 -0.029934775 -0.0052713547 0.024327863 0.003205037 0.003515654 0.01754124
-0.02185906 0.0029622626 0.019634431 0.014480324 -0.015966987 -0.0012221424 0.024118377 0.023937728
0.009866633 -0.008153445 -0.018841447 -0.024572367 0.028164137 -0.006476968 0.009206619 -0.021913769
-0.023481615 0.01659124 -0.015080594 -0.012583221 -0.008457549 -0.024933526 -0.0011683444 -0.041080166
0.019237544 -0.010198939 -0.0195767 0.0069008954 0.006373967 0.036009353 0.01921508 -0.008554262
0.0125365555 -0.0001490351 -0.021272445 0.028674804 0.011045681 -0.016543318 0.05103469 -0.015693052
-0.0110817775 -0.012903264 0.033362996 0.024336481 0.023073228 0.0032115057 0.038112417 0.0002451635
-0.023097083 0.016842661 0.002044593 -0.03011466 -0.013339789 -0.018481558 -0.048632015 -0.03241088
0.04128987 -0.025269823 0.014987871 0.02223304 -0.035161808 -0.009419398 0.016034445 0.00062452204
-0.0020382553 0.018614568 -0.020006811 0.0067788083 -0.042324536 -0.031605333 -0.01379827 0.021318633
-0.0056997654 -0.013987888 -0.026139332 0.011340192 -0.03452511 -0.041326877 0.01716092 -0.0066923527
0.028913978 0.027274739 -0.0058338577 0.041348558 -0.027806086 -0.003121793 0.02965729 -0.027809681
0.014086736 0.028248508 0.0043578916 -0.0112940315 -0.027618818 -0.036569346 0.0017573825 -0.021787008
0.020808829 0.012061243 -0.000979555 0.036625132 0.03368491 0.017397117 -0.022128945 0.030558646
-0.00016744496 -0.012401119 0.003705118 -0.021689365 0.0043834406 0.019241722 -0.016736235 0.021155642
0.0013181828 -0.0117834 -0.028066372 -0.021304263 0.011452485 -0.007351778 -0.0024852839 0.024763614
0.020654563 0.0071502184 0.02325907 0.004731589 0.0035290148 0.024006605 -0.0036633662 0.037405018
0.018385496 0.010294108 -0.0321996 -0.023434972 0.019756835 0.033056684 0.02858076 -0.020720633
0.023089278 -0.014711582 -0.00095554325 -0.002145785 0.0056205033 0.016420778 0.0048150164 0.031462558
0.00046838477 -0.006689021 0.001038569 0.035551306 -0.031218888 0.020256579 -0.01192183 0.007441387
-0.013184808 -0.030930689 0.012753981 0.015479069 0.0078041395 -0.01388935 -0.024427209 0.032903895
-0.020112215 0.008195624 0.029503332 -0.022386024 -0.02036956 -0.015438927 0.03347017 -0.028396515
0.036645003 0.03930909 0.021619229 -0.0058233384 -0.027797868 0.0005018029 0.021007238 -0.027794477
0.023742823 0.0202217 -0.028315142 0.03744594 -0.037671562 -0.0005096721 0.013132474 0.014206345
0.013440622 0.025830895 -0.0016448521 -0.0114760185 0.025373844 0.022378158 0.001868045 -0.022000488
0.0068642106 -0.0133710215 -0.00522828 -0.012295581 0.00835556 -0.0058975937 0.014088141 -0.0005979563
-0.01998967 0.047435135 -0.0048108404 0.027410956 0.0006161751 -0.00090023456 0.036174428 -0.025773102
-0.005265912 -0.0077250116 0.030551314 0.007668871 -0.039428376 -0.011145657 0.013122932 0.012931307
-0.015274821 -0.017459404 -0.01722928 -0.02308696 0.00022961797 0.027498655 -0.022611225 -0.023274988
-0.014205618 -0.015662285 -0.016097097 0.034711663 0.005712654 0.02317281 0.026638802 -0.018588498
0.025305016 0.04719321 -0.007892485 -0.033517703 -0.00814906 0.0002722941 0.029960781 0.035518076

bias f4 [64]
00000000: 470b 63bc a14b 13bd 50f2 83bb cc16 223c
00000010: 6dea e2bc 2c5e 073b 8032 4fbc 8f03 ecbb
00000020: 5155 053d 8f08 70bc 4b99 a9ba 1848 8139
00000030: 4286 da3c 3b25 12bd 0599 32bd 246d f53b
00000040: 42cd 9c3c 9b86 13bc 28e2 853c f0a8 b43c
00000050: 4f36 a8bc 9f87 9b38 46c1 173c e8be 453d
00000060: 4986 8bbc f0c7 973c 413e debc d791 a1bc
00000070: 8f99 04bd 54c0 16bd 7a54 5cbd 9316 953c
00000080: 44ee 9c3c ed3d 553c 2e9c 8dbb 9f72 083c
00000090: cb90 59bb 933b 04bc d1c1 89bd f84e a43c
000000a0: 5a50 973c 7d20 7e3c 127b 7bbc 9d95 b43c
000000b0: 8415 083d d948 90bb ddb7 d739 d6ad 2fbb
000000c0: 73a7 3fbc dff7 a63c 78fb 5f3c e559 2d3a
000000d0: 2585 9e3c 5958 d2bc c172 45bd ed42 4bbc
000000e0: b949 96bb 629a 0f3c 1641 633d df2c a7bc
000000f0: e98f 0bbb fce2 96bb 8ab5 ca3c 87ec 9cbc
-0.013857669 -0.035960797 -0.0040266886 0.0098931305 -0.027699674 0.0020655496 -0.0126463175 -0.0072025727
0.032552067 -0.014650478 -0.0012939362 0.0002465851 0.026675347 -0.035680037 -0.043602962 0.007489817
0.019140843 -0.00900426 0.016343191 0.022053212 -0.020533709 7.416237e-05 0.009262389 0.048277766
-0.017031806 0.018527955 -0.027129294 -0.019722862 -0.032373007 -0.036804512 -0.0537915 0.01819924
0.019156583 0.013015253 -0.0043215966 0.008328109 -0.0033197876 -0.008070844 -0.06726421 0.020057186
0.018470932 0.0155106755 -0.0153491665 0.022043997 0.033223644 -0.0044032154 0.00041144984 -0.0026806495
-0.011697638 0.020381866 0.013670795 0.00066128216 0.019350598 -0.025676893 -0.04820514 -0.012406093
-0.004586425 0.008764835 0.055481993 -0.020407138 -0.0021295494 -0.0046046954 0.024744768 -0.019155754

weight f4 [10, 64]
00000000: 73de 92bc cf15 443d 66f6 80bc 641a e33d
00000010: 80a7 13bd 1786 113e 119a 00bd cc81 833d
00000020: 42e9 e7bd 1768 bd3d 0f98 5d3c b038 30bd
00000030: a8ab 70bd 1c57 6c3b 5d1a df3d c0a6 053e
00000040: f428 2ebe dd63 733d c853 13be b9d7 ddbd
00000050: c0a5 15be 20db 5fbd 81dd 163d 93d8 1f3d
00000060: 7905 7f3d 5915 0c3e c3d5 27be 3747 ff3d
00000070: ab7d 21bd cb92 fd3d 41aa 273e b451 cc3d
00000080: cd48 20bd c51a 543d 19d2 80bd fa27 8b3d
00000090: 086a 603c 2589 f4bd 6e9a 233e d0e3 34bd
000000a0: 5956 28bd 7605 4abc a5b7 f73d 9891 d9bd
000000b0: c780 babd 2cf5 f3bd 1f19 01be be3b 21bd
000000c0: a4c7 083e 868d 003b 2d49 55bd c99d 96bd
000000d0: 3464 763c 375b 15be daa2 a3bb f7b6 c93d
000000e0: 7a34 223e 166d cfbd 8a53 20be b533 d53d
000000f0: b331 19be c3c5 33ba f6ac 27be 98b1 433d
00000100: f0ff d7bd 4a4d 513e a2ad 413e c28e 833d
00000110: 4d46 e63d 01c0 0ebe 6626 cfbd fa3c 9f3d
00000120: c595 f33c f922 20be 3e3a 20bd bfcd 803c
00000130: 0cb5 52be 6442 39bd 81a4 34be 9f0f c63d
00000140: 43de 0bbe 05d1 0dbe 3294 a8bd 8bfa f13b
00000150: bfa7 cdbd b397 2bbe 2296 03be 4e1e 883d
00000160: 4d3d 0dbe b1b5 2bbe 8574 a9bc 46a3 243e
00000170: 14f8 a03d 32de 6b3e d650 2dbd 5e18 023d
00000180: 4ed8 013e 54ce d93b 4d06 73be 752e c7bd
00000190: cb7e 64bd 6b55 c5bd fe9c 45bd 5665 513e
000001a0: 6d63 f83d febc 793a f4dd 43be f2ff ce3d
000001b0: 0c8f a8bd 7bba c9bd 08bc 333a a237 6c3b
000001c0: 1fa2 41bd 37f2 b33d 0184 3a3e dadc 36be
000001d0: 0b3f 06be 7b64 b3bd 2a6b 303e c5f4 d8bd
000001e0: 61ba 20be 3a30 a73d 14dd 91bd f23f 94bc
000001f0: e82e d73d 4284 c9bc 56df 23be 8755 0b3e
00000200: 9ad8 213e 5981 88bd 4016 52bd e1a5 05bc
00000210: df50 b53d a843 a4bd 1a29 c4bc dd52 e0bd
00000220: 5c42 173e 36f7 cd3d 7b33 003e c8db ba3d
00000230: 7b75 80bb 43e0 18be ac18 71ba a52c 153c
00000240: d23f 153e 990a 8dbd fe00 c9bd 927c 28bd
00000250: 8e75 07bd 72fe db3d 8f48 abbd 10a1 1cbd
00000260: 5634 95bd 303f 0a3e 81fd 10be 578e eebd
00000270: 6a44 ab3d 9b62 0cbe 6e53 f8bd 4b78 f1bd
00000280: 50bc bd3a 9502 22bd 4279 a0bd c604 1cbd
00000290: 9ab2 99bd 3271 0b3e a0aa abbb 3746 52be
000002a0: 29fc a0bd da76 f5bc 6da5 183e 5d92 7e39
000002b0: c230 d4bd fe60 e83d 327b eb3d 0348 0bbe
000002c0: a8e7 e83d ca1d aebb af11 e9bd bbe6 d83d
000002d0: e1dc 04bd af4b 5fbd 193d 2d3e 4fad 0abd
000002e0: 5419 513e cf1c 0d3e e193 8e3d 6c0a f53c
000002f0: 750b 42be 679a b83d b6bf d3bd f848 d4bc
00000300: 3735 153e 0677 963b 0b3d 6fba 3cac 553d
00000310: 3d81 d8ba cad6 14be d3e0 f93d b01c 98bd
00000320: a72a 07bd b03a a1bd c9a0 133e a9a6 bfbc
00000330: f833 053d 17ae fd3c c293 bfbc 8058 2ebe
00000340: 9742 233e d609 22bd e29d a03d 2f5a 183d
00000350: 78c7 d23d 9b5f 2e3e e91e 1f3c 8dc6 f73d
00000360: 5e36 8a3d 1e75 c7bd c84d 143d da96 0dbe
00000370: f459 08be bb1a 89b9 68c7 26be 4d46 37be
00000380: 413a c73d 224a 163e c8b3 22bd 1c13 2ebe
00000390: 397d bd3d 929f 883d ad54 f43c 0c5b 9c3d
000003a0: f4b8 f9bc a262 8d3d b8a3 a7bc 122c 093d
000003b0: f348 a93c 8f44 c13d 8a75 893d 8594 07bd
000003c0: a8f8 9bbd 3bc5 eb3d e924 84bc 7bdc 7f3d
000003d0: 0788 98bc 52e9 e33d c6b5 8ebd 5f86 533e
000003e0: 23e2 e9bc 5066 513d 31fd 8c3d 7d96 8f3d
000003f0: 49b0 93bd 81f5 3fbd a40e c83c 8c97 e33c
-0.017928338 0.04787236 -0.015742492 0.11089018 -0.036048412 0.14211307 -0.03139693 0.06421241
-0.11323787 0.09248369 0.013525023 -0.04302281 -0.058757454 0.0036062663 0.108937 0.13051891
-0.1700781 0.05942141 -0.14387429 -0.108321615 -0.1461401 -0.054652333 0.036832336 0.0390249
0.06226108 0.13680018 -0.16390137 0.12464755 -0.039426487 0.12381514 0.1637354 0.09976521
-0.03913193 0.051783342 -0.06290073 0.06794734 0.013697155 -0.11940221 0.15976879 -0.04416257
-0.041097973 -0.012330404 0.12095574 -0.10623473 -0.091065936 -0.11911997 -0.12607239 -0.039363615
0.13357407 0.0019615605 -0.05207174 -0.07354314 0.015038539 -0.14585577 -0.0049937787 0.09849351
0.1584033 -0.10128228 -0.15656868 0.10410253 -0.14960365 -0.0006857777 -0.16374573 0.04777679
-0.10546863 0.2043964 0.18913892 0.06423713 0.112438776 -0.13940431 -0.10114746 0.07775302
0.029734502 -0.15638341 -0.039118044 0.015723107 -0.20576876 -0.04522933 -0.17640878 0.09670948
-0.13659005 -0.13849266 -0.08231391 0.0073846034 -0.10041761 -0.16757087 -0.1285024 0.06646405
-0.13792916 -0.16768529 -0.020685444 0.16077909 0.07859817 0.2303398 -0.04231342 0.03176152
0.1268017 0.0066469107 -0.23732872 -0.09725658 -0.05578498 -0.09635433 -0.048245423 0.20448813
0.12128339 0.0009526758 -0.19127637 0.101074114 -0.08230409 -0.098500215 0.0006856327 0.0036043902
-0.04727375 0.08786433 0.18214418 -0.17857686 -0.13109986 -0.087593995 0.1722838 -0.10593561
-0.15696098 0.08163495 -0.071222454 -0.018096898 0.105069935 -0.024599198 -0.16003165 0.13606845
0.15805283 -0.06665296 -0.05129075 -0.008157224 0.088533156 -0.08020717 -0.02394538 -0.10953305
0.14771408 0.10056917 0.12519638 0.09123951 -0.0039202548 -0.14929299 -0.0009197097 0.009104882
0.14575127 -0.06886787 -0.09814642 -0.041134425 -0.033071093 0.10741891 -0.08363449 -0.03823954
-0.07285373 0.13500667 -0.14159204 -0.11648243 0.08362658 -0.1370949 -0.12125288 -0.11790522
0.0014475677 -0.039553244 -0.07835628 -0.03809049 -0.07504769 0.136174 -0.005238846 -0.20534597
-0.07860596 -0.0299639 0.14906855 0.00024277852 -0.10360862 0.11346625 0.11498107 -0.13601689
0.1137231 -0.0053136097 -0.11380326 0.10590883 -0.03243721 -0.054515537 0.16917838 -0.033856686
0.20419818 0.13780521 0.069617994 0.029912196 -0.18949683 0.09013825 -0.103393 -0.0259137
0.14571081 0.0045918254 -0.00091262226 0.05216621 -0.0016518008 -0.1453506 0.12201085 -0.07427347
-0.03299966 -0.07872522 0.14416803 -0.0233949 0.032520264 0.030966802 -0.023385886 -0.17025948
0.15943371 -0.03956016 0.07842614 0.03719538 0.10291952 0.17028658 0.009711959 0.120984174
0.06748651 -0.09739135 0.03620699 -0.13827077 -0.13315564 -0.00026150592 -0.16287005 -0.17897911
0.09727908 0.14676717 -0.039722234 -0.16999477 0.092524 0.066710606 0.029825533 0.07634553
-0.0304837 0.06903578 -0.02046381 0.033489294 0.020664668 0.09436905 0.06711872 -0.033100624
-0.07615787 0.11512228 -0.016130881 0.062466126 -0.01861955 0.11128487 -0.06968264 0.20656727
-0.028550213 0.051122963 0.0688423 0.07011125 -0.07211358 -0.04686499 0.024421044 0.027782224

bias f4 [10]
00000000: 5872 08be bf56 a2bd 1901 3bbd 7325 d5bc
00000010: d3b9 aa3d fa49 bfbd e06c f4bc f137 fb3c
00000020: 039f 3bbd a342 96bd
-0.13324869 -0.07926702 -0.045655344 -0.026018834 0.083362244 -0.09340282 -0.029837072 0.030666323
-0.045805942 -0.07336929
