project01/first_train/snn_3.pth (torch, 587335 bytes, 10 tensors)

weight f4 [32, 3, 5, 5]
0	0xbcebebf6	-0.028799038
1	0xbdd601cd	-0.10449562
2	0xbe275ef5	-0.16344817
3	0xbde09b7b	-0.109671555
4	0x3d3af752	0.04564602
5	0xbdb1f167	-0.08688622
6	0xbd04b05b	-0.03239475
7	0xbda7a197	-0.08185118
8	0x3da9bd72	0.08288087
9	0xbd03c276	-0.032167874
10	0x3da93335	0.0826172
11	0x3dd74553	0.105112694
12	0x3d8c5db1	0.06853808
13	0xbcf73a9d	-0.030179316
14	0xbd966149	-0.073427744
15	0xbd992ecd	-0.0747963
16	0x3bc03432	0.005865597
17	0xbd567f84	-0.052367702
18	0x3d6e37e5	0.058158774
19	0x3de8c1fe	0.11365126
20	0x3dfedc22	0.12444331
21	0x3baac756	0.005211751
22	0x3e006140	0.12537098
23	0x3d314da0	0.04328692
24	0x3d9f655a	0.07783003
25	0xbcbffb69	-0.023435311
26	0xbda739c2	-0.08165313
27	0xbe11ee86	-0.14251146
28	0xbe099cc7	-0.13438712
29	0x3b227c6d	0.0024793402
30	0xbc92bf4f	-0.017913489
31	0xbbe22a94	-0.0069020484
32	0x3d596ed4	0.05308421
33	0xbb4a1f24	-0.0030841315
34	0x3d8c0334	0.068365484
35	0x3def640a	0.11689003
36	0x3cb8831d	0.022523457
37	0x3d7e84c3	0.06213833
38	0xbd23aea2	-0.039961465
39	0x3cfd34dc	0.030908994
40	0x3d3c3e48	0.045957834
41	0x3da5f45b	0.08103248
42	0x3da9eebf	0.0829749
43	0x3df2e2e3	0.118596815
44	0x3d3133a7	0.04326215
45	0x3ccd3b93	0.025052821
46	0x3dd94d75	0.10610477
47	0xbd31a6e4	-0.04337205
48	0xbd1fe175	-0.039033372
49	0xbd56f733	-0.05248184
50	0xbd496cfd	-0.049176205
51	0x3b862ffb	0.004095075
52	0x3da4fbe8	0.0805586
53	0xbde1880e	-0.110122785
54	0x3aadf9bf	0.0013273283
55	0xbc546b04	-0.012964968
56	0x3d998201	0.074954994
57	0xbdc0e486	-0.094185874
58	0x3d2b2177	0.04177996
59	0x3ccfcf91	0.02536753
60	0x3de500a6	0.11181764
61	0xbd39660b	-0.04526333
62	0xbd865bab	-0.06560453
63	0xbdb3e5e8	-0.087840855
64	0x3dbe0f87	0.09280305
65	0x3dfcdb06	0.12346463
66	0x3d099c75	0.033596475
67	0x3e133825	0.14376886
68	0x3b2088db	0.0024495635
69	0xbcb3ffb0	-0.021972507
70	0x3e0ee24b	0.13953511
71	0x3d667992	0.056268282
72	0x3c09cddb	0.008410896
73	0x3cf157a0	0.029460728
74	0x3d10981a	0.035301305
75	0xbd536668	-0.051611334
76	0x3e013f0e	0.1262171
77	0xbd9d3776	-0.07676594
78	0x3d8e8b73	0.069601916
79	0x3cfca79d	0.030841643
80	0x3d4d7199	0.050157163
81	0xbd57696b	-0.05259077
82	0x3d3ea61d	0.046545137
83	0xbd60d6d4	-0.054892376
84	0x3cd28794	0.025699414
85	0x3e1b3955	0.15158589
86	0x3c9841f0	0.018586129
87	0xbd98daa2	-0.07463576
88	0xbe092546	-0.13393125
89	0xbc236939	-0.0099738175
90	0x3defcacd	0.11708603
91	0xbc361da3	-0.011115464
92	0x3d42ba46	0.047540925
93	0xbd9ed5b7	-0.077556066
94	0x3e0aee2a	0.13567415
95	0x3dcf4db3	0.10122242
96	0x3d438448	0.047733575
97	0xbd6b4705	-0.057440776
98	0xbcfcc0de	-0.030853685
99	0x3e10067e	0.14064977
100	0x3dfe0a55	0.124043144
101	0xbd5f54ae	-0.054524116
102	0x3d1dcdf8	0.038526505
103	0x3bab9d4d	0.0052372576
104	0x3cd13b54	0.025540985
105	0x3da97603	0.08274462
106	0x3d24e29d	0.040255178
107	0x3d8137ae	0.06309448
108	0x3d2c970d	0.04213624
109	0x3d63e171	0.05563492
110	0x3d6be227	0.057588723
111	0x3d244b79	0.04011104
112	0xbc7d2963	-0.015451762
113	0xbe02d66e	-0.12777111
114	0x3de4d979	0.11174292
115	0x3daf4178	0.08557409
116	0xbd9dd9b1	-0.07707537
117	0xbdca91ca	-0.09891088
118	0x3c686ff8	0.014186852
119	0x3dda07bb	0.10646006
120	0xbd93362d	-0.071880676
121	0x3a97203f	0.0011529996
122	0x3d00ade3	0.03141583
123	0x3dda3cee	0.10656153
124	0x3c8de8f9	0.017323004
125	0xbdfc3dd8	-0.12316483
126	0x3b673027	0.0035276504
127	0xbd63d3f8	-0.05562207
128	0xbdc3e92b	-0.09565958
129	0xbd9a796e	-0.07542692
130	0xbd8b9dcd	-0.068172075
131	0x3ca6b277	0.02034877
132	0xbe0216d8	-0.12704027
133	0xbdf27b65	-0.11839942
134	0xbd20aa1e	-0.039224736
135	0x3dbf138e	0.09329902
136	0x3d96af80	0.07357693
137	0xbe1ac0ed	-0.15112658
138	0xbe0b48a5	-0.1360193
139	0xbcac65e8	-0.021044686
140	0xbcaad4dd	-0.020853454
141	0xbdd609dd	-0.104511
142	0xbde3770f	-0.11106693
143	0xbda14e8f	-0.07876312
144	0x3d84dfdc	0.0648801
145	0xbdd3bdf9	-0.10338969
146	0xbe0d63a6	-0.13807544
147	0xbe3c5b8d	-0.18394299
148	0xbcb3ab3b	-0.021932235
149	0x3db9ee24	0.09078625
150	0xbd8bab61	-0.06819797
151	0xbd91abf6	-0.07112877
152	0xbc388828	-0.011262931
153	0xbd070c61	-0.03297079
154	0xbdf772ca	-0.12082441
155	0xbd8e3a45	-0.06944708
156	0xb89771bf	-7.221428e-05
157	0x3c820daf	0.015875665
158	0xbd8a101b	-0.06741353
159	0x3d2f6b74	0.042827085
160	0xbcd850aa	-0.026405651
161	0x3ddf7195	0.10910336
162	0x3dbac561	0.09119678
163	0xbd812b05	-0.063070334
164	0x3c8a9feb	0.016921958
165	0x3df69c95	0.120415844
166	0x3dfcb42c	0.123390526
167	0x3d501b8e	0.05080753
168	0x3dbd5837	0.09245341
169	0xbdcaf0e1	-0.09909225
170	0xbd8caeb0	-0.068692565
171	0xbc4c455f	-0.012467711
172	0xbd26b10f	-0.0406962
173	0xbb43c9b8	-0.0029874872
174	0x3c1f1f39	0.009712034
175	0x3dc83099	0.09774894
176	0x3d72e2c4	0.05929829
177	0x3d8cecce	0.068811044
178	0x3d4823a6	0.048862122
179	0xbcbe4484	-0.02322603
180	0xbbf74652	-0.0075462246
181	0xbd8663bc	-0.065619916
182	0xbd8fb2e3	-0.07016542
183	0x3d2460d6	0.040131412
184	0xbd85e573	-0.065379046
185	0x3d6a6035	0.057220656
186	0x3da3b878	0.07994169
187	0x3cd0ad1f	0.025473176
188	0xbd3d1f2f	-0.046172317
189	0xba61fe18	-0.0008620932
190	0x3d8f039c	0.0698311
191	0x3ddba1c5	0.107242145
192	0xbd493135	-0.049119193
193	0x3de6d921	0.11271883
194	0x3db4e2cf	0.08832323
195	0xbc57be16	-0.013167879
196	0xbd4e0f11	-0.050307337
197	0xbddd1e75	-0.10796825
198	0xbd991296	-0.07474248
199	0x3c91fb30	0.01781997
200	0x3d84db69	0.06487162
201	0xbd8812e1	-0.06644226
202	0xbd015551	-0.031575505
203	0xbdf6f94b	-0.120592676
204	0x3dbb9cdf	0.0916078
205	0xbd0ac93e	-0.033883326
206	0xbdf98fd6	-0.12185638
207	0xbdf26057	-0.118347816
208	0x3a9d7d87	0.001201556
209	0xbded3a88	-0.115834296
210	0x3ddedc6e	0.108818874
211	0x3d4da483	0.05020572
212	0x3dd6af31	0.10482634
213	0x3d024ab0	0.03180951
214	0x3dd80b26	0.105490014
215	0x3d69cf8f	0.05708271
216	0xbd5573f6	-0.052112542
217	0x3d92403e	0.071411595
218	0x3d8564e4	0.06513384
219	0x3d098613	0.03357513
220	0xbd9cd1d6	-0.076572105
221	0xbcf040b3	-0.029327726
222	0x3d288789	0.04114488
223	0x3cf9c3ff	0.030488966
224	0x3da0a449	0.07843835
225	0xbdb1d1e5	-0.08682612
226	0x3d623af0	0.05523199
227	0xbc2c01fa	-0.010498518
228	0x3d6ca94f	0.057778653
229	0xbb62fdf3	-0.0034636229
230	0x3d096eae	0.033552818
231	0x3cb28008	0.021789566
232	0xbd19e61c	-0.037572965
233	0x3ccbe662	0.024890129
234	0x3da731cb	0.08163794
235	0x3d1a5a31	0.03768367
236	0xbe0fb160	-0.14032507
237	0x3dc0b91c	0.09410307
238	0x3cc03a7e	0.023465391
239	0xbdc268d3	-0.0949265
240	0x3c938f71	0.018012734
241	0xbd85231b	-0.065008365
242	0x3c309817	0.010778449
243	0x3d71df0b	0.0590506
244	0x3dba5f47	0.09100204
245	0xbcb6c7a2	-0.02231199
246	0x3d0a0f4f	0.033706006
247	0x3d777e9e	0.060423486
248	0x3d81ac41	0.06331683
249	0x3d16c8a2	0.036812432
250	0xbc9daa4c	-0.019246243
251	0x3cfe4c94	0.031042375
252	0xbd3c9d56	-0.046048485
253	0xbd31a032	-0.043365665
254	0x3d91fbbb	0.07128092
255	0x3d6cc297	0.057802763

bias f4 [32]
0	0xbe385870	-0.18002486
1	0x3e2d36aa	0.16915384
2	0xbbac5192	-0.0052587474
3	0xbd1698e4	-0.0367669
4	0xbe251736	-0.16122136
5	0xbc3a8d9d	-0.011386302
6	0xbdffefc5	-0.12496904
7	0xbc156128	-0.009117402
8	0xbdd410e8	-0.10354787
9	0x3daa4864	0.08314589
10	0xbca4c7fd	-0.020114893
11	0x3d294f78	0.041335553
12	0x3e0acae1	0.13553955
13	0x3d965bc0	0.07341719
14	0xbdf94741	-0.12171794
15	0x3b9cd581	0.004786194
16	0xbdcf2d92	-0.10116114
17	0x3c0445e8	0.008073308
18	0xbd0f2558	-0.034947723
19	0xbe0f9829	-0.14022888
20	0xbe477cf4	-0.1948126
21	0x3cf79913	0.030224359
22	0xba0a862d	-0.0005284276
23	0x3e191799	0.14950408
24	0x3cec2332	0.028825376
25	0x3d5a8424	0.053348675
26	0x3b594ecd	0.0033158541
27	0x3e627aca	0.22117153
28	0xbd8621fa	-0.06549449
29	0xbc8260a8	-0.01591523
30	0xbdbc35a5	-0.091899194
31	0x3d12f228	0.03587547

weight f4 [32, 32, 5, 5]
0	0xbc3c235c	-0.01148304
1	0x3bc9357d	0.0061404095
2	0x3d1b49c9	0.037912164
3	0x3c6fc6ce	0.014634801
4	0x3bba04f4	0.00567686
5	0xbcc4f3b4	-0.024041988
6	0xbc0759a2	-0.008261116
7	0xbcba3fd8	-0.022735521
8	0xbcc1ae6f	-0.023642747
9	0x3cafe786	0.021472704
10	0xbd0b3a99	-0.03399143
11	0xbd02728e	-0.03184753
12	0xbd290d26	-0.041272305
13	0xbcd32445	-0.02577413
14	0x3be2fcb2	0.0069270963
15	0x3cb5ac37	0.022176845
16	0x3c89fa73	0.016843056
17	0x3ccad360	0.024758995
18	0xbd12e132	-0.035859294
19	0xbb9c2ef4	-0.0047663394
20	0xbc618f3d	-0.013767061
21	0x3cc1f2a1	0.023675265
22	0xbc070dc6	-0.00824303
23	0xbc1c8f2f	-0.009555622
24	0xbd16a380	-0.03677702
25	0x3c4d9ab5	0.012549092
26	0xbcdb959e	-0.026804741
27	0x3cd9e3ca	0.026597876
28	0xbbf84c55	-0.007577459
29	0xbc3c3c71	-0.01148902
30	0x3c88cb3f	0.016698478
31	0xbcf603f7	-0.030031187
32	0xbcdff34f	-0.027337698
33	0x3d08e646	0.03342273
34	0x3d1e6044	0.038666025
35	0x3ce19f84	0.027541883
36	0xbc88ed14	-0.01671461
37	0xbafdca7e	-0.0019362716
38	0x3cee1d31	0.029066654
39	0xbc2ed78c	-0.010671508
40	0xbd1b6a1a	-0.037942983
41	0xbca0d2a4	-0.019631691
42	0xbc84ca42	-0.016209725
43	0xbcf24a1e	-0.029576357
44	0xbbbfa6d9	-0.005848747
45	0xbb6276d9	-0.0034555702
46	0x3c2edb28	0.010672368
47	0x3bad0f56	0.005281369
48	0x3d14184d	0.036155988
49	0x3c3d9201	0.011570455
50	0xbc90def5	-0.01768444
51	0x3c8dedb2	0.017325256
52	0x3cb57dbb	0.02215468
53	0xbc59bea8	-0.013290085
54	0x3d484ab2	0.04889936
55	0x3be638e7	0.0070258263
56	0xbc8bd35b	-0.017068556
57	0xbc8594b9	-0.016306268
58	0x3d0f2142	0.034943826
59	0x3caa8bd1	0.020818623
60	0xbcee69be	-0.029103156
61	0xbcaf5d14	-0.021406688
62	0xbab0f317	-0.0013500181
63	0xbc5d0e1c	-0.0134921335
64	0x3ad9688a	0.0016586941
65	0xbc8d70f6	-0.017265778
66	0x3cd04779	0.025424706
67	0x3c214ed0	0.0098454505
68	0xbd129a8e	-0.035791926
69	0xbcb52cdd	-0.022116119
70	0x3ca5d74e	0.020244267
71	0xbccefe60	-0.02526778
72	0x3b180265	0.0023194787
73	0x3a373e9c	0.00069902255
74	0x3b369ccd	0.0027864457
75	0x3a0a084d	0.0005265519
76	0x3c94f8f7	0.018185122
77	0x3d189c14	0.037258223
78	0x3d1601aa	0.03662268
79	0x3d2f0f21	0.042739037
80	0xbcee9c2e	-0.029127207
81	0x3ca6e6d7	0.020373745
82	0xbb8aa764	-0.0042313803
83	0xbc697113	-0.01424815
84	0xbba1b8cb	-0.004935359
85	0xbd10fe96	-0.035399042
86	0x3cf93800	0.03042221
87	0x3c9550cd	0.018227005
88	0x3d09c3ec	0.03363411
89	0xbb1d29cc	-0.0023981212
90	0x3c9062a9	0.01762517
91	0x3cb238b3	0.021755552
92	0xbb393c14	-0.002826457
93	0x3d0c50e2	0.034256823
94	0xbcf698f3	-0.030102229
95	0x3a99be6d	0.0011729725
96	0xbd182c70	-0.037151754
97	0xbc2e0212	-0.010620611
98	0x3c949abe	0.018140193
99	0xbd0a6254	-0.03378518
100	0x3ce314e0	0.027719915
101	0x3d21f010	0.039535582
102	0x3d6721b3	0.056428622
103	0x3d4fc884	0.050728336
104	0x3d0f7997	0.035028066
105	0x3c1dea96	0.009638449
106	0xbca8c8a5	-0.020603487
107	0x3c8f0a9d	0.017461115
108	0x3ccc806b	0.024963578
109	0xbc576cb1	-0.013148473
110	0x3c048040	0.008087218
111	0xbcb9e7f6	-0.022693615
112	0x3c5ae4ff	0.013360261
113	0x3ce76546	0.028246533
114	0xbb85657b	-0.0040709353
115	0xbb51a814	-0.0031991052
116	0x3c197a40	0.009367526
117	0x3cbbd6ff	0.022929667
118	0xbc7b206b	-0.015327553
119	0x3ce93cfe	0.028471466
120	0xbcba3170	-0.022728652
121	0xbbc7aadb	-0.0060933656
122	0x3cb5a10b	0.022171518
123	0x3ce57c91	0.0280135
124	0xbcb4238a	-0.021989603
125	0xb9dcf839	-0.0004214661
126	0x3cd884d0	0.026430517
127	0x3d24622f	0.040132698
128	0x39e7d7e2	0.000442206
129	0x3c1c8666	0.009553527
130	0xbbe2538c	-0.006906932
131	0x3ccb3bc9	0.024808781
132	0x3c1f0b3d	0.009707269
133	0x3c6b15a1	0.014348418
134	0x3a94cf18	0.0011353223
135	0x3ca88dcc	0.020575427
136	0xbc5e6dd8	-0.0135759935
137	0x3c2af2d5	0.010433872
138	0x3d019395	0.031634886
139	0xbc06f297	-0.008236549
140	0x3cbff04a	0.023430008
141	0x3c99d937	0.018780334
142	0xbcb30141	-0.021851184
143	0xbc14efee	-0.009090407
144	0x3ca343fa	0.019929875
145	0xbc2b66b9	-0.010461503
146	0x3cdf76f5	0.027278403
147	0xbd0628a6	-0.03275361
148	0xbc4ec4c3	-0.012620154
149	0xbcbd43fb	-0.023103705
150	0xbd0279a5	-0.03185429
151	0xbc8d5d62	-0.017256442
152	0xbc976690	-0.018481523
153	0xbcce58d6	-0.025188845
154	0xbb34246f	-0.0027487536
155	0x3cf1fe88	0.029540315
156	0xbcebbee6	-0.02877755
157	0x3c84a5c2	0.01619232
158	0x3ba0f91b	0.004912508
159	0xbd0b21ce	-0.033967786
160	0xbce030d2	-0.02736703
161	0x3cc3f504	0.023920543
162	0xbae4a11a	-0.0017443032
163	0xbcf8cc1d	-0.030370766
164	0xbd16b2e3	-0.036791693
165	0xbcd9b3d3	-0.026575005
166	0x3cf9a09e	0.030472096
167	0x3c47171e	0.012151508
168	0x3cb6a41e	0.022295054
169	0x3acfee49	0.0015863861
170	0xbb33d280	-0.00274387
171	0xbbaa34dc	-0.0051942896
172	0xbced9193	-0.02900008
173	0xbcd94f57	-0.02652709
174	0x3badf7f7	0.0053091007
175	0x3d0ccfd2	0.03437788
176	0x3cb7df49	0.022445338
177	0xbc6f357e	-0.014600156
178	0xb9c8eefe	-0.00038325036
179	0x3c712921	0.014719279
180	0xbcdae8f9	-0.026722418
181	0x3c006712	0.007837074
182	0xbaeb3b0b	-0.0017946673
183	0x3d16220c	0.036653563
184	0xbc54ebd3	-0.012995678
185	0x3d0c858a	0.03430704
186	0x3c414777	0.011796824
187	0x3c10c96a	0.008837083
188	0x3b89ef06	0.004209402
189	0xbcc23e97	-0.023711486
190	0x3cf84327	0.030305458
191	0x3c12adfd	0.008952615
192	0x3cc0145d	0.02344721
193	0x3d0e7f3e	0.034789316
194	0x3ca1545d	0.019693548
195	0x3c059316	0.008152744
196	0x3ce935d7	0.028468056
197	0xbbec0e4b	-0.0072038523
198	0x3ad36927	0.001612936
199	0xbc883b67	-0.016629888
200	0xbca38a90	-0.019963533
201	0x3ac6546a	0.0015131359
202	0x3cdc49e3	0.0268907
203	0xbcf39af4	-0.029736973
204	0x3d0728e3	0.032997977
205	0x3cf171d5	0.029473225
206	0x3cb97dec	0.022643052
207	0xbca44cb1	-0.0200561
208	0xbcbaa4e4	-0.022783704
209	0x3d2a5925	0.04158892
210	0x3cd579e9	0.026059108
211	0x3d55c976	0.05219408
212	0x3d1127c5	0.035438318
213	0x3c3064b8	0.010766201
214	0xbc65bb9f	-0.014021783
215	0x3cd45369	0.02591868
216	0xbbeaf47f	-0.0071702595
217	0xbc512a74	-0.012766469
218	0x3c991e5d	0.018691236
219	0x3aa30876	0.0012438435
220	0x3d327468	0.043568045
221	0x3be6c281	0.0070422296
222	0xbc8a9f92	-0.016921792
223	0x3d171f79	0.03689525
224	0x3b37a731	0.0028023238
225	0xbd29fefe	-0.041502945
226	0xbcdc7aa2	-0.026913945
227	0xbbe6b50b	-0.007040625
228	0xbce59395	-0.028024474
229	0xbd145397	-0.03621253
230	0xbcac9a3a	-0.021069635
231	0x3b619298	0.0034419652
232	0xbd1e8e3f	-0.038709875
233	0xbc8c5dac	-0.01713451
234	0x3b0533f2	0.0020325151
235	0xbcda6f87	-0.026664509
236	0x3ad14b84	0.001596794
237	0x3c06bb52	0.008223372
238	0xbcf99a22	-0.030469004
239	0xbcb90008	-0.022583023
240	0xbd0a2954	-0.03373082
241	0xbceac896	-0.0286601
242	0x3cd48a4c	0.025944851
243	0x3ca6683d	0.020313377
244	0xbc2d315f	-0.010570853
245	0x3caa91d9	0.020821499
246	0x3d119917	0.03554639
247	0xbc0e019e	-0.008667378
248	0xbd0425e1	-0.032262687
249	0x3cd8308c	0.026390336
250	0x3c7fa9c0	0.015604436
251	0xbc1bfb7f	-0.009520411
252	0x3caba9a0	0.020954907
253	0x3d301675	0.042990167
254	0xbc82657a	-0.015917528
255	0x3ca7f927	0.020504547

bias f4 [32]
0	0xba4ef011	-0.0007894049
1	0xb9dc8fab	-0.0004206871
2	0xbcbd5e71	-0.023116322
3	0xbcbdcdbd	-0.023169393
4	0xbd1139b8	-0.035455436
5	0xbc9858ce	-0.018597033
6	0xbdc90663	-0.09815671
7	0xbd5c73c5	-0.053821344
8	0xbd3855f2	-0.04500384
9	0xbd5a05a2	-0.053228028
10	0x3d3dd076	0.046341382
11	0x3c5c6111	0.013450877
12	0xbcebc408	-0.028779998
13	0xbc4d19dc	-0.012518372
14	0x3d3c902c	0.04603593
15	0xbc889a4b	-0.016675135
16	0x3cac8d5f	0.021063505
17	0x3d4e0739	0.050299857
18	0xbcc0b429	-0.023523407
19	0xbd382d17	-0.044964876
20	0x3d607758	0.054801315
21	0x3d1e3525	0.0386249
22	0x3ba743be	0.005104511
23	0x3cd9cecf	0.026587872
24	0xbc41d674	-0.011830915
25	0xbd364826	-0.0445024
26	0xbd0efd5b	-0.034909587
27	0xbb75dc6d	-0.0037515417
28	0x3c117f3c	0.008880433
29	0xbbead3c7	-0.007166359
30	0xbc449008	-0.01199723
31	0xbcbbf41a	-0.022943545

weight f4 [64, 32, 5, 5]
0	0xbc9a315b	-0.018822363
1	0xbc92cda1	-0.017920317
2	0x3b917f39	0.004440215
3	0x3cba3488	0.022730127
4	0xbc6f2698	-0.014596604
5	0x3c7420c8	0.014900394
6	0x3d0e0934	0.034676746
7	0xbc26cff0	-0.010181412
8	0x3ab5dd91	0.0013875236
9	0xbcd1a3e6	-0.025590848
10	0x3ccee2e6	0.025254678
11	0x3c45a588	0.0120633915
12	0x3d1006f8	0.035162896
13	0x3d2cb8d8	0.04216847
14	0xbbe3ee46	-0.0069558946
15	0x3caee7d0	0.021350771
16	0x3c5c4394	0.013443846
17	0x3adfbbcc	0.0017069518
18	0xbc9ecfff	-0.01938629
19	0x3a60c33d	0.00085740146
20	0xbc5ad7bb	-0.013357098
21	0xbc044077	-0.00807201
22	0x3bad34d1	0.005285837
23	0xbc60a95e	-0.013712255
24	0xbb89e507	-0.0042082104
25	0xbd1752cf	-0.036944207
26	0x3b9e703d	0.004835157
27	0xbcf8c7ec	-0.030368768
28	0x3b444c76	0.00299528
29	0x3cca7dcd	0.02471819
30	0xbc5f6f1e	-0.013637332
31	0x3b776589	0.0037749729
32	0x3c708e27	0.014682329
33	0xbc3c020a	-0.0114750955
34	0xbcda95eb	-0.026682815
35	0xbcac53f6	-0.02103613
36	0xbc2a7c43	-0.010405603
37	0xbcf01da8	-0.029311016
38	0xbca5a9ec	-0.020222627
39	0xbbedee35	-0.0072610625
40	0x3d2355f6	0.0398769
41	0x3cade2db	0.021226337
42	0x3cbece5b	0.023291757
43	0xbc02ef25	-0.007991587
44	0xbab62469	-0.0013896349
45	0x3cbf6fe8	0.02336879
46	0x3cacd81d	0.021099145
47	0x3cdc194c	0.026867531
48	0xbcca69d8	-0.024708673
49	0x3d0a3d3f	0.033749815
50	0xbb5e9875	-0.0033965383
51	0xbaac6afe	-0.0013154445
52	0x3c3620a3	0.01111618
53	0x3cc0c07f	0.02352929
54	0x3c8f8135	0.017517665
55	0xbc89986b	-0.016796311
56	0x3cf29bdb	0.029615333
57	0x3cbb294d	0.022846842
58	0xbbd58ba7	-0.006516892
59	0x3cfbd092	0.030739103
60	0xbcbc0936	-0.02295361
61	0xbcd956a3	-0.02653057
62	0xbbc1d608	-0.005915407
63	0x3ca4a666	0.020098876
64	0xbc0c9279	-0.008579844
65	0x3cc5f795	0.024165908
66	0xbcff9447	-0.031198634
67	0x3cbbe87b	0.022938004
68	0xbb1477ae	-0.0022654342
69	0xbca63e90	-0.020293504
70	0x3cc30e45	0.023810515
71	0xbd0b0d21	-0.033948068
72	0xbb94ddab	-0.0045430264
73	0x3c48d9f0	0.012258992
74	0x3c35e6d6	0.011102399
75	0xbb959310	-0.0045646504
76	0xbc37ddb1	-0.011222289
77	0xbce6af4c	-0.02815976
78	0xbce92498	-0.028459832
79	0xbd04d300	-0.032427788
80	0x3c2f5599	0.01070156
81	0x3cddb8cd	0.027065659
82	0x3d006e0a	0.03135494
83	0xbd23eda3	-0.04002155
84	0x3c8b5e2e	0.017012682
85	0xbccd2540	-0.025042176
86	0x3c56d9fb	0.013113494
87	0x3c8189c2	0.015812758
88	0xbcbdc780	-0.023166418
89	0xbc893068	-0.016746715
90	0x3c232c7d	0.009959337
91	0xbcc87884	-0.024471529
92	0xbcb94d98	-0.022620007
93	0x3b987c83	0.004653515
94	0xbc507058	-0.012722097
95	0x3d12df84	0.035857692
96	0x3b4ab0ca	0.0030928128
97	0xbcec0a9e	-0.028813656
98	0xbc678fe3	-0.014133426
99	0xbb24251f	-0.002504654
100	0x3cfddd55	0.030989328
101	0xbc00c6e6	-0.007859921
102	0xbcc9d7cc	-0.024639033
103	0xbd12979d	-0.03578912
104	0x3ba9d7dc	0.005183203
105	0xbb60a59a	-0.0034278394
106	0x3d05b460	0.032642722
107	0x3ccb1a2e	0.024792757
108	0x3ccb59d2	0.024823103
109	0x3c437ee4	0.011932109
110	0xbc787f32	-0.0151670445
111	0x3d222b35	0.039591987
112	0xbac57848	-0.0015065754
113	0x3ca9492a	0.02066477
114	0x3ceb4019	0.028717088
115	0x3cc93228	0.02456005
116	0x3cc857a2	0.02445585
117	0xbb2185c1	-0.0024646374
118	0x3c51a97e	0.012796758
119	0xbce0191e	-0.027355727
120	0xbcaabea3	-0.020842856
121	0x3d275410	0.040851653
122	0xbc926fe4	-0.01787562
123	0x3bd14ef1	0.0063875844
124	0x3ce7719d	0.028252417
125	0xbcb366bd	-0.021899575
126	0x3d1163d7	0.035495605
127	0x3c9bc977	0.019016964
128	0xbcce4214	-0.025177993
129	0xbcc21566	-0.023691844
130	0xbce21916	-0.027599853
131	0x3c1630c6	0.009166902
132	0x3d55bdbe	0.052182905
133	0x3d161723	0.03664316
134	0x3c343cdf	0.011000841
135	0x3bdb8f50	0.006700434
136	0x3c9da6e0	0.019244611
137	0xbca96548	-0.020678177
138	0x3d206cc2	0.03916622
139	0x3cdcb7cd	0.026943112
140	0xbbbbd578	-0.0057322346
141	0xbca9c6d0	-0.020724684
142	0x3d082992	0.03324277
143	0xbba0c578	-0.0049063526
144	0xbb4745ce	-0.0030406597
145	0xbd1829db	-0.03714929
146	0xbceabfc4	-0.028655894
147	0xbc9c8f85	-0.019111404
148	0xbd2bc0c6	-0.04193189
149	0x3c64a1df	0.013954609
150	0xbb7c94b7	-0.003854079
151	0x3d4cd9de	0.05001246
152	0x3d5dd58e	0.05415874
153	0x3c480456	0.012208065
154	0x3d30b268	0.04313889
155	0xbb830c2e	-0.0039992547
156	0x3cc67ed1	0.024230393
157	0x3d79dbe8	0.061000735
158	0x3d19840e	0.037479453
159	0x3c9630d5	0.018333832
160	0xbd353870	-0.044243276
161	0xbcfbc6c6	-0.030734431
162	0xbc7f7b85	-0.015593414
163	0x3d18bb66	0.037288092
164	0x3d008c89	0.031384025
165	0xbd419d1b	-0.047268968
166	0x3c5fa5a0	0.013650328
167	0xbd14c006	-0.03631594
168	0xbbe8b747	-0.0071019265
169	0xbc936379	-0.017991768
170	0x3c582635	0.013192703
171	0x3c97c9e0	0.018528879
172	0xbcad99f0	-0.021191567
173	0x3cc9e6d4	0.0246462
174	0xbb9b708d	-0.0047436417
175	0xbcdfe1f8	-0.02732943
176	0xb9e26cf7	-0.00043187264
177	0xbd19bd44	-0.037534013
178	0x3b9cc82a	0.0047846036
179	0x3c36f9f6	0.011167994
180	0x3d2a5617	0.041586008
181	0x3d3e3af1	0.04644293
182	0x3b905f48	0.0044058897
183	0xbcb91d93	-0.02259711
184	0x3bcff307	0.00634611
185	0x3b0ad92e	0.0021186578
186	0xbba8084d	-0.0051279427
187	0x3d0f7065	0.035019297
188	0x3d1045b0	0.03522271
189	0xbcdb57ee	-0.026775327
190	0xbcfd04cf	-0.030886082
191	0x3d14940b	0.036273997
192	0x3d24c64d	0.040228177
193	0x3a98f3f7	0.0011669387
194	0x3c0736cc	0.008252811
195	0xbc777021	-0.015102417
196	0x3c939bee	0.018018689
197	0xbb302b47	-0.0026881264
198	0x3c2669f5	0.010157098
199	0xbcc1b03a	-0.023643602
200	0xbc9261ab	-0.017868837
201	0x3c9c888b	0.019108078
202	0x3c64c4e1	0.013962955
203	0xbba923e9	-0.0051617515
204	0x3c541e48	0.012946673
205	0xbc9ac10f	-0.018890886
206	0x3c63889a	0.013887549
207	0x3ba4b061	0.005025909
208	0x3d2abd54	0.041684464
209	0x3d224a98	0.03962192
210	0xbca37095	-0.019951144
211	0xbc341aff	-0.0109927645
212	0xbc7deb5d	-0.0154980095
213	0xbc6e5abc	-0.014548
214	0xbced3bc1	-0.028959157
215	0xbc9827e8	-0.018573716
216	0x3bca5054	0.0061741266
217	0x3bacc483	0.0052724495
218	0xbc9c3565	-0.01906843
219	0xbbac7e36	-0.005264069
220	0xbd18e8d4	-0.037331417
221	0x3ce67dfe	0.02813625
222	0xbbdd7460	-0.0067582577
223	0x3cce6a7e	0.025197264
224	0xbcbcf0f3	-0.023064112
225	0x3cbfc097	0.023407264
226	0xbb8d7243	-0.0043165996
227	0x3cddf66b	0.02709504
228	0x3ca61a62	0.020276252
229	0x3cf6460d	0.0300627
230	0x3c7815c5	0.015141909
231	0xbb1d16e7	-0.002396995
232	0x3baa4ce7	0.0051971558
233	0x3c9afe9c	0.018920235
234	0x3c923fd6	0.017852705
235	0x3cd7225a	0.026261497
236	0x3d0932e7	0.03349581
237	0xbc8269d4	-0.015919603
238	0xbc063ad1	-0.008192734
239	0xbc6b08b5	-0.014345338
240	0xbcd443f1	-0.025911303
241	0x3b26de4a	0.0025462084
242	0xbcd4937b	-0.02594923
243	0x3c653e90	0.013991967
244	0x3c1d75d0	0.009610608
245	0xbc491463	-0.012272927
246	0xbb36613c	-0.0027828952
247	0xbc9d051d	-0.019167477
248	0x3c35a954	0.011087734
249	0xbd036c36	-0.03208562
250	0xbd02beb1	-0.03192014
251	0xbc9ceb45	-0.019155154
252	0xbd1f3ce1	-0.038876418
253	0xbc84e473	-0.016222214
254	0xbd1119bd	-0.035424937
255	0x3cfa5852	0.030559693

bias f4 [64]
0	0xbc8c0353	-0.017091429
1	0xbd83d639	-0.06437344
2	0x3be95797	0.007121037
3	0xbce9c7bd	-0.028537625
4	0xbd20abf6	-0.039226495
5	0xbcc2f899	-0.023800181
6	0xbd04fff0	-0.032470644
7	0xbce032c7	-0.027367963
8	0xbd33fbdf	-0.043941375
9	0xbc8875db	-0.01665776
10	0xbcd172eb	-0.025567492
11	0xbb3f2a04	-0.002916933
12	0xbc7520c2	-0.014961423
13	0xbb94aaf2	-0.00453698
14	0xb94ccdcd	-0.00019531623
15	0xbbc19905	-0.005908134
16	0xbcd1501c	-0.025550894
17	0xbd1f7722	-0.038931973
18	0xbd15e79e	-0.03659784
19	0xbc949650	-0.01813808
20	0xbc07fc62	-0.008299919
21	0xbd382d09	-0.044964824
22	0x3b826b3b	0.003980068
23	0xbd350173	-0.044190835
24	0x3b6c32ef	0.00360411
25	0x3c537c4a	0.012908051
26	0x3d37d449	0.044880185
27	0xbc12d3c9	-0.008961626
28	0xbd375d84	-0.044766918
29	0x3be794a4	0.00706728
30	0x3cfdb0e4	0.030968137
31	0xbd36dc59	-0.044643734
32	0xbd4d73da	-0.050159313
33	0xbb2574a8	-0.0025246534
34	0x3c1bb32d	0.009503168
35	0x3c6fdd25	0.014640127
36	0xbd13f5d6	-0.03612312
37	0xbbc4855e	-0.005997344
38	0x3aaba531	0.0013095496
39	0x3b895dc3	0.0041920855
40	0x3c9ac32f	0.018891899
41	0xbbf75fc8	-0.00754926
42	0xbb185129	-0.0023241735
43	0x3cf7d825	0.030254433
44	0xbd0e1fa6	-0.03469815
45	0xb989d154	-0.00026286638
46	0xbc5ebadc	-0.013594355
47	0x3ab9705b	0.0014147864
48	0xbcc1fcf9	-0.023680197
49	0xbb7ce17f	-0.0038586555
50	0xbd86b7a6	-0.06577997
51	0xba8a2fbe	-0.0010542793
52	0xbbb20148	-0.0054322816
53	0xbc56c40f	-0.013108267
54	0x3ca48a26	0.020085406
55	0xbcb5238e	-0.02211168
56	0x3b994816	0.0046777828
57	0xbc8de6b5	-0.017321924
58	0xbd0bf74f	-0.0341714
59	0xbd5b3855	-0.05352052
60	0xbc5376f0	-0.012906775
61	0x3c81ee65	0.015860746
62	0x3c5177b2	0.012784885
63	0xbd16ba94	-0.03679903

weight f4 [64, 1024]
0	0xbc13ccd1	-0.009021
1	0xbbe8e2b9	-0.0071071056
2	0xb918d254	-0.00014574203
3	0x3c8ba5c9	0.017046826
4	0x3c98cbdb	0.018651893
5	0x3cd3393d	0.02578413
6	0xbb6bad94	-0.0035961615
7	0x3b89d55f	0.004206344
8	0x3cb25ea9	0.021773653
9	0x3cda7219	0.026665734
10	0xbd0221c6	-0.03177049
11	0xbb7fd9f2	-0.0039039818
12	0x3cc0e962	0.023548786
13	0x3996fa35	0.00028796648
14	0x3b14c344	0.0022699395
15	0x3c97d822	0.018535677
16	0xbcade7fa	-0.02122878
17	0x3b3444f4	0.002750692
18	0x3c94eb9a	0.01817875
19	0x3c6ff906	0.014646774
20	0xbc8b89b8	-0.017033443
21	0x38e74f91	0.00011029759
22	0x3cbb423d	0.022858733
23	0x3cbe6f3d	0.023246402
24	0x3c140c47	0.00903613
25	0xbc14161e	-0.009038476
26	0xbcac698a	-0.021046419
27	0xbcda794d	-0.026669169
28	0x3cdfb5d4	0.027308382
29	0xbbca947a	-0.0061822506
30	0x3c170a54	0.009218771
31	0xbca7064f	-0.02038875
32	0xbcbfb8b5	-0.023403505
33	0x3c6c8d99	0.014438056
34	0xbc7fd224	-0.015614066
35	0xbc822051	-0.01588455
36	0xbbdb0d03	-0.0066849007
37	0xbcaafef2	-0.02087352
38	0xbb5928be	-0.0033135857
39	0xbd135381	-0.035968307
40	0x3c9e4523	0.019320076
41	0xbc19f40e	-0.009396566
42	0xbca31a6b	-0.019910058
43	0x3bd48577	0.006485637
44	0x3beee468	0.0072904117
45	0x3d04f78d	0.032462645
46	0x3c84cbaa	0.016210396
47	0xbc2b4932	-0.010454463
48	0x3c6f80b6	0.014618089
49	0x37b9a76d	2.2131682e-05
50	0xbca7138e	-0.020395067
51	0x3ce427b5	0.027850965
52	0x3c3ce024	0.011528049
53	0xbc4f82d9	-0.012665474
54	0x3d3d9013	0.046279978
55	0xbc7bc9d3	-0.015367943
56	0xbc3a3e23	-0.011367354
57	0xbc58460e	-0.013200296
58	0x3cf35785	0.029704819
59	0x3cc75109	0.024330633
60	0x3caf6cc8	0.021414176
61	0xba143ce0	-0.0005654823
62	0x3d10601e	0.035247914
63	0x393305e5	0.00017072966
64	0xbcbb9323	-0.022897309
65	0x3c85cce4	0.016333051
66	0x3ae5042f	0.001747256
67	0xbce7454f	-0.028231291
68	0xbc5421b8	-0.012947492
69	0xbc89fb53	-0.016843474
70	0xbd333310	-0.04374987
71	0xbd02875f	-0.03186738
72	0x3d25854c	0.040410325
73	0xbcc9193d	-0.024548167
74	0x3c81c1d6	0.015839498
75	0x3cba04d2	0.022707377
76	0xbd0e4718	-0.03473577
77	0xbbe29236	-0.0069144024
78	0x3c938177	0.01800607
79	0x3b89305b	0.0041866726
80	0xbb10315e	-0.0022002081
81	0x3c907b9a	0.017637063
82	0xbc9fdff2	-0.019515965
83	0x3bcaaa72	0.0061848694
84	0xbd2b8887	-0.04187825
85	0xbce7b085	-0.028282413
86	0xbc61fb0e	-0.013792766
87	0x3caa117e	0.020760294
88	0xbb9698f7	-0.0045958715
89	0xbc80cb75	-0.015722016
90	0xbcf49ffd	-0.029861445
91	0x3c024e3d	0.007953224
92	0xbd075da4	-0.033048287
93	0xbd154886	-0.036446117
94	0x3ca27495	0.019830981
95	0xbbbe128c	-0.005800551
96	0x3ce311c4	0.027718432
97	0x3cc60490	0.024172097
98	0xbbe19ed1	-0.0068853875
99	0x3d1c8659	0.03821406
100	0xbcdf76c2	-0.027278308
101	0xbbd6020d	-0.006531006
102	0x3cd7dc4c	0.026350163
103	0xbce5bcf2	-0.028044198
104	0x3c7df393	0.015499967
105	0x3cf20218	0.029542014
106	0x3aa60edc	0.0012669223
107	0xbc337213	-0.01095249
108	0xbcd7b391	-0.026330741
109	0xbd0b98a1	-0.034081105
110	0x3aeab072	0.0017905368
111	0xbca9426a	-0.020661552
112	0x3c95ab8d	0.018270278
113	0x3c156f1a	0.009120727
114	0xbb697213	-0.0035620972
115	0x3d0f3799	0.03496513
116	0x3cffc79b	0.031223109
117	0x3c7d413c	0.015457448
118	0xbcaca9f7	-0.02107714
119	0x3cf066ea	0.029345948
120	0x3a48eab6	0.0007664369
121	0xbc60be22	-0.013717206
122	0x3b1d4d37	0.0024002322
123	0xbca90b06	-0.02063514
124	0x3b44e7e8	0.0030045453
125	0x3c8ad585	0.016947517
126	0xbc937d7d	-0.018004173
127	0x3ca7df4c	0.020492218
128	0xbb0738ce	-0.0020633223
129	0xbc538f24	-0.012912545
130	0xbce79a43	-0.0282718
131	0xbcc0e618	-0.023547217
132	0x3c1de396	0.00963678
133	0xbb967125	-0.0045911246
134	0xbb4a7ca8	-0.0030897055
135	0x3cc3f72e	0.023921575
136	0x3c8b98da	0.017040659
137	0x3bc1792b	0.005904337
138	0x3c9d6650	0.019213825
139	0x3b50d290	0.0031863786
140	0x3b222abb	0.0024744708
141	0x3cb51f32	0.022109602
142	0xbba5c8d2	-0.00505934
143	0x3d10855d	0.035283435
144	0x3c8cdaca	0.01719417
145	0x3c076eca	0.00826616
146	0xbd03390e	-0.032036833
147	0xbcd99a72	-0.026562903
148	0x3c992cba	0.018698085
149	0x3cf081ea	0.029358823
150	0x3cdc63c1	0.026903035
151	0xbca4859f	-0.020083247
152	0x3cbd2f54	0.023093857
153	0xbc739b7c	-0.014868613
154	0xbb2bf7d0	-0.0026240237
155	0xbb834e70	-0.004007153
156	0x3b6ba8af	0.0035958698
157	0x3c75f52e	0.015012069
158	0x3b6a98cc	0.003579664
159	0x3cf46366	0.029832553
160	0xba82576c	-0.0009944267
161	0xbc21467c	-0.009843465
162	0xba875e5c	-0.0010327804
163	0x3d05e079	0.032684777
164	0xbcf69e3c	-0.030104749
165	0x3c994051	0.018707426
166	0xbc6b9753	-0.01437934
167	0x3c39c434	0.011338282
168	0xbc417d63	-0.01180968
169	0xbcff5593	-0.031168735
170	0x3c2db71e	0.010602741
171	0x3c54f007	0.01299668
172	0x3bcda8ff	0.0062762494
173	0xbc7ac716	-0.015306255
174	0xbcc8c7bc	-0.024509303
175	0x3d05d812	0.032676764
176	0xbca5654f	-0.02018991
177	0x3bddab14	0.006764779
178	0x3ce02088	0.027359262
179	0xbcb8f96c	-0.022579871
180	0xbca34482	-0.019930128
181	0xbc8853b4	-0.016641475
182	0x3d0d11ab	0.034440678
183	0xbcd4e0fd	-0.025986189
184	0x3d0ab4b9	0.033863757
185	0x3d144287	0.036196258
186	0x3ca21108	0.019783512
187	0xbbd6ce06	-0.0065553216
188	0xbce7509a	-0.028236676
189	0xb9ecd703	-0.00045173624
190	0x3cb22a87	0.021748794
191	0xbcdf7c3e	-0.027280923
192	0x3caeff2f	0.021361915
193	0x3c8c01f2	0.017090771
194	0xbceabcc2	-0.02865446
195	0x3d0aad10	0.03385645
196	0xbd14663c	-0.03623031
197	0xbb02e7c6	-0.0019974574
198	0x3c45e923	0.01207951
199	0x3c674c18	0.014117263
200	0x3c8186f0	0.015811414
201	0x3cd76fd7	0.026298447
202	0xbb965820	-0.004588142
203	0xbc55d0c2	-0.01305026
204	0x3cd5931c	0.026071124
205	0x3cba208a	0.022720594
206	0x3a70e1af	0.0009188903
207	0xbcb248d0	-0.021763235
208	0x3c117084	0.0088769235
209	0xbc309fa3	-0.010780248
210	0xbb534e0e	-0.003224257
211	0xbc39f932	-0.011350917
212	0x3c13587c	0.008993264
213	0xbbe2dd0f	-0.006923325
214	0x3c6b89ff	0.014376163
215	0xba7a5c2a	-0.00095504767
216	0xbcafa52a	-0.021441061
217	0x3d34e935	0.044167716
218	0xbbfb5d2d	-0.0076710195
219	0x3ce00a01	0.02734852
220	0x392fe2fb	0.00016773857
221	0xbb9bb95d	-0.0047523216
222	0x3d076bc1	0.033061747
223	0xbcd20e01	-0.025641443
224	0xbbcd9459	-0.006273788
225	0xbc1a1063	-0.009403321
226	0x3cfd499f	0.030918894
227	0x3bd8595e	0.0066024503
228	0xbd166667	-0.036718752
229	0xbc332ca7	-0.010935939
230	0x3c5c58f4	0.013448942
231	0x3c59f7c9	0.0133037055
232	0xbc65ed92	-0.014033692
233	0xbc733948	-0.0148452
234	0xbc99fe23	-0.01879794
235	0xbccb4816	-0.024814647
236	0xba270577	-0.0006371359
237	0x3cd69929	0.02619608
238	0xbcc4ab32	-0.024007414
239	0xbccc62f1	-0.024949523
240	0xbc8188d8	-0.015812322
241	0xbc9cd593	-0.019144809
242	0xbc8f1540	-0.017466187
243	0x3d08fda8	0.03344503
244	0x3b4953b3	0.0030720055
245	0x3caa58a2	0.020794217
246	0x3cbddce6	0.023176622
247	0xbc8db6aa	-0.017299015
248	0x3cc24668	0.023715213
249	0x3d369236	0.04457303
250	0xbc412a7e	-0.011789916
251	0xbcfc63fa	-0.030809391
252	0xbc0e48bc	-0.008684333
253	0xbaefc74d	-0.0018293649
254	0x3ce1d4d5	0.027567307
255	0x3d0d684c	0.034523293

bias f4 [64]
0	0xbc8b9248	-0.017037526
1	0xbd11e335	-0.035617072
2	0xbb60c9c5	-0.0034299952
3	0x3c4815f4	0.012212265
4	0xbce4184f	-0.027843622
5	0x3b0eca98	0.0021788236
6	0xbc91c7eb	-0.017795524
7	0xbbc0d52c	-0.005884787
8	0x3cf42aca	0.02980556
9	0xbc4c848f	-0.012482776
10	0xbb38ca56	-0.0028196773
11	0xba6c5b48	-0.00090162875
12	0x3cd08113	0.025452172
13	0xbd1bccc8	-0.03803709
14	0xbd1a932c	-0.03773801
15	0x3c1b3bc1	0.009474696
16	0x3c8e3732	0.017360304
17	0xbbf8bc62	-0.0075908164
18	0x3c7cf998	0.015440367
19	0x3c9a04dd	0.018801147
20	0xbcb590d1	-0.02216378
21	0xbaaa05a7	-0.0012971655
22	0x3c1c6d4e	0.009547545
23	0x3d3ce863	0.04612006
24	0xbca6f449	-0.020380156
25	0x3ca056c3	0.019572621
26	0xbcda5aaa	-0.02665456
27	0xbc87dfbd	-0.016586179
28	0xbceeeaf4	-0.029164769
29	0xbcffb91c	-0.031216197
30	0xbd4525d2	-0.04813177
31	0x3c908183	0.017639881
32	0x3c841fe2	0.016128484
33	0x3c7794ba	0.015111143
34	0xbb7f043d	-0.0038912438
35	0x3c2a3ce2	0.010390492
36	0xbbf35ead	-0.0074270577
37	0xbc174fd1	-0.009235338
38	0xbd815a6e	-0.06316076
39	0x3c7218bc	0.014776405
40	0x3ca61442	0.020273332
41	0x3c6430f0	0.013927683
42	0xbc487157	-0.012234054
43	0x3c95ec39	0.018301116
44	0x3d00b094	0.031418398
45	0xbbd02d4e	-0.006353057
46	0xbb583cb5	-0.0032995169
47	0xba1b88a4	-0.0005933142
48	0xbc50c95a	-0.012743318
49	0x3c982e41	0.018576743
50	0x3c38941b	0.01126578
51	0xba9eaaa2	-0.0012105296
52	0x3c9a4ecb	0.0188364
53	0xbce085f2	-0.02740762
54	0xbd2b27f0	-0.041786134
55	0xbc62fc7f	-0.013854145
56	0xba6d6e76	-0.00090572925
57	0x3bcbc14b	0.0062181107
58	0x3d4c6c99	0.049908254
59	0xbc83bc58	-0.01608102
60	0xbb4d7c69	-0.0031354672
61	0xbb531789	-0.0032210073
62	0x3c9bd48e	0.019022252
63	0xbc5892a8	-0.013218559

weight f4 [10, 64]
0	0xbcb61cfc	-0.022230618
1	0x3d3dd307	0.04634383
2	0xbbfc18cf	-0.007693387
3	0x3dd39339	0.10330815
4	0xbd139fed	-0.03604119
5	0x3e0dbcaf	0.13841508
6	0xbd00493a	-0.031319834
7	0x3d827d2e	0.063715324
8	0xbdd52aed	-0.10408578
9	0x3dad3bf0	0.08458698
10	0x3bdbcf63	0.006708072
11	0xbd225e8a	-0.03964094
12	0xbd4a58ee	-0.049401216
13	0x3b8a186f	0.0042143385
14	0x3de04d86	0.109522864
15	0x3dfe0fd7	0.12405365
16	0xbe28ff26	-0.16503581
17	0x3d57567c	0.052572712
18	0xbe085b92	-0.13316181
19	0xbdc2f53e	-0.095194325
20	0xbe0d4bed	-0.13798495
21	0xbd52432d	-0.051333595
22	0x3cf65f63	0.03007478
23	0x3cfb8ecd	0.030707741
24	0x3d6ef290	0.058336794
25	0x3e0576d3	0.13033609
26	0xbe1d33b9	-0.15351762
27	0x3deed122	0.11660983
28	0xbd0137be	-0.0315473
29	0x3df3dd43	0.11907437
30	0x3e1db411	0.15400721
31	0x3dbd4944	0.0924249
32	0xbd29f52a	-0.041493572
33	0x3d420c06	0.047374748
34	0xbd7697c3	-0.060203325
35	0x3d981678	0.074261606
36	0x3b7b7650	0.003837008
37	0xbdeb8739	-0.11500401
38	0x3e1b7ddd	0.15184732
39	0xbd3a5de6	-0.045499705
40	0xbd1c1719	-0.038107965
41	0xbc6a8c5d	-0.014315692
42	0x3dee17f3	0.11625662
43	0xbdde64c5	-0.10859064
44	0xbdb1866b	-0.08668216
45	0xbdf3675a	-0.11884947
46	0xbe011ce1	-0.12608673
47	0xbcfc48ff	-0.030796526
48	0x3df9a5fa	0.12189861
49	0xba9a2025	-0.0011758847
50	0xbd66901d	-0.05628978
51	0xbd930b10	-0.071798444
52	0x3c8ee158	0.017441437
53	0xbe09c25a	-0.13453045
54	0xbb27fcd9	-0.0025632887
55	0x3daa2245	0.08307318
56	0x3e180040	0.14843845
57	0xbdc320ca	-0.095277384
58	0xbe17d0ee	-0.14825794
59	0x3dd07f61	0.101805456
60	0xbe0c4290	-0.13697267
61	0xbb533ed7	-0.00322335
62	0xbe1f3762	-0.1554847
63	0x3d38f741	0.045157675
64	0xbdcc82b0	-0.09985864
65	0x3e40bc59	0.18821849
66	0x3e36d607	0.17855082
67	0x3d8c4f49	0.0685106
68	0x3dc422c4	0.095769435
69	0xbe0aab60	-0.13541937
70	0xbdd15217	-0.102207355
71	0x3d9922d5	0.07477347
72	0x3ceb304f	0.028709559
73	0xbe17ae15	-0.14812501
74	0xbcbd794d	-0.02312913
75	0x3c6737b2	0.0141124
76	0xbe485b49	-0.19566073
77	0xbd37b584	-0.04485084
78	0xbe27f707	-0.16402827
79	0x3db22579	0.086985536
80	0xbdf7e33b	-0.12103888
81	0xbe03bdc3	-0.12865357
82	0xbd957286	-0.07297234
83	0x3b80e975	0.0039340802
84	0xbdb56535	-0.08857194
85	0xbe1c1e74	-0.15245992
86	0xbdf5f754	-0.12010065
87	0x3d81158c	0.06302938
88	0xbe0c17c1	-0.13680936
89	0xbe23115c	-0.15924591
90	0xbc8c781e	-0.01714712
91	0x3e181730	0.14852595
92	0x3d9f5c4d	0.07781277
93	0x3e5901bb	0.21192066
94	0xbd3aeaa8	-0.045633942
95	0x3cb826aa	0.022479374
96	0x3de9a45b	0.114083014
97	0x3c26d111	0.010181681
98	0xbe610334	-0.21973878
99	0xbdc2c24b	-0.09509715
100	0xbd5e8239	-0.05432341
101	0xbda9e514	-0.08295646
102	0xbd1a3750	-0.037650406
103	0x3e401ad4	0.18760234
104	0x3de2e4f0	0.110788226
105	0xbabf2f88	-0.0014586309
106	0xbe31f6bb	-0.17379276
107	0x3dbe9cc6	0.09307246
108	0xbda06f6c	-0.07833752
109	0xbdb9a759	-0.09065122
110	0xbb041d2c	-0.002015899
111	0x3b150d6e	0.00227436
112	0xbd3df191	-0.046372954
113	0x3dabfdcd	0.08398018
114	0x3e2823d3	0.16419916
115	0xbe24a1f4	-0.16077405
116	0xbdf6d024	-0.120514184
117	0xbda26837	-0.07930034
118	0x3e2d7838	0.16940391
119	0xbdbe41d0	-0.092898965
120	0xbe0eae68	-0.13933718
121	0x3da6aa6a	0.08137973
122	0xbd8244b6	-0.06360762
123	0xbc33d9cf	-0.010977223
124	0x3dc262c4	0.09491494
125	0xbcaea846	-0.021320473
126	0xbe1cae16	-0.15300784
127	0x3e08d689	0.13363089
128	0x3e192d5b	0.14958708
129	0xbd7d2fff	-0.06181335
130	0xbd4482c1	-0.04797626
131	0xba88d999	-0.0010440826
132	0x3dafbe25	0.08581189
133	0xbd9cc6ff	-0.07655143
134	0xbcb7f554	-0.022455849
135	0xbdd1fcd1	-0.10253299
136	0x3e18ff4c	0.14941138
137	0x3dc413b8	0.095740736
138	0x3df52908	0.11970717
139	0x3db165f7	0.086620264
140	0xbb0bc0e2	-0.0021324684
141	0xbe13f738	-0.14449775
142	0xbb7c5809	-0.0038504621
143	0x3c691d5b	0.01422819
144	0x3e0aeec6	0.13567647
145	0xbd8c75a9	-0.068583794
146	0xbdcc5810	-0.09977734
147	0xbd253deb	-0.040342253
148	0xbd276640	-0.040868998
149	0x3dc74433	0.09729805
150	0xbdb09e7d	-0.08623979
151	0xbd0e0d4b	-0.034680646
152	0xbd89825d	-0.06714318
153	0x3e0d477c	0.137968
154	0xbe0f4ca0	-0.13994074
155	0xbde35b8b	-0.11101445
156	0x3daa54ed	0.083169796
157	0xbe040fa6	-0.12896594
158	0xbdf0c620	-0.11756539
159	0xbddda357	-0.1082217
160	0xb8504f15	-4.9664715e-05
161	0xbd278f3d	-0.040908087
162	0xbda8d896	-0.082444355
163	0xbd20a4e6	-0.03921976
164	0xbd98b720	-0.07456803
165	0x3e055b05	0.13023002
166	0xbbee8dc8	-0.0072800852
167	0xbe47cd94	-0.19512016
168	0xbd9ede3b	-0.07757231
169	0xbcfe2ff6	-0.031028729
170	0x3e162370	0.14661956
171	0x3a6a370f	0.0008934596
172	0xbdd117ea	-0.10209639
173	0x3dd64422	0.10462214
174	0x3de3518b	0.110995375
175	0xbe093811	-0.13400294
176	0x3de64685	0.11243919
177	0xbb6a8062	-0.0035782089
178	0xbddf5247	-0.10904365
179	0x3dcc3e03	0.09972765
180	0xbd11e3d8	-0.03561768
181	0xbd68212e	-0.056672268
182	0x3e260442	0.16212562
183	0xbd0e8268	-0.034792334
184	0x3e4bc211	0.19898249
185	0x3e0a88eb	0.13528793
186	0x3d844e54	0.064602524
187	0x3cde1407	0.02710916
188	0xbe3bb06c	-0.18329018
189	0x3dba1ccb	0.09087523
190	0xbdda73b5	-0.106666006
191	0xbcefda94	-0.02927903
192	0x3e0b2eb3	0.13592033
193	0x3c1004c2	0.008790197
194	0x3c192d3f	0.009349166
195	0x3d456244	0.048189417
196	0x3b85c2db	0.0040820665
197	0xbe10e9de	-0.14151713
198	0x3df60b66	0.12013893
199	0xbd8e6c82	-0.0695429
200	0xbd0d049e	-0.03442823
201	0xbdb2d288	-0.08731562
202	0x3e0e0267	0.13868104
203	0xbcaa9f18	-0.020827815
204	0x3ce60dca	0.028082747
205	0x3d096571	0.033544008
206	0xbd11737d	-0.03551053
207	0xbe2bcc6a	-0.16777197
208	0x3e121928	0.14267409
209	0xbd24e72b	-0.04025952
210	0x3d8aec6d	0.06783376
211	0x3d3bba17	0.045831766
212	0x3dc7c3d1	0.09754146
213	0x3e22b838	0.15890586
214	0x3ba34499	0.0049825427
215	0x3df548a5	0.119767465
216	0x3d8fff2f	0.07031094
217	0xbdc9017d	-0.09814737
218	0x3d148da6	0.0362679
219	0xbe08b728	-0.13351119
220	0xbe02d42a	-0.12776247
221	0x3ac82b04	0.0015271609
222	0xbe296739	-0.16543283
223	0xbe2bfb1f	-0.16795014
224	0x3dc077f0	0.09397876
225	0x3e0fd95a	0.14047757
226	0xbd4506ad	-0.04810207
227	0xbe265082	-0.16241649
228	0x3dc162df	0.09442686
229	0x3d828e56	0.06374805
230	0x3cea095e	0.02856892
231	0x3da83a57	0.082142524
232	0xbd11228c	-0.035433337
233	0x3d9141af	0.07092606
234	0xbd02316b	-0.03178541
235	0x3d279aec	0.04091923
236	0x3cb2afa8	0.021812275
237	0x3db8d26e	0.09024511
238	0x3d852659	0.06501455
239	0xbcd6061b	-0.026125958
240	0xbd9419f6	-0.07231514
241	0x3de7102b	0.11282381
242	0xbc1f2e4e	-0.00971563
243	0x3d6f3c07	0.058406856
244	0xbcc79ec4	-0.024367698
245	0x3dd3b7de	0.10337804
246	0xbd8def41	-0.069304
247	0x3e420edb	0.1895098
248	0xbd1bdcbb	-0.0380523
249	0x3d5bf8d8	0.053704113
250	0x3d987c87	0.07445627
251	0x3d8559af	0.065112464
252	0xbd7695d8	-0.060201496
253	0xbd249aa2	-0.04018653
254	0x3cfe4cdd	0.03104251
255	0x3cc535c9	0.024073498

bias f4 [10]
0	0xbdec3355	-0.11533228
1	0xbd971bb1	-0.073783286
2	0xbd3dcac1	-0.04633594
3	0xbd1437c6	-0.036186002
4	0x3d9be38e	0.07611762
5	0xbdaccc63	-0.08437421
6	0xbd1ace53	-0.037794422
7	0x3d179fda	0.03701768
8	0xbd69cf07	-0.057082202
9	0xbd993ce0	-0.07482314
