project01/first_train/snn_0.pth (torch, 587335 bytes, 10 tensors)

weight f4 [32, 3, 5, 5]
0	0x3c789f93	0.015174764
1	0xbd6b4f97	-0.05744895
2	0xbdef7fef	-0.11694323
3	0xbd81bd99	-0.06334991
4	0x3db5b7e4	0.08872965
5	0xbd786729	-0.060645256
6	0xbc01166c	-0.007878881
7	0xbd7af2c0	-0.06126666
8	0x3ddd14ce	0.10794984
9	0xbb134c03	-0.0022475726
10	0x3d9742e1	0.07385803
11	0x3dba800b	0.091064535
12	0x3d55efe2	0.052230723
13	0xbd183d4d	-0.037167836
14	0xbd8cfbce	-0.068839654
15	0xbdd66267	-0.104679875
16	0xbcea10ee	-0.028572526
17	0xbdb3bc96	-0.08776204
18	0x3d00e726	0.03147044
19	0x3dc69265	0.09695891
20	0x3dc08672	0.094006434
21	0xbce5cc3c	-0.028051488
22	0x3dbaaa9e	0.09114574
23	0x3c85daec	0.016339742
24	0x3d720c32	0.05909366
25	0x3c28889f	0.010286479
26	0xbd38b95f	-0.04509866
27	0xbdd80546	-0.10547881
28	0xbdc2996c	-0.09501919
29	0x3d247dd9	0.04015908
30	0x3b2202a7	0.002472082
31	0x3c425a5c	0.011862364
32	0x3d8de368	0.0692814
33	0x3c9f0c6b	0.019415101
34	0x3dc58eb6	0.096463606
35	0x3ddf98d3	0.10917821
36	0x3c235b91	0.009970562
37	0x3d494b99	0.04914436
38	0xbd2cdfad	-0.0422055
39	0x3d27194e	0.040795617
40	0x3ccdea0d	0.025136018
41	0x3d6417f3	0.055686902
42	0x3d70897a	0.058724858
43	0x3dd70cad	0.105004646
44	0x3d27233d	0.04080509
45	0x3c578c54	0.013156015
46	0x3dbb425c	0.091435164
47	0xbd68bf72	-0.0568232
48	0xbd31dc8c	-0.04342322
49	0xbd4551ab	-0.048173588
50	0xbd02bb4c	-0.0319169
51	0x3cc30eef	0.023810832
52	0x3dcee7bb	0.10102793
53	0xbdb06915	-0.08613793
54	0x3ccfb713	0.025355851
55	0xbc01826a	-0.007904628
56	0x3da0bca0	0.07848477
57	0xbdbe6469	-0.092964955
58	0x3d4c436e	0.049868993
59	0x3d252900	0.040322304
60	0x3dbc2c3f	0.09188127
61	0xbd8e9094	-0.0696117
62	0xbdb893f6	-0.09012596
63	0xbdcf98ee	-0.10136591
64	0x3dbd067c	0.092297524
65	0x3dbd7836	0.09251444
66	0xbadef502	-0.0017010274
67	0x3de12da6	0.10995035
68	0xbca642e2	-0.020295564
69	0xbd064520	-0.032780766
70	0x3df4ae4b	0.11947306
71	0x3d09ce73	0.03364415
72	0xbc5092e1	-0.012730331
73	0x3c9050e9	0.017616706
74	0x3d06101a	0.0327302
75	0xbd8f6e9d	-0.0700352
76	0x3dd9de63	0.1063812
77	0xbda1348a	-0.07871349
78	0x3d9b9273	0.07596292
79	0x3cfda6e8	0.030963376
80	0x3d012259	0.031526897
81	0xbd8df3ee	-0.069312915
82	0x3d716b0e	0.058939986
83	0xbd04d92f	-0.032433685
84	0x3ca98b74	0.02069638
85	0x3dfee52e	0.12446056
86	0x3bc5a2c2	0.006031365
87	0xbd3e6ec2	-0.046492346
88	0xbdd9987f	-0.106247894
89	0xbd1947e1	-0.037422065
90	0x3db58a54	0.088642746
91	0xbc1885ca	-0.009309242
92	0x3da77d45	0.0817819
93	0xbd7f4f54	-0.062331513
94	0x3dccb430	0.099953055
95	0x3dd0fd50	0.102045655
96	0x3d853401	0.065040596
97	0xbced1319	-0.02893977
98	0xbcbe795d	-0.02325123
99	0x3dfb498a	0.12269886
100	0x3dcd540a	0.10025795
101	0xbda216bc	-0.079144925
102	0x3d0a711b	0.033799272
103	0x3beb6081	0.007183135
104	0x3c9ed684	0.019389398
105	0x3d7a37dd	0.06108843
106	0x3cb5d2f4	0.022195317
107	0x3d9b99dc	0.07597706
108	0x3d816944	0.06318906
109	0x3d3f185a	0.046654083
110	0x3ce3d602	0.027812008
111	0x3cdadde1	0.026717128
112	0x3c606e8a	0.01369823
113	0xbdce9200	-0.10086441
114	0x3da5dd66	0.08098869
115	0x3d3bac81	0.04581881
116	0xbdafd829	-0.08586151
117	0xbd959229	-0.073032685
118	0x3ca42053	0.020034945
119	0x3d727e8f	0.059202727
120	0xbdb39c64	-0.087700635
121	0x3b2deb6d	0.002653803
122	0x3d40e584	0.047093883
123	0x3dce195d	0.100634314
124	0xbc8382dc	-0.01605361
125	0xbdf5572f	-0.119795196
126	0x3b8f4c12	0.004373082
127	0xbd0ec641	-0.03485704
128	0xbd944f81	-0.07241727
129	0xbd7bb12f	-0.061448272
130	0xbd75572d	-0.05989759
131	0x3cfabc39	0.03060733
132	0xbdb03bb0	-0.086051345
133	0xbd969f78	-0.07354635
134	0xbccbc1ad	-0.024872625
135	0x3dc8a808	0.097976744
136	0x3dbe1f7c	0.09283349
137	0xbdb8206f	-0.08990561
138	0xbda5c7b6	-0.080947325
139	0xbcbe209a	-0.023208905
140	0xbcceb935	-0.025234798
141	0xbda4421b	-0.08020421
142	0xbd56d977	-0.052453484
143	0xbd3094e6	-0.04311075
144	0x3d446a59	0.047952984
145	0xbdb19c2e	-0.08672367
146	0xbdd89978	-0.10576147
147	0xbe0bcefd	-0.13653179
148	0x3ac1e271	0.0014792216
149	0x3db13339	0.08652348
150	0xbd3252ff	-0.043536182
151	0xbd3320ce	-0.043732457
152	0x3c739a62	0.014868351
153	0xbb9f6730	-0.004864596
154	0xbdbba796	-0.09162824
155	0xbd4d19a6	-0.05007329
156	0x3ca36ea7	0.019950224
157	0x3d00e7e7	0.03147116
158	0xbd502582	-0.05081702
159	0x3d7b56bb	0.06136201
160	0xbd107997	-0.035272207
161	0x3dc612cb	0.09671553
162	0x3d9584ce	0.07300721
163	0xbd97f4b7	-0.074197225
164	0x3c761af4	0.015021075
165	0x3dcbd55c	0.099528044
166	0x3dccc2f5	0.099981226
167	0x3cb2992e	0.021801557
168	0x3d94f68c	0.072735876
169	0xbddc9ade	-0.10771726
170	0xbd94a636	-0.07258265
171	0xbc816fb2	-0.01580033
172	0xbd473823	-0.04863752
173	0xbba0fa5d	-0.004912658
174	0x3c600cfa	0.013674969
175	0x3dea2b2e	0.11434017
176	0x3da2c732	0.0794815
177	0x3db5ae5b	0.08871146
178	0x3d8f521b	0.06998082
179	0xba9f5488	-0.001215593
180	0x3c4354dc	0.0119220875
181	0xbd33fb39	-0.043940756
182	0xbd55c43f	-0.052189108
183	0x3d6b79e0	0.057489276
184	0xbd3cecc8	-0.04612425
185	0x3d5e7071	0.05430645
186	0x3d98442d	0.074348785
187	0x3c68ca6e	0.014208419
188	0xbd5657dc	-0.052329883
189	0x3ac12aa6	0.0014737442
190	0x3d7e61de	0.062105052
191	0x3dc73664	0.09727171
192	0xbd859f8e	-0.06524573
193	0x3dd37e81	0.10326863
194	0x3db4e164	0.08832052
195	0x3ae9d98c	0.0017841323
196	0xbd0dc0dc	-0.034607753
197	0xbdc79559	-0.09745283
198	0xbd77734e	-0.060412697
199	0x3d14455a	0.03619895
200	0x3d97817e	0.073977455
201	0xbd5f738f	-0.054553565
202	0xbc9c5c18	-0.019086882
203	0xbddc33eb	-0.1075209
204	0x3dd6357d	0.10459421
205	0xbcb1e661	-0.021716299
206	0xbddd141d	-0.10794852
207	0xbddc06a2	-0.107434526
208	0x3c315150	0.010822609
209	0xbdd6d2e5	-0.10489444
210	0x3dc9fc97	0.09862631
211	0x3d17685d	0.036964763
212	0x3db08afc	0.08620259
213	0x3c8e581a	0.017375994
214	0x3dcad3f6	0.099037096
215	0x3d2f4799	0.04279289
216	0xbd8e0c46	-0.06935935
217	0x3d446c0e	0.04795461
218	0x3d439171	0.047746126
219	0x3ccf44c0	0.025301337
220	0xbd908dc1	-0.070582874
221	0xbcc37bc3	-0.023862725
222	0x3d29e5cb	0.041478913
223	0x3d0e14b1	0.0346877
224	0x3db2cc2d	0.0873035
225	0xbd95201f	-0.07281517
226	0x3d805c23	0.06267574
227	0x3aeedfe5	0.0018224685
228	0x3d694fc0	0.05696082
229	0xbbc2dd9e	-0.005946829
230	0x3d8f366d	0.06992803
231	0x3d833e2b	0.06408342
232	0xbabacd67	-0.0014251888
233	0x3cf6e772	0.030139659
234	0x3db3d81c	0.08781454
235	0x3d66d351	0.05635387
236	0xbdd1fbe8	-0.102531254
237	0x3de1688e	0.1100627
238	0x3c317b8e	0.01083268
239	0xbdd2d505	-0.102945365
240	0x3cdd36da	0.027003694
241	0xbd1c71cd	-0.038194466
242	0x3cbe880d	0.023258233
243	0x3d3f561a	0.046712972
244	0x3d965484	0.07340339
245	0xb9848b24	-0.0002528067
246	0x3d6df613	0.058096003
247	0x3d9b331b	0.07578107
248	0x3d863e2f	0.06554829
249	0x3cf6e89c	0.030140214
250	0xbd0c8d5d	-0.034314502
251	0x3c016600	0.007897854
252	0xbd82cc84	-0.063866645
253	0xbd996423	-0.07489803
254	0x3d1fdc4c	0.03902845
255	0x3d8cc510	0.06873524

bias f4 [32]
0	0xbd8ff522	-0.07029177
1	0x3e023ad4	0.12717754
2	0x3d4020b0	0.046906173
3	0xbd836ef5	-0.06417648
4	0x3c8847a0	0.016635716
5	0x3d698ae2	0.057017215
6	0xbd25ea99	-0.040506933
7	0x3da4baeb	0.08043464
8	0xbd78c60a	-0.06073574
9	0x3d9890a6	0.074494645
10	0x3d0813cd	0.03322201
11	0x3d0134e3	0.031544577
12	0x3e068e0a	0.13140121
13	0x3da3e0be	0.080018505
14	0xbd955c24	-0.07292965
15	0x3ccb939f	0.024850665
16	0xbd8e9085	-0.06961159
17	0xbb8e91f5	-0.0043508955
18	0x3d3c9736	0.046042643
19	0xbd550fd5	-0.05201705
20	0xbda82a74	-0.08211222
21	0x3d8b0c69	0.067894764
22	0xbb123e0a	-0.002231481
23	0x3de6d56b	0.11271175
24	0x3d98b3d6	0.07456176
25	0x3deb458f	0.114878766
26	0x3d84eb58	0.06490201
27	0x3e162592	0.1466277
28	0xbd3b0df1	-0.045667592
29	0xbcc531cd	-0.024071598
30	0xbc2527fc	-0.010080334
31	0x3d9fe238	0.0780682

weight f4 [32, 32, 5, 5]
0	0xbcbbf4b4	-0.022943832
1	0xbbfacd28	-0.007653851
2	0x3caa1ee3	0.020766681
3	0xbad0b356	-0.0015922587
4	0xbbade3b7	-0.0053066867
5	0xbcb6f831	-0.022335144
6	0xbc0ae80e	-0.008478178
7	0xbccb1260	-0.024789035
8	0xbcd5f88c	-0.026119493
9	0x3cb58d20	0.02216202
10	0xbcef995f	-0.029247938
11	0xbcd28bf3	-0.025701499
12	0xbd180112	-0.037110396
13	0xbcc28e50	-0.0237495
14	0x3c0b7a0e	0.008512987
15	0x3c9bb855	0.019008795
16	0x3c88d3c7	0.016702546
17	0x3cc47ed5	0.02398626
18	0xbd151eaf	-0.036406215
19	0xbba806a3	-0.0051277443
20	0xbc772581	-0.015084625
21	0x3cc38ca0	0.023870766
22	0xbc215d2c	-0.009848874
23	0xbc277b44	-0.01022226
24	0xbd13b38a	-0.036059894
25	0x3c7a3409	0.015271195
26	0xbce19ceb	-0.027540645
27	0x3cca8011	0.02471927
28	0xbc305c1a	-0.010764146
29	0xbc69a1b9	-0.014259749
30	0x3c9f52f9	0.019448744
31	0xbcff45fa	-0.031161297
32	0xbceeb059	-0.029136823
33	0x3ce92385	0.02845932
34	0x3d0dfb22	0.034663327
35	0x3cf8a20a	0.030350704
36	0xbc87d648	-0.01658167
37	0xbba34ea2	-0.004983739
38	0x3cc29acc	0.023755454
39	0xbc778371	-0.015107022
40	0xbd0993c9	-0.033588205
41	0xbc8a4ce5	-0.01688237
42	0xbc7c4244	-0.015396658
43	0xbceec973	-0.029148793
44	0xbbab2666	-0.0052230833
45	0xbae7bfcc	-0.0017681061
46	0x3c47cf32	0.012195395
47	0x3b997f57	0.0046843695
48	0x3d11a939	0.035561774
49	0x3c461375	0.0120896
50	0xbcec5413	-0.028848683
51	0x3b5c8d6b	0.0033653628
52	0x3bfbc0fe	0.0076829186
53	0xbcdd7d27	-0.027037216
54	0x3d182b8d	0.03715091
55	0x3b972127	0.0046121064
56	0xbcb0ba2e	-0.021573152
57	0xbcb3133a	-0.021859754
58	0x3ced8a65	0.028996656
59	0x3c813bff	0.015775679
60	0xbce38ab6	-0.027776103
61	0xbcad4607	-0.021151556
62	0xbb9d9660	-0.004809186
63	0xbc9b3ac9	-0.01894893
64	0xbb8839ca	-0.0041572796
65	0xbc76ea27	-0.015070475
66	0x3ceb083e	0.028690454
67	0x3c482a1b	0.01221707
68	0xbd0ce8af	-0.034401592
69	0xbcb08a34	-0.021550275
70	0x3ca32ddc	0.019919328
71	0xbcccaefe	-0.024985787
72	0x3b06394a	0.0020480924
73	0x3762d508	1.352025e-05
74	0x3b18618f	0.0023251509
75	0xbb94ffde	-0.0045471033
76	0x3c42cd82	0.011889817
77	0x3cef8677	0.029238923
78	0x3cf5b499	0.029993342
79	0x3d13c804	0.03607942
80	0xbcf0d414	-0.029398002
81	0x3c916665	0.01774902
82	0xbc07a762	-0.008279653
83	0xbc83a6c2	-0.016070727
84	0xbc0f5fa0	-0.008750826
85	0xbd0400df	-0.032227393
86	0x3cfcbcde	0.030851778
87	0x3c831d8c	0.0160053
88	0x3d054f11	0.032546107
89	0xbbc4071d	-0.0059822933
90	0x3cb2e17a	0.021836031
91	0x3cc30ef0	0.023810834
92	0xbb919b74	-0.0044435803
93	0x3d06cb0d	0.032908488
94	0xbd0aeee6	-0.033919238
95	0x3bd54e07	0.0065095457
96	0xbd0e72c2	-0.03477741
97	0xbc2f5ee3	-0.010703775
98	0x3c8e18ea	0.017345864
99	0xbd17a7af	-0.03702515
100	0x3c272169	0.010200837
101	0x3ca51665	0.02015228
102	0x3d175cc9	0.03695372
103	0x3d0665c6	0.032811902
104	0x3ca4f581	0.020136597
105	0xba419ea2	-0.0007386004
106	0xbd0a6d5e	-0.033795707
107	0x3b49b558	0.0030778255
108	0x3c41b78a	0.011823544
109	0xbcc22840	-0.023700833
110	0x3bd034cc	0.00635395
111	0xbcd38254	-0.025818981
112	0x3c06bd46	0.008223837
113	0x3cb0b809	0.02157213
114	0xbc1e2eaa	-0.00965468
115	0xbb34d68b	-0.0027593698
116	0x3c2937d7	0.010328255
117	0x3cbd8d2e	0.023138609
118	0xbc883f94	-0.016631879
119	0x3cdfe1e6	0.027329396
120	0xbcb648e7	-0.02225156
121	0xbbb0178c	-0.0053739008
122	0x3cba0af9	0.02271031
123	0x3ce4ddb8	0.027937755
124	0xbca99971	-0.02070305
125	0xbb99e7ce	-0.0046968227
126	0x3c9184b1	0.017763468
127	0x3d037a66	0.03209915
128	0xbbf4c965	-0.007470297
129	0x3b9c8724	0.004776852
130	0xbb131985	-0.002244563
131	0x3cd6d102	0.02622271
132	0x3c3b8c60	0.011447042
133	0x3c6e8e04	0.014560226
134	0x3b1c4ac3	0.0023848272
135	0x3cd1f089	0.025627391
136	0xbc1c004a	-0.009521553
137	0x3c723c08	0.01478482
138	0x3d092df0	0.033491075
139	0xbbd2d292	-0.0064337933
140	0x3cc44f30	0.02396354
141	0x3c9c87f3	0.019107794
142	0xbca538cc	-0.020168684
143	0xbc02900d	-0.007968915
144	0x3cad41a0	0.021149457
145	0xbc1857e8	-0.009298302
146	0x3cde1eb9	0.02711426
147	0xbd0231d0	-0.031785786
148	0xbc4c076f	-0.012452944
149	0xbcb25a40	-0.02177155
150	0xbce47dae	-0.02789196
151	0xbc6757d3	-0.01412006
152	0xbc748a04	-0.014925484
153	0xbcc22528	-0.023699358
154	0xba98341f	-0.0011612213
155	0x3cf59aa3	0.029980963
156	0xbcec9265	-0.0288784
157	0x3c7e6ca5	0.015528833
158	0x3b39bbc9	0.0028340688
159	0xbd0935dc	-0.03349863
160	0xbcd54965	-0.026035974
161	0x3cd5d92a	0.026104528
162	0x3aeed372	0.0018220975
163	0xbcdf3618	-0.027247474
164	0xbd00ec25	-0.031475205
165	0xbce10641	-0.027468802
166	0x3cff64b4	0.031175949
167	0x3c7a11cd	0.015263033
168	0x3ccbf0c7	0.024895085
169	0x3bbc4fe9	0.0057468307
170	0xbc30586d	-0.01076327
171	0xbc26c5d4	-0.010179002
172	0xbd01a102	-0.03164769
173	0xbcf3590d	-0.029705549
174	0x3b75f605	0.0037530672
175	0x3ceeb54c	0.029139183
176	0x3c7a759f	0.015286832
177	0xbcd02671	-0.025408955
178	0xbc2f4020	-0.010696441
179	0x3bc9da74	0.006160075
180	0xbcea6346	-0.02861179
181	0x3b84b36c	0.004049709
182	0xbbf7326f	-0.007543854
183	0x3cfdbe28	0.030974463
184	0xbc8cdc3f	-0.017194865
185	0x3d0cac4f	0.034344014
186	0x3c243c39	0.010024124
187	0x3bc92048	0.0061378814
188	0xb8e5b80b	-0.000109538516
189	0xbce4a325	-0.027909825
190	0x3d046ea3	0.032332074
191	0x3c18405f	0.009292691
192	0x3cbc092f	0.022953598
193	0x3d0c18ab	0.034203213
194	0x3c9e9a3b	0.019360652
195	0x3c318c55	0.01083668
196	0x3cf352de	0.0297026
197	0xbbf541ad	-0.007484636
198	0x3b2ef02c	0.0026693447
199	0xbc7f712b	-0.015590946
200	0xbcc376e7	-0.023860408
201	0x38a4aa5c	7.851861e-05
202	0x3ccdabae	0.025106277
203	0xbcfa0f44	-0.030524857
204	0x3d0199b2	0.031640716
205	0x3c8c899d	0.017155463
206	0x3c32561b	0.010884787
207	0xbcfd95f4	-0.030955292
208	0xbd00c7ca	-0.031440534
209	0x3d0adaed	0.03390019
210	0x3c66e2c2	0.014092149
211	0x3d1808a4	0.037117615
212	0x3ca18a3a	0.019719232
213	0xb988b8eb	-0.00026077716
214	0xbcc3b554	-0.023890175
215	0x3c9bbe3e	0.019011613
216	0xbc909234	-0.01764784
217	0xbcdda9b1	-0.027058454
218	0x3c0f5802	0.00874901
219	0xbbeedf9b	-0.0072898394
220	0x3d195170	0.03743118
221	0xbac86666	-0.0015289306
222	0xbce6832f	-0.028138725
223	0x3cf1a32f	0.029496757
224	0xbb69d6b6	-0.0035680956
225	0xbd0dc40a	-0.034610786
226	0xbcb523f8	-0.022111878
227	0xbb595a5d	-0.0033165433
228	0xbcc8c121	-0.024506154
229	0xbd06afe7	-0.032882597
230	0xbc5c05af	-0.013429089
231	0x3c14c697	0.009080551
232	0xbd05e3e6	-0.032688044
233	0xbc324496	-0.01088061
234	0x3bd1d0ef	0.0064030807
235	0xbcb31961	-0.021862688
236	0x3b81dab8	0.003962841
237	0x3c36746e	0.011136157
238	0xbcde81ba	-0.027161468
239	0xbcab9f90	-0.020950109
240	0xbceb7f89	-0.028747337
241	0xbce35492	-0.027750287
242	0x3cd6fe90	0.026244432
243	0x3cb42703	0.021991258
244	0xbc17c5da	-0.00926348
245	0x3cc87e9b	0.024474433
246	0x3d0c7ed3	0.034300637
247	0xbc36d5b3	-0.011159348
248	0xbd0b965b	-0.034078937
249	0x3ccc26f7	0.024920924
250	0x3c050008	0.008117683
251	0xbc9597bd	-0.018260831
252	0x3c34aef7	0.011028043
253	0x3d06e765	0.03293552
254	0xbcba44be	-0.022737857
255	0x3c9127a1	0.017719092

bias f4 [32]
0	0x3c30636c	0.0107658915
1	0xbc928435	-0.017885307
2	0x3cb32850	0.021869808
3	0xbc59f69a	-0.013303423
4	0xbd1ae00e	-0.03781133
5	0x3c6f7474	0.014615167
6	0xbd601d89	-0.054715667
7	0x3c14501c	0.009052303
8	0x3b7d449e	0.0038645635
9	0xbc26a5a9	-0.010171332
10	0x3d1f9478	0.03895995
11	0x3b9d3ed0	0.0047987476
12	0xbc3a73d0	-0.011380151
13	0xbc8bd902	-0.01707125
14	0x3d13bd72	0.03606934
15	0x3bf20b58	0.007386606
16	0x3cd33e0f	0.025786428
17	0x3d0e62f8	0.034762353
18	0xbcc130a7	-0.02358277
19	0xbc5183ea	-0.012787798
20	0x3c8ef4dc	0.017450742
21	0x3d2fe813	0.042945933
22	0xbb9f80bd	-0.0048676417
23	0x3cda8b0a	0.026677627
24	0x3d12cfa5	0.035842557
25	0xbba93c27	-0.0051646414
26	0xbc9d4972	-0.01920006
27	0x39bfd23d	0.00036587
28	0xbca20a7c	-0.01978039
29	0xbb8e2d53	-0.004338899
30	0x3ba037e1	0.004889474
31	0xbc08c75a	-0.00834831

weight f4 [64, 32, 5, 5]
0	0xbc9a3b3c	-0.018827073
1	0xbc56df95	-0.01311483
2	0x3c32f741	0.010923208
3	0x3cd94d2e	0.02652606
4	0xbc83124b	-0.015999934
5	0x3c240d91	0.010013
6	0x3d0726e0	0.03299606
7	0xbb898268	-0.004196454
8	0x3c0b2ad6	0.0084941
9	0xbcbc0471	-0.022951337
10	0x3c8ea263	0.017411416
11	0xb9fbb636	-0.00048010208
12	0x3cbf0fe7	0.023323013
13	0x3d110c70	0.035412252
14	0xbc4cff47	-0.012512035
15	0x3cab2a2a	0.020894129
16	0x3c08ae77	0.008342377
17	0xbbabacca	-0.005239104
18	0xbcca62da	-0.02470534
19	0xbb65d628	-0.0035070274
20	0xbc88bcf3	-0.01669166
21	0xbc431421	-0.011906655
22	0xba12187b	-0.0005573106
23	0xbca0b367	-0.019616796
24	0xbc44ad6d	-0.012004239
25	0xbd1056a2	-0.03523887
26	0x3bc54ec3	0.006021352
27	0xbd04409b	-0.032288175
28	0xb9d5a398	-0.00040748413
29	0x3caf62b5	0.021409372
30	0xbc8228cb	-0.015888592
31	0x3b221a61	0.0024734961
32	0x3c3d8934	0.011568356
33	0xbc768e5e	-0.015048591
34	0xbd008d60	-0.031384826
35	0xbccbad28	-0.02486284
36	0xbc3061be	-0.010765491
37	0xbcd5f5cc	-0.026118182
38	0xbc9070f7	-0.01763199
39	0xbc320fba	-0.010868007
40	0x3d020eec	0.03175251
41	0x3c5edb25	0.013602053
42	0x3cb77685	0.022395382
43	0xbbf8c080	-0.007591307
44	0xbbef403a	-0.0073013576
45	0x3c8023ac	0.01564201
46	0x3c674873	0.014116394
47	0x3ccfc8b3	0.025364256
48	0xbcbc321b	-0.02297311
49	0x3d01defb	0.03170679
50	0xbb76cc89	-0.0037658534
51	0xbb6bd51c	-0.0035985177
52	0x3aef0eee	0.0018238702
53	0x3c3fae6c	0.0116993
54	0x3c0131ca	0.007885406
55	0xbc8b24aa	-0.016985256
56	0x3cfafa96	0.030637067
57	0x3cb4813b	0.022034278
58	0xbc0b248f	-0.008492603
59	0x3cfd7a58	0.030942127
60	0xbcd78498	-0.026308343
61	0xbcfae56d	-0.030626977
62	0xbc59eb81	-0.013300777
63	0x3c76108b	0.015018593
64	0xbc1154f6	-0.008870354
65	0x3cfc58b8	0.030804023
66	0xbce282e2	-0.0276503
67	0x3c9d7754	0.01922194
68	0xbb5507bd	-0.0032505833
69	0xbc5297d5	-0.012853582
70	0x3cdce1ac	0.026963077
71	0xbce36835	-0.02775965
72	0xbbef5885	-0.0073042535
73	0x3c03561e	0.008016137
74	0x3c7888e5	0.015169357
75	0xbb98ac3f	-0.004659205
76	0xbc3b9901	-0.011450053
77	0xbcda2a6e	-0.02663156
78	0xbcd80fe2	-0.026374761
79	0xbce57beb	-0.02801319
80	0x3ba4c817	0.0050287354
81	0x3cb2f933	0.021847343
82	0x3cfadb79	0.03062223
83	0xbd20b616	-0.03923615
84	0x3c90e313	0.017686402
85	0xbcf64a55	-0.030064741
86	0x3c1fb153	0.009746867
87	0x3c9e3d91	0.019316467
88	0xbca3245d	-0.0199148
89	0xbc837251	-0.016045721
90	0x3b2a0021	0.0025940018
91	0xbcfc23fb	-0.030778876
92	0xbcc52e71	-0.024069997
93	0x3b6ee4de	0.0036452333
94	0xbc82e898	-0.01598005
95	0x3ce51c89	0.027967708
96	0xbb68141d	-0.003541238
97	0xbcf71b0f	-0.03016427
98	0xbc4f11ab	-0.01263849
99	0xbb162885	-0.0022912335
100	0x3cf435f5	0.029810885
101	0xbc097eac	-0.008392017
102	0xbca0794b	-0.019589087
103	0xbd03554e	-0.032063775
104	0x3b442993	0.0029932007
105	0xbb9b1b5b	-0.0047334856
106	0x3cddfef3	0.027099108
107	0x3cd8b002	0.026451115
108	0x3cf72afe	0.030171867
109	0x3c406d33	0.011744785
110	0xbc806caf	-0.015676824
111	0x3d031399	0.03200111
112	0xbaa2159b	-0.0012366058
113	0x3ccd55fc	0.025065415
114	0x3cf30517	0.029665513
115	0x3cb794f8	0.022409901
116	0x3c824a39	0.015904533
117	0xbb890265	-0.0041811937
118	0x3c4c6801	0.012475968
119	0xbcf68e9e	-0.030097302
120	0xbcd2be06	-0.025725376
121	0x3d0476b6	0.032339774
122	0xbc9fa045	-0.019485602
123	0x3bc3b4ee	0.0059724962
124	0x3cbf5e56	0.023360413
125	0xbcb88e16	-0.02252869
126	0x3cd4dc9d	0.025984103
127	0x3c26a8d4	0.010172088
128	0xbce98fc3	-0.028510934
129	0xbcd59612	-0.026072536
130	0xbce96e4e	-0.02849498
131	0xbb6d4d9a	-0.0036209584
132	0x3d0b3c22	0.033992894
133	0x3cc6a5e1	0.02424902
134	0x3b8cefbd	0.00430104
135	0x3c30213c	0.010750111
136	0x3c5f1097	0.013614795
137	0xbd0952f2	-0.03352637
138	0x3cf78a2e	0.030217256
139	0x3cbc1a47	0.022961749
140	0x3b21c3ec	0.002468343
141	0xbca3111b	-0.019905617
142	0x3d012f71	0.031539384
143	0xbb21ceac	-0.0024689836
144	0x3a3772b1	0.00069979863
145	0xbcc0c495	-0.023531238
146	0xbcacea59	-0.02110784
147	0xbc465d8a	-0.012107262
148	0xbd01685d	-0.03159367
149	0x3ccd19ab	0.025036654
150	0xbc39aed9	-0.011333191
151	0x3cd47b44	0.025937684
152	0x3caf3a76	0.021390181
153	0xbc7b1b6c	-0.015326362
154	0x3cd73a06	0.026272785
155	0xbb28d817	-0.0025763565
156	0x3c5b30f7	0.013378373
157	0x3d1453d8	0.036212772
158	0x3c70a0aa	0.014686743
159	0x3bcf379b	0.0063237674
160	0xbd0097dd	-0.031394828
161	0xbcbaecc5	-0.022817979
162	0xbc9e3c3a	-0.019315828
163	0x3cfe73b7	0.031061037
164	0x3d0509ae	0.032479934
165	0xbd047584	-0.032338634
166	0x3cee695e	0.029102977
167	0xbce2e246	-0.027695786
168	0xbb2d8d1b	-0.002648181
169	0xbbc3f419	-0.0059800264
170	0x3ce65c50	0.02812019
171	0x3cff7ab1	0.031186434
172	0xbc82f446	-0.01598562
173	0x3cda8698	0.026675507
174	0x3c149979	0.009069794
175	0xbcbe9a07	-0.023266805
176	0x3c258318	0.010102056
177	0xbcd0f4f9	-0.025507437
178	0x3c3d1f0e	0.011543049
179	0x3c3ee434	0.011651088
180	0x3ce7941a	0.028268863
181	0x3d109e64	0.035307303
182	0x39780a1b	0.00023654888
183	0xbccce858	-0.025013134
184	0x3b58a7cc	0.0033059
185	0xbbf8627c	-0.0075800996
186	0xbc9999ec	-0.018750153
187	0x3cb0c78b	0.021579525
188	0x3ced755f	0.028986631
189	0xbcda4198	-0.026642606
190	0xbce8ebee	-0.028432813
191	0x3d01b398	0.031665415
192	0x3cddd7c7	0.02708043
193	0xbc342083	-0.0109940795
194	0x3b962ff6	0.004583354
195	0xbc7ce86c	-0.015436273
196	0x3c9cd7a2	0.01914579
197	0xbbd84591	-0.00660009
198	0x3b944aa4	0.0045254994
199	0xbce00364	-0.027345367
200	0xbc628b79	-0.013827198
201	0x3cb97664	0.02263946
202	0x3c86b707	0.016444696
203	0xbbdc2312	-0.006718048
204	0x3c3a28bf	0.011362254
205	0xbcc5be29	-0.024138527
206	0x3bb2f814	0.005461702
207	0xbb80815d	-0.0039216713
208	0x3d03330f	0.032031115
209	0x3d08d128	0.033402592
210	0xbca60cc4	-0.020269759
211	0xbc596f8e	-0.013271226
212	0xbc945350	-0.018106133
213	0xbc80a65b	-0.015704324
214	0xbccec457	-0.025240107
215	0xbc872d4d	-0.016501093
216	0x3baf4807	0.0053491625
217	0xbb07d6a5	-0.0020727303
218	0xbce2a1e3	-0.027665084
219	0xbba82667	-0.005131531
220	0xbd0cc145	-0.034364004
221	0x3d0302ad	0.031984974
222	0xbbd327e3	-0.006443964
223	0x3cb2fa40	0.021847844
224	0xbcafb03f	-0.021446345
225	0x3cc97646	0.02459253
226	0xbbbe10ce	-0.005800343
227	0x3ccaf3a3	0.024774378
228	0x3c9cf9aa	0.019162018
229	0x3cf7ced7	0.030249996
230	0x3c3c3092	0.011486189
231	0xbc78a60a	-0.015176306
232	0xbc68e13e	-0.014213858
233	0x3b399523	0.0028317652
234	0x3c08f322	0.008358749
235	0x3ce9eded	0.028555835
236	0x3cf0be25	0.029387543
237	0xbce9ac0d	-0.028524423
238	0xbc8ba4c6	-0.017046344
239	0xbc8ac597	-0.016939921
240	0xbcb97b6f	-0.022641866
241	0x3b667a8b	0.0035168256
242	0xbd09a250	-0.03360206
243	0x3b91c995	0.0044490793
244	0x3bf50808	0.007477764
245	0xbbb9abcc	-0.0056662317
246	0x3afeff11	0.0019454678
247	0xbc918e46	-0.017768037
248	0x3bc954d0	0.0061441436
249	0xbd02a809	-0.031898532
250	0xbcfe4d0d	-0.0310426
251	0xbc52e9a2	-0.012873085
252	0xbcf6497a	-0.030064333
253	0xbc0c8656	-0.00857695
254	0xbcf0c6c4	-0.029391654
255	0x3ce14361	0.02749795

bias f4 [64]
0	0xbb9ee62e	-0.004849217
1	0xbd29c314	-0.041445807
2	0x3cb7126e	0.022347655
3	0xbcd815c1	-0.02637756
4	0xbbce844a	-0.006302391
5	0xbc238760	-0.009981006
6	0xbca51fc4	-0.020156749
7	0xbcced1f0	-0.02524659
8	0xbd049fc8	-0.03237894
9	0xba97f5a0	-0.0011593588
10	0xbc313b3a	-0.010817343
11	0xbbc4bb85	-0.0060037994
12	0xbbd15831	-0.006388687
13	0x3bd79a2c	0.006579658
14	0xb9e61846	-0.00043887104
15	0xbb528a77	-0.0032125989
16	0xbc8569a1	-0.01628572
17	0xbd0fc029	-0.035095368
18	0xbccd4eed	-0.025062049
19	0xbc98d052	-0.018654022
20	0xbb25a955	-0.0025277932
21	0xbd04b628	-0.03240028
22	0x3c3521f7	0.011055461
23	0xbceb5704	-0.028728016
24	0x3c2515e6	0.010076022
25	0x3ca0888f	0.019596366
26	0x3d4457c1	0.04793525
27	0xbc5ac848	-0.013353415
28	0xbcf8e095	-0.030380527
29	0x3c820a39	0.015874015
30	0x3cd4d4ec	0.025980435
31	0xbcf6248e	-0.030046728
32	0xbcfcf4f4	-0.030878522
33	0x3bc08611	0.005875357
34	0x3d03e006	0.032196067
35	0x3b954930	0.004555844
36	0xbcb2d0c5	-0.021828065
37	0xba09b471	-0.0005253023
38	0x3c726cf2	0.014796482
39	0x3c2a0ede	0.010379521
40	0x3cb25a43	0.021771556
41	0x3be4470e	0.006966478
42	0x3b6ba15b	0.003595433
43	0x3d2c959c	0.042134866
44	0xbcf42096	-0.029800694
45	0x379de34c	1.8821702e-05
46	0xbbfb88bb	-0.0076762117
47	0xb92804fc	-0.00016023585
48	0xbc95e3f8	-0.01829718
49	0x3c147666	0.0090614315
50	0xbd274698	-0.040838808
51	0x3bec2ca8	0.007207472
52	0x3c018de5	0.007907365
53	0x3b9d81c1	0.0048067276
54	0x3d1a863a	0.037725665
55	0xbc6749e9	-0.014116743
56	0x3c6c25cf	0.014413311
57	0x3b9fdbf2	0.0048785144
58	0xbcf0ebca	-0.029409308
59	0xbcf84e8d	-0.030310893
60	0xbc41f275	-0.011837591
61	0x3c8d2942	0.017231587
62	0x3cd6201b	0.026138356
63	0xbc95c83c	-0.018283956

weight f4 [64, 1024]
0	0xbc14841e	-0.009064702
1	0xbc6ab928	-0.014326371
2	0xbba4a31b	-0.0050243265
3	0x3c80e2cf	0.01573315
4	0x3ce80004	0.02832032
5	0x3ceee50f	0.029161958
6	0x3b5eb160	0.0033980235
7	0xb9b9fd63	-0.00035474738
8	0x3cb9964a	0.022654671
9	0x3cdec279	0.027192341
10	0xbce9da46	-0.028546464
11	0x3a952630	0.0011379179
12	0x3ce50b77	0.027959568
13	0xbc35b71e	-0.011091022
14	0xbb963abb	-0.004584638
15	0x3ca8c401	0.020601274
16	0xbcd40353	-0.025880491
17	0x3b241cd7	0.0025041604
18	0x3c883028	0.016624525
19	0x3c79ac4f	0.0152388355
20	0xbc961c54	-0.018324055
21	0x3c1b15e7	0.009465671
22	0x3cc79f90	0.024368078
23	0x3cd6d0bf	0.026222585
24	0x3c16ac99	0.009196424
25	0xbc2434af	-0.010022326
26	0xbceda5f0	-0.02900979
27	0xbce678b7	-0.028133733
28	0x3cda4827	0.026645733
29	0xbc2798f6	-0.01022934
30	0x3a6b5ea7	0.0008978643
31	0xbcbd9f91	-0.023147376
32	0xbcb06f83	-0.021537548
33	0x3c3c5cef	0.0114967665
34	0xbc715de5	-0.014731859
35	0xbc95b30a	-0.018273849
36	0xbb392a9d	-0.002825416
37	0xbbd343ee	-0.006447307
38	0xbc46a09a	-0.012123251
39	0xbcd838bc	-0.02639424
40	0x3c731d5b	0.014838542
41	0xbb999179	-0.004686531
42	0xbc9a6e7b	-0.01885151
43	0x3bf67827	0.0075216475
44	0x3baf6194	0.0053522084
45	0x3c8f545c	0.01749628
46	0x3bd0b854	0.00636963
47	0xbcb09ecc	-0.021560095
48	0x3c8d1fc0	0.017227054
49	0x3c0009b7	0.007814816
50	0xbcac2bbc	-0.021016948
51	0x3cebd695	0.028788844
52	0x3c3685b2	0.011140274
53	0xbb7017b3	-0.003663522
54	0x3cfafb1f	0.030637322
55	0xbc8c92a8	-0.017159775
56	0xbc4a8f2a	-0.012363235
57	0xbc58f25e	-0.013241379
58	0x3cb7c08f	0.022430686
59	0x3cce0b11	0.025151761
60	0x3c8bdf71	0.017074319
61	0xbb888dfc	-0.0041673165
62	0x3ced1687	0.028941406
63	0xbb8c1c3d	-0.004275827
64	0xbc7213d7	-0.014775238
65	0x3c081cae	0.008307619
66	0xbb53d7e7	-0.0032324733
67	0xbcc9efc7	-0.024650468
68	0xbc122f93	-0.008922475
69	0xbc3e3e66	-0.011611557
70	0xbce62264	-0.02809257
71	0xbcc17d08	-0.02361919
72	0x3cf7948a	0.030222196
73	0xbcd18036	-0.025573831
74	0x3c4350ed	0.01192115
75	0x3c9fa9ac	0.019490086
76	0xbcfcdd5d	-0.030867273
77	0xbb3e6d8e	-0.0029057
78	0x3c1082ae	0.008820219
79	0x3bd8c640	0.00661543
80	0xbbe77654	-0.0070636664
81	0x3c293cbc	0.010329422
82	0xbcb77e61	-0.02239913
83	0xba76b038	-0.0009410414
84	0xbd06125a	-0.032732345
85	0xbcb33de8	-0.021880105
86	0xbc4d00f5	-0.012512435
87	0x3cd76995	0.026295463
88	0x3c1de62d	0.009637398
89	0xbcb79db3	-0.022414064
90	0xbd00c3e3	-0.031436812
91	0x3c981496	0.018564504
92	0xbd019d15	-0.031643946
93	0xbd03ac09	-0.032146487
94	0x3ca76ae4	0.020436712
95	0xbbeac0ad	-0.007164082
96	0x3cc05e3f	0.02348244
97	0x3c3edeae	0.011649771
98	0xbc951762	-0.018199626
99	0x3ccddb37	0.025128944
100	0xbcb849e8	-0.022496179
101	0xbc48e417	-0.012261412
102	0x3c6d7821	0.014493973
103	0xbcea5300	-0.02860403
104	0x3c8cb91d	0.017178113
105	0x3ccac823	0.024753636
106	0xbc4283a5	-0.011872207
107	0xbc27fd7d	-0.010253307
108	0xbcde8f8d	-0.02716806
109	0xbd041b99	-0.03225288
110	0x3b0759b6	0.0020652837
111	0xbca5e3f9	-0.020250307
112	0x3c14e7d9	0.00908848
113	0x3b81a1c1	0.00395605
114	0xbc2445fd	-0.010026452
115	0x3d00772d	0.031363655
116	0x3ce5409f	0.027984915
117	0x3c8c74e7	0.017145587
118	0xbc93e2e8	-0.018052533
119	0x3ceda686	0.029010069
120	0x3bfe47ad	0.0077600093
121	0xbc614b10	-0.013750806
122	0x3abdc827	0.0014479206
123	0xbc88486f	-0.016636102
124	0xba38993f	-0.00070418784
125	0x3c5784d3	0.013154226
126	0xbcae4ed2	-0.021277819
127	0x3c90257c	0.017595999
128	0xbb8f29a9	-0.00436898
129	0xbbc6a97e	-0.0060626855
130	0xbc9010c8	-0.017586127
131	0xbcbadf40	-0.022811532
132	0x3bb7e131	0.0056115617
133	0x3b9e55f7	0.004832025
134	0xbbb88031	-0.005630516
135	0x3cc45146	0.023964535
136	0x3beb0bbd	0.00717303
137	0x3c4055a7	0.011739171
138	0x3c93d432	0.018045519
139	0x3aff5677	0.0019480725
140	0xba28fa0e	-0.00064459525
141	0x3c211f8f	0.009834184
142	0xbc8e0b9e	-0.017339524
143	0x3cdbaf61	0.026817026
144	0x3c66a42f	0.01407723
145	0x3bf00312	0.0073245848
146	0xbd0368b2	-0.032082267
147	0xbceaf582	-0.02868152
148	0x3caa1e4e	0.020766404
149	0x3ce7ddc5	0.02830399
150	0x3cd1b16b	0.025597295
151	0xbc5f71c4	-0.013637964
152	0x3cd5de3a	0.026106942
153	0xbc774c86	-0.015093928
154	0xbbac3633	-0.0052554845
155	0xbb1159fa	-0.0022178874
156	0xbaea163d	-0.0017859411
157	0x3c457207	0.012051112
158	0x3b2c7055	0.0026312072
159	0x3cb4bf8c	0.022063993
160	0xbb502625	-0.0031761017
161	0xbc8ebc4d	-0.017423773
162	0xbc11c788	-0.00889767
163	0x3ccf856c	0.025332175
164	0xbcdf43d0	-0.027254015
165	0x3c7f3901	0.015577556
166	0xbcbb5384	-0.022866972
167	0x3c97c272	0.018525336
168	0xbc3f6a03	-0.01168299
169	0xbccbdaed	-0.024884665
170	0x3c5fe0b7	0.013664416
171	0x3c00bc08	0.00785733
172	0xb9189b16	-0.00014553624
173	0xbc977d15	-0.018492261
174	0xbcd896de	-0.026439127
175	0x3cd7d1e9	0.02634521
176	0xbcbc8e68	-0.023017123
177	0x3962ca0b	0.00021628306
178	0x3c9a87b5	0.018863538
179	0xbcd6a7d5	-0.026203075
180	0xbca801e4	-0.020508714
181	0xbcb0d179	-0.02158426
182	0x3cfe18b5	0.03101764
183	0xbcd85453	-0.026407396
184	0x3cf58939	0.02997266
185	0x3ce12ba5	0.027486632
186	0x3c9b5146	0.018959653
187	0xbbbffe03	-0.005859138
188	0xbcce1f1c	-0.025161318
189	0xbbbcfe72	-0.005767637
190	0x3cde600d	0.02714541
191	0xbcb3a3cc	-0.02192869
192	0x3ca6ebfa	0.020376194
193	0x3c4cfc88	0.01251138
194	0xbccc6094	-0.024948396
195	0x3cf7f655	0.030268827
196	0xbcec6270	-0.028855532
197	0xbb909b4c	-0.004413044
198	0x3bf432b5	0.007452334
199	0x3c84681e	0.016162928
200	0x3caa4160	0.020783126
201	0x3cbda3ab	0.023149332
202	0xbc196f17	-0.009364865
203	0xbc612b99	-0.013743305
204	0x3cb694f6	0.022287827
205	0x3c9e133c	0.019296281
206	0xbc0a8256	-0.008453926
207	0xbce0c741	-0.027438762
208	0x3b83b6d5	0.004019598
209	0xbc357920	-0.011076242
210	0xbbc225e6	-0.005924928
211	0xbc94d24a	-0.01816668
212	0x3bb57c1f	0.005538478
213	0xbb9bce21	-0.004754797
214	0x3ca13354	0.019677795
215	0xbb404d8b	-0.0029343094
216	0xbcdc8c06	-0.026922237
217	0x3d04a88c	0.0323873
218	0xbc9602e5	-0.018311927
219	0x3cdddb79	0.027082192
220	0x3b783b22	0.0037877043
221	0xbc59f1ca	-0.013302276
222	0x3ce60f3e	0.02808344
223	0xbc886b2d	-0.016652668
224	0xbc283825	-0.010267292
225	0xbc971727	-0.018443657
226	0x3cf0c11b	0.029388955
227	0x3b034c83	0.0020034618
228	0xbcf43bfa	-0.029813755
229	0xbbdc4f0a	-0.0067232894
230	0x3c8076dd	0.015681678
231	0x3c656f26	0.014003551
232	0xbc082cd3	-0.008311468
233	0xbc073ede	-0.008254735
234	0xbca89a81	-0.020581486
235	0xbcecc80e	-0.028903987
236	0xbb1e6f56	-0.0024175248
237	0x3c9a5bab	0.018842539
238	0xbcb7174f	-0.022349982
239	0xbccf0e14	-0.025275268
240	0xbcc55962	-0.024090473
241	0xbc8a2f51	-0.016868265
242	0xbc52dbb0	-0.01286976
243	0x3cb6224c	0.02223315
244	0xbba5172e	-0.0050381636
245	0x3c88aa7b	0.016682854
246	0x3c8cfb30	0.01720962
247	0xbca886bb	-0.020572057
248	0x3cb2424e	0.021760132
249	0x3d0e7a8f	0.03478485
250	0xbc9aa157	-0.018875761
251	0xbccd9fb5	-0.025100568
252	0xbc87a118	-0.016556308
253	0xbc524651	-0.012834148
254	0x3c95403b	0.018219104
255	0x3cd8704e	0.026420739

bias f4 [64]
0	0xbcf49a13	-0.029858625
1	0xbd0aa716	-0.03385075
2	0x3b8b7f46	0.0042571155
3	0x3c89503e	0.016761895
4	0xbcf0d3bd	-0.02939784
5	0x3a55c01d	0.0008153932
6	0xbcff7cb4	-0.031187393
7	0x3ae7728c	0.0017658039
8	0x3c813634	0.015772916
9	0xbc4f10fb	-0.012638326
10	0xbc005e3b	-0.007834966
11	0xbbde5248	-0.006784711
12	0x3cb336c6	0.021876704
13	0xbd1de21b	-0.03854571
14	0xbcb47c07	-0.022031797
15	0x3c60fb26	0.013731753
16	0x3c25e922	0.010126384
17	0xbaf4d5fa	-0.0018679493
18	0x3c9a7322	0.018853728
19	0x3c84d28e	0.016213682
20	0xbca43e5e	-0.02004927
21	0xbb2c348e	-0.0026276442
22	0x3c8b1216	0.016976397
23	0x3d092da1	0.03349078
24	0xbcea629f	-0.02861148
25	0x3c759efc	0.014991518
26	0xbc69bd07	-0.014266259
27	0xbbe88204	-0.007095577
28	0xbc9148b1	-0.017734857
29	0xbc0b6315	-0.00850751
30	0xbd017dc8	-0.031614095
31	0x3c3c533a	0.011494452
32	0x3c02caa8	0.007982887
33	0x3cc94931	0.024571033
34	0x394a3841	0.00019285177
35	0x3c8c8568	0.017153457
36	0xbc997452	-0.018732224
37	0xbc4b8280	-0.01242125
38	0xbd3e5a8d	-0.046473075
39	0x3bc727d2	0.006077745
40	0x3cc728a9	0.02431138
41	0x3c6218af	0.01379983
42	0xbbb42c71	-0.005498462
43	0x3bc84707	0.0061119827
44	0x3d02f0de	0.03196799
45	0xbc573b6d	-0.013136727
46	0xbc8da814	-0.01729206
47	0x3c725577	0.014790884
48	0xbcc72917	-0.024311585
49	0x3c870a0c	0.016484283
50	0xba24c9cb	-0.0006286173
51	0xbb49271b	-0.0030693475
52	0x3cad4b53	0.021154081
53	0xbcd71adf	-0.02625793
54	0xbcd3a5a9	-0.025835829
55	0xbc985b7d	-0.018598313
56	0xbb095e02	-0.0020960574
57	0xbb23f4c8	-0.0025017727
58	0x3d0a86fe	0.033820145
59	0xbb0ccc30	-0.002148401
60	0x3aff108f	0.0019459891
61	0xbb7a5886	-0.0038199737
62	0x3c6bdfbc	0.014396604
63	0x3c0f7fd4	0.008758504

weight f4 [10, 64]
0	0xbadc5156	-0.0016808908
1	0x3c5fca56	0.0136590805
2	0xbcc63feb	-0.0242004
3	0x3dae6fa1	0.08517385
4	0xbce8d7a5	-0.02842314
5	0x3e066e18	0.13127935
6	0xbbade3da	-0.005306703
7	0x3d153d23	0.036435258
8	0xbdcc4884	-0.09974769
9	0x3dc434aa	0.095803574
10	0x3c64dab6	0.01396816
11	0xbd110518	-0.03540525
12	0xbcb51b01	-0.022107603
13	0x3c808952	0.01569048
14	0x3de61e13	0.11236205
15	0x3dd9c2eb	0.10632881
16	0xbe11c2f4	-0.14234525
17	0x3d029250	0.031877816
18	0xbded08e5	-0.11573962
19	0xbd8dcee9	-0.069242306
20	0xbdff8c48	-0.124779284
21	0xbcbc151b	-0.022959283
22	0x3d419605	0.04726221
23	0x3ccea6a4	0.025225945
24	0x3dacff07	0.0844708
25	0x3df1d3cf	0.118079774
26	0xbdf13869	-0.117783375
27	0x3dce31f7	0.10068124
28	0xbd0b2cce	-0.033978276
29	0x3dbe6e98	0.09298438
30	0x3e01038a	0.12599006
31	0x3d824072	0.06359948
32	0xbcd87a26	-0.026425432
33	0x3d2875ea	0.041128077
34	0xbd17bf32	-0.037047572
35	0x3d6cffdd	0.057861198
36	0x3c187d0a	0.009307155
37	0xbd840cb6	-0.06447737
38	0x3e090818	0.13381994
39	0xbd258a9f	-0.040415403
40	0xbcfd41e7	-0.030915214
41	0x3bb0c44c	0.005394494
42	0x3e04507f	0.12921332
43	0xbe0122c7	-0.12610923
44	0xbd8e9264	-0.069615155
45	0xbdbc9078	-0.09207243
46	0xbddab44d	-0.10678921
47	0xbd1fa261	-0.038973216
48	0x3dd31ffe	0.103088364
49	0x3bac9ec2	0.005267949
50	0xbd8f8e9f	-0.07009625
51	0xbd015f1d	-0.031584848
52	0x3cf35468	0.029703334
53	0xbde512e7	-0.11185246
54	0xbce200a2	-0.027588192
55	0x3db8664e	0.09003888
56	0x3df647b3	0.12025394
57	0xbdbac53f	-0.09119653
58	0xbe077392	-0.1322768
59	0x3dde391f	0.10850739
60	0xbe06e019	-0.13171424
61	0xbc839d13	-0.01606611
62	0xbdd969f4	-0.10615912
63	0x3ceef5f0	0.029170007
64	0xbdc5b230	-0.09653127
65	0x3dcca197	0.09991758
66	0x3df8ea45	0.12154058
67	0x3d92b942	0.071642414
68	0x3cd64857	0.026157541
69	0xbdf18078	-0.117920816
70	0xbd7eb06d	-0.06217997
71	0x3d837e38	0.06420559
72	0x3d155829	0.03646103
73	0xbdd26198	-0.10272521
74	0x3cf8ce54	0.030371822
75	0x3b5c864a	0.0033649378
76	0xbe190ae4	-0.1494556
77	0xbcb78a99	-0.022404956
78	0xbdeae421	-0.114692934
79	0x3d839ae0	0.064260244
80	0xbd804233	-0.062626265
81	0xbdd8d32d	-0.105871536
82	0xbccc7668	-0.024958804
83	0x3c8d8ad5	0.017278114
84	0xbd2270e6	-0.03965845
85	0xbda7fe54	-0.08202806
86	0xbda10335	-0.0786194
87	0x3d6f0e8e	0.05836349
88	0xbdf030ab	-0.11728033
89	0xbddd4603	-0.10804369
90	0x3c8f5e34	0.017500974
91	0x3dc8fd2c	0.09813914
92	0x3d8f5320	0.06998277
93	0x3e0c3e10	0.1369555
94	0xbd9b6820	-0.0758822
95	0xbbd37c7e	-0.0064540496
96	0x3d9e8dd8	0.07741898
97	0x3ccf6204	0.025315292
98	0xbe06a9e6	-0.13150749
99	0xbd9ba138	-0.075991094
100	0xbd56669a	-0.052343942
101	0xbd28195c	-0.04103981
102	0xbc1995a4	-0.009374056
103	0x3e0c8b58	0.1372503
104	0x3d9a60e3	0.07538011
105	0xb9813ffe	-0.00024652475
106	0xbdf1b672	-0.11802377
107	0x3d884452	0.06653656
108	0xbd6e9dd3	-0.05825598
109	0xbda6ff94	-0.081542164
110	0x3c46fe9d	0.0121456655
111	0xbc3c8dc7	-0.011508412
112	0xbd23c9c0	-0.039987326
113	0x3d7eebc7	0.062236574
114	0x3dc4be69	0.0960663
115	0xbdb605ad	-0.08887801
116	0xbd8dfcfb	-0.06933018
117	0xbd0d5182	-0.03450156
118	0x3e00ee6f	0.12590955
119	0xbd3dd5ef	-0.0463466
120	0xbe09a0d0	-0.13440251
121	0x3da05ace	0.078298196
122	0xbd1405c6	-0.03613832
123	0xbb09882c	-0.0020985706
124	0x3d8a982c	0.06767306
125	0xbce9f311	-0.028558286
126	0xbde1a507	-0.110178046
127	0x3db4c415	0.08826462
128	0x3dd86482	0.10566045
129	0xbd2eeafe	-0.042704575
130	0xbc72ebeb	-0.014826755
131	0xbbffe731	-0.0078095426
132	0x3d922b4c	0.071371645
133	0xbd6485e2	-0.055791743
134	0xbcad628c	-0.021165155
135	0xbd894b22	-0.067037836
136	0x3df6cf33	0.12051239
137	0x3d3c45ab	0.045964878
138	0x3dc4a8aa	0.096024826
139	0x3d949225	0.07254437
140	0xbc889cb5	-0.016676286
141	0xbdeda247	-0.116032176
142	0xbd970336	-0.07373659
143	0x3d0e9e8e	0.03481918
144	0x3d8c27d9	0.06843538
145	0xbd8438d7	-0.06456154
146	0xbdcb72e6	-0.099340245
147	0xbbb262fa	-0.005443928
148	0xbd2090fe	-0.039200775
149	0x3d7714c3	0.060322534
150	0xbd86069f	-0.065442316
151	0xbd28e0d5	-0.04123004
152	0xbd196bb5	-0.037456233
153	0x3de6ef67	0.11276131
154	0xbdb0cf3b	-0.08633276
155	0xbd8fb26c	-0.07016453
156	0x3db20e16	0.08694093
157	0xbda72457	-0.08161228
158	0xbdeb4d22	-0.11489321
159	0xbd8c52d1	-0.068517335
160	0x3c6acf9c	0.0143317245
161	0xbccd4775	-0.025058487
162	0xbddc183d	-0.107468106
163	0xbd2ca61c	-0.0421506
164	0xbd565296	-0.052324854
165	0x3df7bdf9	0.12096781
166	0xbc5112a2	-0.01276079
167	0xbdd8b2dd	-0.105809905
168	0xbda22e17	-0.07918947
169	0xbc15d87a	-0.00914585
170	0x3dd8f5e0	0.10593772
171	0x3cac2cde	0.021017488
172	0xbda960c2	-0.08270408
173	0x3d9c2fd6	0.076263115
174	0x3dd49035	0.10379068
175	0xbde153dd	-0.11002324
176	0x3dab1f7d	0.08355615
177	0x3c66c460	0.014084905
178	0xbd9669c2	-0.073443905
179	0x3dafe1fd	0.08588026
180	0xbcecc694	-0.028903283
181	0xbd5d6e67	-0.054060366
182	0x3df6d5c9	0.12052495
183	0xbd4d9ec1	-0.050200228
184	0x3e054dc1	0.13017942
185	0x3df7db98	0.12102431
186	0x3d82bfb4	0.06384221
187	0x3ba16b91	0.004926153
188	0xbdb5c2df	-0.08875059
189	0x3daaa639	0.08332486
190	0xbd78f7c5	-0.060783166
191	0xbd34b5f4	-0.044118837
192	0x3de4aee5	0.11166171
193	0x3d20bd3c	0.039242968
194	0x3d1c1708	0.0381079
195	0x3d5971b5	0.053086955
196	0x3cb50f55	0.022102037
197	0xbdcafe57	-0.09911793
198	0x3dda38da	0.10655375
199	0xbd2e10a5	-0.042496342
200	0xbcd815de	-0.026377615
201	0xbdd2732a	-0.10275872
202	0x3de57cbb	0.11205431
203	0xbb9a488e	-0.004708356
204	0x3bc630d8	0.006048303
205	0x3cd400e1	0.025879325
206	0xbd5ad805	-0.05342867
207	0xbdffa107	-0.124818854
208	0x3db1575d	0.08659241
209	0xbd2981cc	-0.04138355
210	0x3cd6b2b0	0.026208252
211	0x3d334129	0.043763313
212	0x3d6a82d4	0.057253674
213	0x3dd7f7f7	0.105453424
214	0xbcdf52fa	-0.027261246
215	0x3df3eb34	0.11910096
216	0x3da5060e	0.080577955
217	0xbdaddd57	-0.08489483
218	0xbc294c76	-0.010333171
219	0xbdc3ecd9	-0.095666595
220	0xbdeeae8a	-0.116543844
221	0x3b87952e	0.0041376567
222	0xbe0f84a0	-0.14015436
223	0xbddcaf19	-0.10775585
224	0x3d984b79	0.0743627
225	0x3dd35857	0.10319584
226	0xbdbdec1f	-0.09273552
227	0xbdf6ef1d	-0.12057326
228	0x3db48b14	0.088155895
229	0x3c91258c	0.017718099
230	0x3d182371	0.037143175
231	0x3dc7d7e4	0.09757975
232	0xbd3854ae	-0.04500263
233	0x3d5e0904	0.054207817
234	0xbd5267cf	-0.05136853
235	0x3d84158a	0.06449421
236	0xbaff8a64	-0.00194962
237	0x3d6b205a	0.0574039
238	0x3d28cddc	0.041211948
239	0xbcaf125e	-0.021371063
240	0xbd315dbe	-0.04330229
241	0x3dc6de82	0.09710409
242	0x3c81dadd	0.015851432
243	0x3ca1a125	0.01973016
244	0xbd0f0038	-0.034912318
245	0x3d5da271	0.054109994
246	0xbd86eb54	-0.06587854
247	0x3e15e47a	0.14637938
248	0xbcd70486	-0.026247274
249	0x3d5c8a2d	0.053842712
250	0x3d94a12a	0.07257302
251	0x3d0d3dea	0.034482874
252	0xbd892c57	-0.0669791
253	0xbce75b93	-0.028241908
254	0xbb33b533	-0.0027421236
255	0x3c3a886c	0.011385065

bias f4 [10]
0	0xbd94c6a1	-0.07264448
1	0xbd7cdfec	-0.061736986
2	0xbda547a5	-0.08070306
3	0xbd67a260	-0.056551337
4	0x3d1080db	0.035279136
5	0xbd04117d	-0.03224324
6	0xbd8ba828	-0.06819183
7	0x3d9828f2	0.07429685
8	0xbda50225	-0.0805705
9	0xbd8e5bcb	-0.06951102
