project01/first_train/snn_2.pth (torch, 587335 bytes, 10 tensors)

weight f4 [32, 3, 5, 5]
0	0xbc5d7d0d	-0.013518584
1	0xbdb3afda	-0.087737754
2	0xbe1675c3	-0.1469336
3	0xbdbfba08	-0.093616545
4	0x3d76b643	0.060232412
5	0xbd96a9c9	-0.07356603
6	0xbca1515d	-0.019692117
7	0xbd907129	-0.070528336
8	0x3dc3d41c	0.09561941
9	0xbc8e671a	-0.017383147
10	0x3dab08f1	0.08351315
11	0x3dd3ae72	0.10336007
12	0x3d871442	0.06595661
13	0xbce8933f	-0.028390525
14	0xbd87c404	-0.06629184
15	0xbda61d56	-0.08111064
16	0xbb41c350	-0.0029565878
17	0xbd7c89eb	-0.061654966
18	0x3d59ddc7	0.05319002
19	0x3de85690	0.113446355
20	0x3df17b65	0.11791114
21	0xbb3c1f38	-0.0028705131
22	0x3def063d	0.11671112
23	0x3d1c9f8a	0.038238086
24	0x3d9cafb5	0.07650701
25	0xbc824f78	-0.015907034
26	0xbd956ebd	-0.07296512
27	0xbe08da23	-0.13364463
28	0xbdff451c	-0.124643534
29	0x3c3c6691	0.011499063
30	0xbc2bc5bd	-0.010484156
31	0xb9695100	-0.00022250786
32	0x3d719fc6	0.058990262
33	0x3bae76f6	0.00532424
34	0x3da25659	0.07926626
35	0x3deab7a1	0.11460806
36	0x3c9062cb	0.017625233
37	0x3d6a5f41	0.057219747
38	0xbd223046	-0.03959682
39	0x3d17a872	0.037025876
40	0x3d230a9b	0.039805036
41	0x3d93f0b5	0.072236456
42	0x3d98ce0c	0.07461175
43	0x3decb051	0.11557067
44	0x3d3ad196	0.045610033
45	0x3cb849f4	0.022496201
46	0x3dd093ef	0.10184466
47	0xbd41df97	-0.047332373
48	0xbd1d900c	-0.038467452
49	0xbd440043	-0.047851812
50	0xbd39ff9a	-0.045409776
51	0x3c10173e	0.008794604
52	0x3daf7c32	0.0856861
53	0xbdd3adb4	-0.103358656
54	0x3c0b9495	0.008519311
55	0xbc0c7fb5	-0.00857537
56	0x3da1246a	0.078682736
57	0xbdba4851	-0.090958245
58	0x3d444ab4	0.047922805
59	0x3d0ecd4b	0.03486375
60	0x3ddcf2b9	0.10788483
61	0xbd527d66	-0.05138912
62	0xbd9260f7	-0.07147401
63	0xbdb4c7e2	-0.08827187
64	0x3dca270a	0.09870727
65	0x3def6e3f	0.1169095
66	0x3ccab15a	0.024742771
67	0x3e0ae84c	0.13565177
68	0xb90b84c5	-0.00013305534
69	0xbc9936de	-0.01870292
70	0x3e0c227e	0.13685033
71	0x3d55abcd	0.052165795
72	0x3b9e5cde	0.004832848
73	0x3cfa566d	0.03055879
74	0x3d2752ed	0.04085057
75	0xbd60f68c	-0.054922625
76	0x3df8429f	0.12122082
77	0xbd9c838e	-0.076422796
78	0x3d94dd77	0.072688036
79	0x3d01d141	0.0316937
80	0x3d3f43ea	0.046695627
81	0xbd6aa56e	-0.057286672
82	0x3d4f268a	0.050573863
83	0xbd418efa	-0.047255494
84	0x3cc9101f	0.02454382
85	0x3e151dcb	0.14562146
86	0x3c804541	0.015658023
87	0xbd850cb6	-0.06496565
88	0xbdfe4ccd	-0.12416992
89	0xbc9480b0	-0.01812777
90	0x3de3ea22	0.11128642
91	0xbc0af65d	-0.008481589
92	0x3d76207e	0.06008958
93	0xbd930bef	-0.071800105
94	0x3dfe6fef	0.124236934
95	0x3dd5b0d5	0.10434119
96	0x3d611b87	0.054957893
97	0xbd44f0ed	-0.048081327
98	0xbcec083e	-0.028812524
99	0x3e098dee	0.13433048
100	0x3df7be8b	0.1209689
101	0xbd71b91b	-0.05901442
102	0x3d240a86	0.0400491
103	0x3c10b0cb	0.008831213
104	0x3cd73a30	0.026272863
105	0x3da353ef	0.079749934
106	0x3d15ba21	0.03655446
107	0x3d8ca6df	0.06867766
108	0x3d4e8354	0.050418213
109	0x3d5e718c	0.054307505
110	0x3d5738f5	0.052544553
111	0x3d1e0517	0.038579073
112	0xbb81977f	-0.0039548273
113	0xbdefdfce	-0.11712609
114	0x3dd4758d	0.103739835
115	0x3d9faa1f	0.0779612
116	0xbd9bec34	-0.076134115
117	0xbdb32f89	-0.08749301
118	0x3c94aea7	0.018149687
119	0x3dbdc438	0.092659414
120	0xbd94be7c	-0.072628945
121	0x3b9ab311	0.0047210534
122	0x3d1b5231	0.03792018
123	0x3dd7b646	0.10532813
124	0x3bf110ae	0.0073567247
125	0xbdfcb3a3	-0.123389505
126	0x3acd6f82	0.0015673491
127	0xbd525842	-0.0513537
128	0xbdba57ed	-0.09098802
129	0xbd97745e	-0.07395242
130	0xbd8be74c	-0.06831226
131	0x3c9d1d1d	0.019178921
132	0xbdf3384b	-0.118759714
133	0xbddf808a	-0.10913189
134	0xbd226381	-0.039645676
135	0x3dbcaa73	0.09212198
136	0x3d9a9367	0.07547646
137	0xbe0b5a0e	-0.13608572
138	0xbdfc8afb	-0.12331196
139	0xbcdafeef	-0.02673289
140	0xbcc7eb35	-0.024404148
141	0xbdcd097a	-0.10011573
142	0xbdc49464	-0.09598616
143	0xbd93f006	-0.07223515
144	0x3d5ce14e	0.053925805
145	0xbdce8fb4	-0.10086003
146	0xbe06baed	-0.13157244
147	0xbe320f09	-0.17388548
148	0xbca8c4be	-0.020601626
149	0x3daad640	0.08341646
150	0xbd6d7541	-0.05797315
151	0xbd74c709	-0.059760127
152	0xba7b6291	-0.00095895777
153	0xbcbd97ff	-0.023143766
154	0xbde28598	-0.11060637
155	0xbd6ef2f5	-0.05833717
156	0x3c340350	0.010987118
157	0x3cc8e6cd	0.024524117
158	0xbd743f8b	-0.05963091
159	0x3d5177a6	0.051139496
160	0xbccdd373	-0.02512524
161	0x3ddd18b0	0.107957244
162	0x3db2eb16	0.08736245
163	0xbd83c985	-0.06434921
164	0x3c9fbcfa	0.01949929
165	0x3df01f28	0.117246926
166	0x3df343e3	0.11878183
167	0x3d323251	0.043505017
168	0x3db4dc58	0.0883109
169	0xbdc92f7e	-0.098235115
170	0xbd84ca9c	-0.06483957
171	0xbc095b9a	-0.008383656
172	0xbd20dd74	-0.039273694
173	0x38c05621	9.171316e-05
174	0x3c756cc7	0.014979548
175	0x3dd04c8e	0.10170852
176	0x3d84548b	0.06461438
177	0x3d96716e	0.07345854
178	0x3d58231b	0.052767854
179	0xbc9b5ddf	-0.01896566
180	0x3810d1e8	3.4527766e-05
181	0xbd6c1668	-0.057638556
182	0xbd83cade	-0.06435178
183	0x3d3622d5	0.044466812
184	0xbd77501d	-0.060379136
185	0x3d6816f8	0.05666253
186	0x3d9ddc71	0.077080615
187	0x3ca302a6	0.019898724
188	0xbd4c682f	-0.049904045
189	0xba61a074	-0.0008606978
190	0x3d89bd4a	0.06725557
191	0x3dd32df5	0.103115
192	0xbd6659f5	-0.056238133
193	0x3ddce31c	0.10785505
194	0x3db427fc	0.08796689
195	0xbbe5a78a	-0.0070084976
196	0xbd348993	-0.044076513
197	0xbdd62976	-0.10457127
198	0xbd900e98	-0.070340335
199	0x3cc39e8c	0.023879312
200	0x3d8e6c95	0.06954304
201	0xbd78953a	-0.06068919
202	0xbcd4f663	-0.025996393
203	0xbded7afb	-0.11595722
204	0x3dc4d64a	0.09611185
205	0xbccfff49	-0.025390284
206	0xbde78f02	-0.113065735
207	0xbde42073	-0.11139002
208	0x3bd2ee50	0.0064371005
209	0xbde1b145	-0.110201396
210	0x3de09a6a	0.10966952
211	0x3d47d2a2	0.04878486
212	0x3dce62f9	0.10077471
213	0x3cef391d	0.029202038
214	0x3dd9e739	0.10639805
215	0x3d667e01	0.05627251
216	0xbd5fa9ea	-0.054605402
217	0x3d86deea	0.06585486
218	0x3d7c8c72	0.061657377
219	0x3d0d6073	0.03451581
220	0xbd8f1791	-0.06986917
221	0xbcbcb77c	-0.02303671
222	0x3d36cb35	0.044627387
223	0x3d101930	0.03518027
224	0x3dae6e4a	0.0851713
225	0xbda90bb9	-0.08254189
226	0x3d6c74b9	0.057728503
227	0xbbdf8aff	-0.0068219895
228	0x3d66ccba	0.056347586
229	0xbbbd07a3	-0.0057687326
230	0x3d2b2f89	0.04179338
231	0x3d022241	0.03177095
232	0xbcf64a4d	-0.030064726
233	0x3cb981b5	0.022644857
234	0x3da43686	0.08018212
235	0x3d2e4bce	0.04255276
236	0xbe05169a	-0.12996903
237	0x3dc55585	0.09635452
238	0x3c89d351	0.016824396
239	0xbdcc5b1a	-0.09978314
240	0x3caae3a1	0.020860495
241	0xbd695c7d	-0.05697297
242	0x3c49e0a8	0.012321629
243	0x3d56c985	0.052438278
244	0x3daa9b08	0.08330351
245	0xbc8327cc	-0.016010188
246	0x3d24ccdd	0.040234435
247	0x3d7e5eb6	0.062102042
248	0x3d7930e8	0.060837656
249	0x3d07e6a2	0.033178933
250	0xbc8af524	-0.016962595
251	0x3d00bd80	0.03143072
252	0xbd35e78f	-0.044410285
253	0xbd41deee	-0.047331743
254	0x3d876b5f	0.06612276
255	0x3d85353e	0.06504296

bias f4 [32]
0	0xbe19dcbf	-0.15025614
1	0x3e18dba8	0.14927542
2	0x3b12fb91	0.0022427777
3	0xbd1fc878	-0.03900954
4	0xbdf27999	-0.11839599
5	0x3b091977	0.002091972
6	0xbdd2a1b6	-0.1028475
7	0x3bc78960	0.0060893744
8	0xbdc17539	-0.094461866
9	0x3d95ce16	0.073146984
10	0xbc472bc7	-0.012156433
11	0x3d0b767b	0.03404854
12	0x3dfe6da2	0.124232545
13	0x3d938a51	0.07204116
14	0xbdd9b767	-0.10630684
15	0x3bc69e28	0.006061334
16	0xbdc39330	-0.09549558
17	0x3ae015e8	0.0017096372
18	0xbc8f5b5f	-0.017499624
19	0xbdf138fb	-0.11778446
20	0xbe298140	-0.16553211
21	0x3cfd1a1e	0.030896243
22	0xbbbba47c	-0.005726395
23	0x3e058ba6	0.13041553
24	0x3d13c1ac	0.03607337
25	0x3d6c3e35	0.057676513
26	0x3c6ca808	0.014444359
27	0x3e3fbebc	0.18725103
28	0xbd73eee0	-0.05955398
29	0xbcb87007	-0.022514356
30	0xbd91867e	-0.071057305
31	0x3d299874	0.041405156

weight f4 [32, 32, 5, 5]
0	0xbc4e5a2a	-0.012594739
1	0x3b78164a	0.0037855082
2	0x3d0de591	0.03464276
3	0x3c3b04b0	0.011414692
4	0x3b897530	0.004194878
5	0xbcb1396d	-0.021633828
6	0xbbdf70d5	-0.0068188705
7	0xbcaf1f16	-0.021377128
8	0xbcbc6c51	-0.023000868
9	0x3cbdfcfa	0.023191918
10	0xbd027af4	-0.03185554
11	0xbcf5478a	-0.029941339
12	0xbd22ed05	-0.03977682
13	0xbccfa8ff	-0.025349138
14	0x3bf77944	0.007552298
15	0x3ca61198	0.020272061
16	0x3c7b502d	0.01533894
17	0x3cbdc74b	0.02316632
18	0xbd182489	-0.037144218
19	0xbbc232ac	-0.0059264507
20	0xbc65303e	-0.013988553
21	0x3cc37f36	0.02386437
22	0xbc093518	-0.008374475
23	0xbc1517a1	-0.009099872
24	0xbd13bc47	-0.036068227
25	0x3c6befb3	0.0144004105
26	0xbcdb92ab	-0.026803335
27	0x3cd7ec20	0.02635771
28	0xbc0be1d7	-0.008537731
29	0xbc4bfa73	-0.012449848
30	0x3c99f8e0	0.01879543
31	0xbcf6f6c0	-0.030146956
32	0xbcdeaf68	-0.02718325
33	0x3d034461	0.032047633
34	0x3d198666	0.037481688
35	0x3cf42d08	0.029806629
36	0xbc83fbc9	-0.016111271
37	0xbadd2adb	-0.0016873734
38	0x3ce62145	0.028092036
39	0xbc44b02b	-0.012004892
40	0xbd13446f	-0.035953935
41	0xbc920252	-0.017823372
42	0xbc748a51	-0.014925555
43	0xbcedb727	-0.029017998
44	0xbbc79715	-0.0060910084
45	0xbb3fbdc4	-0.0029257396
46	0x3c41c852	0.011827545
47	0x3baf76cf	0.0053547393
48	0x3d133c66	0.035946272
49	0x3c397da8	0.011321463
50	0xbc9d92b3	-0.01923499
51	0x3c70a1fb	0.014687057
52	0x3c9e858c	0.01935079
53	0xbc806255	-0.015671888
54	0x3d3f65e4	0.04672803
55	0x3bfd7aee	0.0077356016
56	0xbc8b1544	-0.016977914
57	0xbc8540fb	-0.016266337
58	0x3d0ef52d	0.034901787
59	0x3ca8a36c	0.020585738
60	0xbce72072	-0.028213713
61	0xbcab7663	-0.020930475
62	0xbaef9e5e	-0.001828145
63	0xbc6c9171	-0.014438973
64	0x398beb6a	0.00026687543
65	0xbc8ae30c	-0.016953968
66	0x3cd31aec	0.025769673
67	0x3c217ff2	0.009857165
68	0xbd1266a2	-0.03574241
69	0xbcba2569	-0.022722917
70	0x3ca578ec	0.020199262
71	0xbccf6981	-0.025318863
72	0x3afefc95	0.0019453937
73	0x3a1ed18f	0.00060584483
74	0x3b1143b3	0.0022165596
75	0x382f90dd	4.1858166e-05
76	0x3c8df721	0.017329754
77	0x3d10fe46	0.035398744
78	0x3d0d22a9	0.034456883
79	0x3d25d661	0.04048765
80	0xbceafeb3	-0.028685903
81	0x3ca545ed	0.020174945
82	0xbbaadbb8	-0.005214181
83	0xbc760b56	-0.015017351
84	0xbbd82b74	-0.006596977
85	0xbd0c2479	-0.03421447
86	0x3cfb4aed	0.030675376
87	0x3c8fa994	0.017536916
88	0x3d076aa6	0.033060692
89	0xbb823bdf	-0.0039744223
90	0x3c94bf08	0.018157497
91	0x3cb11d2e	0.02162036
92	0xbb8a1d3a	-0.00421491
93	0x3d06471d	0.032782663
94	0xbd05f3b0	-0.0327031
95	0x3b01794e	0.001975614
96	0xbd18f1ad	-0.037339855
97	0xbc3afe2b	-0.011413137
98	0x3c899fb0	0.016799778
99	0xbd14466e	-0.03619998
100	0x3cc37c6f	0.023863045
101	0x3d11507b	0.035477143
102	0x3d57fae5	0.052729506
103	0x3d436b6b	0.047709864
104	0x3d0468dd	0.032326568
105	0x3c05f60f	0.008176341
106	0xbcb8ff82	-0.022582773
107	0x3c79cd95	0.0152467685
108	0x3cbf1231	0.023324104
109	0xbc6b71c6	-0.014370387
110	0x3c0e9e8d	0.008704794
111	0xbcb74976	-0.022373896
112	0x3c59770e	0.013273014
113	0x3ce57757	0.028011007
114	0xbb876864	-0.0041323174
115	0xbb4991b1	-0.0030757005
116	0x3c1cdd80	0.009574294
117	0x3cbd8a86	0.023137342
118	0xbc774288	-0.015091546
119	0x3ce954e7	0.028482867
120	0xbcb4a38d	-0.022050643
121	0xbbafd991	-0.005366512
122	0x3cbd3379	0.023095833
123	0x3ceff5ca	0.029292006
124	0xbca8096f	-0.02051231
125	0x39d21a5e	0.00040073966
126	0x3cd31be2	0.025770131
127	0x3d2219cd	0.039575387
128	0x39ab75b7	0.00032703366
129	0x3c29029f	0.010315566
130	0xbb84e23a	-0.0040552886
131	0x3cdb289e	0.026752766
132	0x3c419008	0.011814125
133	0x3c83f536	0.016108137
134	0x3b4f7ea3	0.0031661175
135	0x3cbd1bf1	0.023084613
136	0xbc3df85b	-0.011594857
137	0x3c4baf3c	0.012431916
138	0x3d083a33	0.033258628
139	0xbbd9c3cb	-0.006645655
140	0x3cc1e635	0.023669342
141	0x3c9a7baa	0.018857796
142	0xbcaf147f	-0.021372078
143	0xbc048d0a	-0.008090267
144	0x3caa785c	0.020809345
145	0xbc152840	-0.009103835
146	0x3ce7b934	0.028286554
147	0xbd01663a	-0.03159163
148	0xbc372021	-0.011177094
149	0xbcae3587	-0.021265758
150	0xbce393d5	-0.027780453
151	0xbc55d556	-0.0130513515
152	0xbc5c235f	-0.0134361675
153	0xbca6262e	-0.020281877
154	0x3a92019d	0.0011139397
155	0x3d030323	0.031985413
156	0xbcda226c	-0.026627742
157	0x3c99512d	0.018715465
158	0x3bf8d0e2	0.00759326
159	0xbcff56b8	-0.03116928
160	0xbcd3f56e	-0.025873866
161	0x3cd0e18b	0.025498172
162	0x3a522e99	0.0008017808
163	0xbcdf6ab2	-0.027272556
164	0xbd086d18	-0.033307165
165	0xbcd53ac8	-0.026029006
166	0x3cfe870f	0.03107026
167	0x3c5ff237	0.013668588
168	0x3cc7ca36	0.024388414
169	0x3b85abaa	0.004079302
170	0xbb9dc6ee	-0.004814974
171	0xbbea1783	-0.007143916
172	0xbcf95b89	-0.030439155
173	0xbcddacb2	-0.027059887
174	0x3bb6265f	0.0055587734
175	0x3d0b57d1	0.034019295
176	0x3caf99f2	0.021435712
177	0xbc8bae04	-0.01705075
178	0xbb2fd73c	-0.002683117
179	0x3c51bef8	0.012801878
180	0xbcd7e99f	-0.026356516
181	0x3c01fb1e	0.007933406
182	0xbb24c98b	-0.0025144543
183	0x3d130fe5	0.03590383
184	0xbc5f1534	-0.013615895
185	0x3d121de0	0.035673022
186	0x3c4dcf85	0.012561684
187	0x3c13f14c	0.009029698
188	0x3b74cea6	0.0037354617
189	0xbcc4adc3	-0.024008637
190	0x3d035828	0.032066494
191	0x3c1c3ada	0.009535516
192	0x3cc3ec74	0.02391646
193	0x3d114933	0.0354702
194	0x3ca72b19	0.020406293
195	0x3c28cb82	0.010302426
196	0x3cf64da8	0.030066326
197	0xbbbe785e	-0.0058126887
198	0x3b709806	0.0036711707
199	0xbc76f1d2	-0.015072303
200	0xbcb61d42	-0.022230748
201	0x395076d3	0.00019880691
202	0x3cd05f46	0.025436055
203	0xbd01a5b2	-0.03165216
204	0x3d0260df	0.031830665
205	0x3cd2de9d	0.025740916
206	0x3c9e8dcd	0.019354725
207	0xbcba9851	-0.022777708
208	0xbcd0c061	-0.025482358
209	0x3d233282	0.03984309
210	0x3cc74748	0.024325982
211	0x3d4b53d9	0.04964051
212	0x3d094cb2	0.033520408
213	0x3c1fb593	0.0097478805
214	0xbc6c85f3	-0.014436233
215	0x3cd2cfbd	0.025733823
216	0xbc025ae2	-0.007956238
217	0xbc6cae39	-0.014445835
218	0x3c90ae60	0.017661273
219	0x3a8f568d	0.0010935828
220	0x3d2cefa6	0.042220734
221	0x3bbb5e06	0.0057179956
222	0xbc981c83	-0.018568283
223	0x3d1312e3	0.035906684
224	0x3b0cd6ca	0.002149033
225	0xbd1cb30c	-0.03825669
226	0xbcc7ceed	-0.024390662
227	0xbbad25e1	-0.0052840565
228	0xbcdba46f	-0.026811806
229	0xbd0e5d48	-0.03475693
230	0xbc93ef1a	-0.018058348
231	0x3bbfc429	0.0058522415
232	0xbd153592	-0.03642804
233	0xbc75f8c1	-0.015012921
234	0x3b77c918	0.003780907
235	0xbcca8ade	-0.02472442
236	0x3b31afc4	0.002711282
237	0x3c1d60fe	0.009605644
238	0xbcee2308	-0.029069439
239	0xbcb0c23b	-0.021576991
240	0xbd023669	-0.03179017
241	0xbce52378	-0.027971014
242	0x3cdba3c4	0.026811488
243	0x3cb0a8b6	0.021564823
244	0xbc1a2f0e	-0.009410633
245	0x3cb7019f	0.02233964
246	0x3d127995	0.03576048
247	0xbc0da873	-0.008646118
248	0xbd0396f3	-0.03212638
249	0x3cdad62a	0.02671345
250	0x3c657dfd	0.014007089
251	0xbc3f720f	-0.0116849085
252	0x3c96f43a	0.018427003
253	0x3d27b71d	0.040946115
254	0xbc8ecfc3	-0.017433053
255	0x3ca8d30d	0.02060845

bias f4 [32]
0	0x3b822b5e	0.003972455
1	0x3a2c1829	0.00065648794
2	0xbc7af2df	-0.015316694
3	0xbcb2047a	-0.02173065
4	0xbd14c4a4	-0.036320344
5	0xbc74fe09	-0.014953145
6	0xbdb4e7d4	-0.0883328
7	0xbd201b58	-0.039088577
8	0xbd03d7f8	-0.032188386
9	0xbd1923d1	-0.037387673
10	0x3d2fb8e0	0.04290092
11	0x3c410ca7	0.011782802
12	0xbcbf3f41	-0.023345592
13	0xbc5e81da	-0.013580764
14	0x3d30abb0	0.043132484
15	0xbc53bcf3	-0.012923467
16	0x3ca4b288	0.020104662
17	0x3d243156	0.040086113
18	0xbcb14a56	-0.021641891
19	0xbd26f97d	-0.040765274
20	0x3d1f762c	0.038931057
21	0x3d129da0	0.035794854
22	0x3ba3ad16	0.0049949987
23	0x3ce0276e	0.027362552
24	0x3af727f0	0.0018856507
25	0xbd11d7eb	-0.035606306
26	0xbd003b01	-0.03130627
27	0xbb3a8a0e	-0.0028463635
28	0x3b69b05d	0.00356581
29	0xbb0bd3d2	-0.0021335972
30	0xbc41a1bd	-0.011818347
31	0xbc8a48f8	-0.016880497

weight f4 [64, 32, 5, 5]
0	0xbc99b8e4	-0.01876492
1	0xbc83a639	-0.016070472
2	0x3bba2cf6	0.0056816293
3	0x3cbdccf6	0.023169022
4	0xbc7d1f3b	-0.01544934
5	0x3c511540	0.012761414
6	0x3d0bd361	0.034137134
7	0xbc14b44c	-0.009076189
8	0x3b237b32	0.0024945256
9	0xbcccb12b	-0.024986824
10	0x3cc68b1b	0.024236253
11	0x3c2e326f	0.0106321415
12	0x3d0a5cc7	0.033779886
13	0x3d2e9124	0.042618886
14	0xbbd4ecc8	-0.006497953
15	0x3caea19a	0.021317292
16	0x3c4e8e9c	0.012607243
17	0x38e9f3b5	0.000111557
18	0xbca59f0d	-0.020217443
19	0x3955bb91	0.00020383137
20	0xbc65a1da	-0.014015639
21	0xbc07e765	-0.008294915
22	0x3b61bc6a	0.003444458
23	0xbc8096ad	-0.015696848
24	0xbbef9f12	-0.007312664
25	0xbd14a60c	-0.036291167
26	0x3bc68cf0	0.0060592815
27	0xbcf9bf77	-0.030486805
28	0x3b18fea9	0.0023345149
29	0x3cbfc3e0	0.02340883
30	0xbc77c1bf	-0.015121876
31	0x3b4d5807	0.0031332986
32	0x3c4dd693	0.0125633655
33	0xbc5fcb70	-0.013659343
34	0xbcf34eca	-0.029700655
35	0xbcc09ece	-0.023513224
36	0xbc46d5cd	-0.012135935
37	0xbd00d3d8	-0.03145203
38	0xbcba787a	-0.022762526
39	0xbc40c2e3	-0.011765215
40	0x3d186c88	0.03721288
41	0x3c9a5187	0.018837703
42	0x3cb600bb	0.022217145
43	0xbc1a7620	-0.009427577
44	0xbbaebd3b	-0.0053326166
45	0x3cafcad2	0.021459017
46	0x3ca51d10	0.02015546
47	0x3ce24372	0.027620051
48	0xbcc210e2	-0.023689691
49	0x3d05297d	0.03251027
50	0xbb339179	-0.002739994
51	0xbb66fe6e	-0.0035246867
52	0x3ba72883	0.005101265
53	0x3c8cbf22	0.017180983
54	0x3c4d48c2	0.012529554
55	0xbc6665d1	-0.014062361
56	0x3cff8c4b	0.031194827
57	0x3cb2fd25	0.021849224
58	0xbc0a2244	-0.008431021
59	0x3cfe66e7	0.031054927
60	0xbc991465	-0.018686483
61	0xbcb18c1d	-0.021673257
62	0xbad0d7eb	-0.0015933489
63	0x3cd04f40	0.025428414
64	0xbb36761a	-0.002784139
65	0x3ce2e78f	0.027698306
66	0xbce3965d	-0.02778166
67	0x3ccd69cb	0.02507486
68	0x3b0c3d95	0.002139901
69	0xbc4e1937	-0.012579254
70	0x3cc06bad	0.023488844
71	0xbd0738c2	-0.033013113
72	0xbbd9a27f	-0.0066416855
73	0x3c2b276e	0.0104464125
74	0x3c5ecc80	0.013598561
75	0xbb8523e7	-0.004063118
76	0xbc261e8f	-0.010139122
77	0xbcdad4a9	-0.026712732
78	0xbcdf9f0b	-0.027297517
79	0xbcfceeda	-0.030875612
80	0x3c11bf86	0.00889576
81	0x3ccce343	0.02501071
82	0x3cf8b1a7	0.030358149
83	0xbd26948d	-0.040669013
84	0x3c86582c	0.016399466
85	0xbcdcb886	-0.026943456
86	0x3c39fda4	0.011351977
87	0x3c8262c9	0.015916245
88	0xbcc16f57	-0.023612661
89	0xbc9317ae	-0.017955627
90	0x3bf69dc3	0.007526131
91	0xbcd3f90d	-0.025875593
92	0xbcb824f1	-0.022478553
93	0x3b7f6147	0.0038967894
94	0xbc734e56	-0.01485022
95	0x3d052f0b	0.032515567
96	0x3a88f90a	0.0010450196
97	0xbcef8d29	-0.029242115
98	0xbc7231d0	-0.014782384
99	0xbb8a0898	-0.0042124502
100	0x3cf3aa93	0.029744422
101	0xbc02c46b	-0.0079814
102	0xbcc00ba9	-0.02344306
103	0xbd0f91ce	-0.03505116
104	0x3b991171	0.0046712686
105	0xbb9cbf9c	-0.004783584
106	0x3cfb21f1	0.030655833
107	0x3ccecae5	0.025243232
108	0x3cd44bed	0.02591511
109	0x3c3bfc45	0.01147372
110	0xbc84350b	-0.016138574
111	0x3d14994d	0.03627901
112	0xba939e02	-0.00112623
113	0x3cb7f8ba	0.02245747
114	0x3cef0dd2	0.029181395
115	0x3cbaefa1	0.022819342
116	0x3c9f3a4c	0.019436978
117	0xbb83fc5c	-0.0040278863
118	0x3c444f01	0.011981727
119	0xbceeafad	-0.029136503
120	0xbcbd45dc	-0.0231046
121	0x3d1583fb	0.03650282
122	0xbc9afd0d	-0.018919492
123	0x3bc8a4dc	0.0061231684
124	0x3cd6ba58	0.026211902
125	0xbca855f3	-0.020548796
126	0x3d09e832	0.033668704
127	0x3c8de7e5	0.01732249
128	0xbccdf0d9	-0.02513926
129	0xbcc4fd61	-0.024046602
130	0xbccb69f2	-0.024830792
131	0x3c0cec5c	0.008601274
132	0x3d4c5ef5	0.049895246
133	0x3d155173	0.03645463
134	0x3c3a268a	0.0113617275
135	0x3c365b15	0.011130114
136	0x3cab3bbc	0.020902507
137	0xbcb408c7	-0.021976842
138	0x3d21936f	0.039447244
139	0x3ce4899e	0.027897652
140	0xba6190ff	-0.0008604675
141	0xbc93255c	-0.01796215
142	0x3d0d2f1e	0.034468763
143	0xba9114e9	-0.0011068854
144	0x39a01bbf	0.0003053825
145	0xbd00b12d	-0.031418968
146	0xbcca4308	-0.024690166
147	0xbc81fcc3	-0.015867596
148	0xbd150a61	-0.03638685
149	0x3ca06fca	0.019584555
150	0xbb92acdc	-0.004476173
151	0x3d2ae75d	0.04172455
152	0x3d3091db	0.04310785
153	0x3b7a8f25	0.0038232293
154	0x3d1c0fd8	0.038101047
155	0xba1418e0	-0.00056494586
156	0x3cbba18b	0.022904178
157	0x3d635261	0.055498485
158	0x3d0a0129	0.033692513
159	0x3c8d3bbb	0.017240396
160	0xbd17a659	-0.037023876
161	0xbcd5a528	-0.02607973
162	0xbc730b1f	-0.014834194
163	0x3d1dd855	0.03853639
164	0x3d11159b	0.035420995
165	0xbd264dbe	-0.040601484
166	0x3ca76985	0.020436058
167	0xbd00ed2d	-0.03147619
168	0xbadd3278	-0.0016876003
169	0xbc1a02e2	-0.009400101
170	0x3c888e33	0.016669368
171	0x3caa0b84	0.020757444
172	0xbcb0ae6c	-0.021567546
173	0x3cd10fde	0.025520261
174	0x3b247b63	0.0025097958
175	0xbccb2685	-0.024798641
176	0x3b49df55	0.0030803282
177	0xbd0e45f1	-0.03473467
178	0x3bcc0453	0.0062261014
179	0x3c3886b7	0.011262587
180	0x3d21b686	0.03948071
181	0x3d387b95	0.045039732
182	0x3b74047b	0.0037234116
183	0xbcc1904b	-0.023628375
184	0x3bc6e04d	0.006069219
185	0x3ba28c76	0.004960592
186	0xba8da1e4	-0.0010805693
187	0x3d2401f5	0.04004093
188	0x3d2d0431	0.042240325
189	0xbca21faa	-0.01979049
190	0xbcf56889	-0.029957073
191	0x3d1444c6	0.0361984
192	0x3d1a38a7	0.037651684
193	0xba6cf44b	-0.0009039088
194	0x3c19e868	0.009393789
195	0xbc80a616	-0.015704196
196	0x3c997313	0.01873163
197	0xbb7b507b	-0.003834753
198	0x3c0c47bf	0.0085620275
199	0xbccc7a69	-0.024960713
200	0xbc81414e	-0.01577821
201	0x3ca2b597	0.01986198
202	0x3c6b6cd0	0.014369205
203	0xbbc98fb0	-0.006151162
204	0x3c4a6f2c	0.012355607
205	0xbc96fd46	-0.018431317
206	0x3c5326e6	0.012887692
207	0x3b5df1b2	0.0033865985
208	0x3d1fe4ed	0.03903668
209	0x3d1d9da7	0.038480427
210	0xbc8c737a	-0.017144907
211	0xbbf58453	-0.007492581
212	0xbc37aecb	-0.0112111075
213	0xbc264061	-0.010147185
214	0xbcc04d2d	-0.0234743
215	0xbc91cc94	-0.017797746
216	0x3bc31c8b	0.0059543303
217	0x3b48223f	0.003053799
218	0xbcae0570	-0.021242827
219	0xbb5ed91d	-0.0034003921
220	0xbd15c41d	-0.03656398
221	0x3cee27c2	0.029071692
222	0xbbd85465	-0.0066018575
223	0x3cc7116f	0.024300305
224	0xbcb104f3	-0.021608805
225	0x3cc5b97a	0.024136294
226	0xbb8dfbdd	-0.004333003
227	0x3cdd5b55	0.02702109
228	0x3cade756	0.021228474
229	0x3cffbe57	0.03121869
230	0x3c804c76	0.01566146
231	0xbb79f3b8	-0.0038139652
232	0x3b548cbf	0.0032432524
233	0x3c96811b	0.01837211
234	0x3c92eb83	0.017934566
235	0x3cdd714e	0.027031567
236	0x3d06c2a5	0.03290047
237	0xbc8c9e15	-0.017165223
238	0xbbda95ac	-0.0066706743
239	0xbc40eb37	-0.01177483
240	0xbcd5c674	-0.026095606
241	0x3a57fb23	0.00082390214
242	0xbcf34f0a	-0.029700775
243	0x3c467fb0	0.012115404
244	0x3c2d3460	0.010571569
245	0xbc2f7b6e	-0.01071058
246	0xbb3197a5	-0.0027098444
247	0xbca10073	-0.019653535
248	0x3c34971e	0.011022357
249	0xbcf35c5b	-0.029707124
250	0xbd00e958	-0.031472534
251	0xbc90d86b	-0.017681321
252	0xbd163ebb	-0.03668092
253	0xbc6ae4c6	-0.01433677
254	0xbd0a4d30	-0.033765018
255	0x3cf488c1	0.029850366

bias f4 [64]
0	0xbc58449f	-0.013199954
1	0xbd658bbc	-0.056041464
2	0x3c18b625	0.00932077
3	0xbcd60ec8	-0.026130095
4	0xbcf5aa7e	-0.029988524
5	0xbc992900	-0.018696308
6	0xbcdb125d	-0.026742155
7	0xbce13501	-0.027491095
8	0xbd283e6d	-0.04107516
9	0xbc581b25	-0.0131900655
10	0xbcad4318	-0.021150157
11	0xbb29e961	-0.0025926458
12	0xbc460865	-0.012086962
13	0xba331d00	-0.00068326294
14	0xbaed4df2	-0.0018104895
15	0xbae0bdc7	-0.0017146402
16	0xbcb0f300	-0.021600246
17	0xbd133426	-0.035938405
18	0xbd083981	-0.033257965
19	0xbc905713	-0.017619645
20	0xbbef71d2	-0.0073072696
21	0xbd1e6b56	-0.038676582
22	0x3bb97ee8	0.0056608804
23	0xbd197ea8	-0.037474304
24	0x3bfa87aa	0.007645567
25	0x3c64c9c0	0.013964117
26	0x3d392c77	0.04520842
27	0xbc1e9772	-0.009679662
28	0xbd2f3a2b	-0.042780083
29	0x3bf3c8d3	0.0074397116
30	0x3cf457f1	0.02982709
31	0xbd1d310d	-0.038376857
32	0xbd379126	-0.04481616
33	0x39c05f14	0.00036691932
34	0x3c70b5c1	0.014691771
35	0x3c4a97f7	0.012365333
36	0xbd033eef	-0.03204244
37	0xbb3d02be	-0.0028840746
38	0x3b6b75a5	0.0035928276
39	0x3bc31cab	0.005954345
40	0x3ca89455	0.020578543
41	0xbb83139a	-0.0040001394
42	0xbb25b154	-0.0025282698
43	0x3d09cbfc	0.0336418
44	0xbd0be4ae	-0.034153633
45	0xb9227ded	-0.00015496435
46	0xbc60a1dc	-0.013710465
47	0xba285141	-0.0006420799
48	0xbcb055db	-0.021525314
49	0xbad9df0e	-0.0016622262
50	0xbd60f34e	-0.054919533
51	0x3a6adfb9	0.0008959729
52	0x3a15cb27	0.0005714171
53	0xbc2c46d4	-0.010514934
54	0x3cb75f09	0.022384183
55	0xbcac16d0	-0.021006972
56	0x3bcb0b70	0.006196432
57	0xbc47a771	-0.012185917
58	0xbd10027b	-0.035158616
59	0xbd3c3fac	-0.04595916
60	0xbc26739f	-0.010159402
61	0x3c7fa94c	0.015604328
62	0x3c6c732f	0.014431759
63	0xbcfc9b5f	-0.030835805

weight f4 [64, 1024]
0	0xbc2a4858	-0.010393225
1	0xbc4dcfde	-0.012561766
2	0xbb124ab4	-0.0022322359
3	0x3c8710c2	0.016487483
4	0x3cb612c9	0.022225754
5	0x3cc3e903	0.02391482
6	0xbaeae4dd	-0.001792099
7	0x3b567608	0.003272416
8	0x3cb465a7	0.022021128
9	0x3cc8db68	0.024518684
10	0xbd07285c	-0.032997474
11	0xbb11828d	-0.0022203058
12	0x3cccfff0	0.025024384
13	0xbb843c3d	-0.0040355013
14	0x3a50a0e2	0.0007958544
15	0x3cab8691	0.02093819
16	0xbcb15372	-0.021646235
17	0x3ac46818	0.0014984636
18	0x3c83d77b	0.01609396
19	0x3c713926	0.014723098
20	0xbc8f4d40	-0.01749289
21	0x3b06c29f	0.002056278
22	0x3ca76d6c	0.020437919
23	0x3cb7d65e	0.022441085
24	0x3c18ef86	0.009334451
25	0xbc2222a1	-0.0098959515
26	0xbccec66b	-0.025241097
27	0xbce6e4ae	-0.028185215
28	0x3cda766f	0.026667802
29	0xbbf66a2a	-0.00751998
30	0x3bd6c669	0.006554414
31	0xbca79d6c	-0.020460807
32	0xbcbe6891	-0.02324322
33	0x3c428f0d	0.011874926
34	0xbc880496	-0.01660375
35	0xbc9f3c82	-0.019438032
36	0xbb9f8e1c	-0.0048692357
37	0xbc89d1ea	-0.016823728
38	0xbbecb6a4	-0.007223921
39	0xbd0199c7	-0.031640794
40	0x3c998ee6	0.018744897
41	0xbc1829b8	-0.00928729
42	0xbcb1253c	-0.0216242
43	0x3bb427ee	0.005497924
44	0x3bfacec2	0.007654042
45	0x3ce47570	0.02788803
46	0x3c4d623f	0.012535631
47	0xbc61466f	-0.013749703
48	0x3c825655	0.015910307
49	0x3a94bdc1	0.0011348055
50	0xbca16016	-0.019699138
51	0x3cdc13b1	0.026864858
52	0x3c43cc76	0.011950603
53	0xbc032a15	-0.008005639
54	0x3d2ae852	0.041725464
55	0xbc84cd01	-0.016211035
56	0xbc49e4d2	-0.012322621
57	0xbc621874	-0.013799775
58	0x3cd54a28	0.026036337
59	0x3cbeedd0	0.023306757
60	0x3c99f875	0.018795231
61	0xbb56f13a	-0.003279759
62	0x3d01a9df	0.031656142
63	0xbafc1038	-0.0019230908
64	0xbcb2b87b	-0.021816483
65	0x3c730489	0.014832624
66	0x39ce4818	0.00039345096
67	0xbcd7fe1d	-0.026366288
68	0xbc427c11	-0.0118704
69	0xbc84c62f	-0.016207783
70	0xbd2803dd	-0.04101931
71	0xbcfa8ad4	-0.030583777
72	0x3d1cff4a	0.0383294
73	0xbccdf596	-0.025141519
74	0x3c705360	0.014668316
75	0x3cb50823	0.022098606
76	0xbd096739	-0.033545706
77	0xbba645f5	-0.0050742575
78	0x3c8b3cd7	0.016996784
79	0x3bf1901f	0.007371917
80	0xbb7c004e	-0.003845233
81	0x3c6e6c24	0.01455215
82	0xbca2514d	-0.019814158
83	0x3ba8a645	0.005146774
84	0xbd2a554b	-0.041585248
85	0xbcdefd0c	-0.027220272
86	0xbc663113	-0.014049786
87	0x3ca75300	0.02042532
88	0xba818ece	-0.0009884478
89	0xbc99746d	-0.018732274
90	0xbd082bb6	-0.03324481
91	0x3c042042	0.0080643315
92	0xbd042945	-0.03226592
93	0xbd05ba8b	-0.032648604
94	0x3cb1c939	0.021702396
95	0xbba81270	-0.005129151
96	0x3cdae981	0.026722671
97	0x3ca8a8d9	0.020588325
98	0xbc13e4f5	-0.009026756
99	0x3d075eb1	0.03304929
100	0xbcdbaa11	-0.026814492
101	0xbc1a8d96	-0.009433171
102	0x3cb3a940	0.02193129
103	0xbcf37509	-0.029718893
104	0x3c7e8111	0.0155337015
105	0x3cec2359	0.028825449
106	0xbb62f4c0	-0.0034630746
107	0xbc4563ec	-0.012047749
108	0xbcdb643e	-0.026781198
109	0xbd05aeff	-0.032637592
110	0x3acf631f	0.0015822387
111	0xbcad53d5	-0.021158138
112	0x3c75c4ab	0.015000503
113	0x3bc82bf8	0.006108757
114	0xbbde4048	-0.0067825653
115	0x3d06ffa0	0.032958627
116	0x3ce6d57e	0.028177973
117	0x3c61837f	0.013764261
118	0xbcabe3ac	-0.020982586
119	0x3ce66218	0.028122947
120	0x3b1b4f8f	0.0023698544
121	0xbc713798	-0.014722727
122	0x3a87060e	0.0010301487
123	0xbca06dba	-0.019583572
124	0x3acc5e07	0.0015591987
125	0x3c765880	0.0150357485
126	0xbc9946ea	-0.018710572
127	0x3ca0d247	0.019631518
128	0xbbbfcec5	-0.0058535063
129	0xbc61940c	-0.013768207
130	0xbce0a2a7	-0.027421309
131	0xbcd7fc44	-0.026365407
132	0x3c08f348	0.008358784
133	0xbaab7c0a	-0.0013083231
134	0xbb8cd2d0	-0.0042975917
135	0x3cc7cca2	0.024389569
136	0x3c4c18b9	0.012457066
137	0x3b900259	0.004394811
138	0x3c6496e5	0.013951992
139	0x3aee6f03	0.0018191043
140	0x3a77cccf	0.0009452821
141	0x3c9589d0	0.01825419
142	0xbc0d4546	-0.008622473
143	0x3d04caa9	0.032419834
144	0x3c79be0e	0.0152430665
145	0x3bf37492	0.0074296677
146	0xbd02180d	-0.031761218
147	0xbceffa06	-0.029294025
148	0x3c8a7937	0.016903503
149	0x3cd1a855	0.025592962
150	0x3cc76556	0.024340313
151	0xbca71be4	-0.020399041
152	0x3cbfc9a4	0.02341158
153	0xbc8571d5	-0.01628963
154	0xbb9ce787	-0.0047883424
155	0xbbae83db	-0.005325777
156	0x3aa8010f	0.0012817698
157	0x3c6900a5	0.014221345
158	0x3b4bcdd9	0.0031098037
159	0x3cdb9ffc	0.026809685
160	0xbb42ea95	-0.0029741873
161	0xbc54a2f5	-0.012978305
162	0xbb80b321	-0.003927604
163	0x3ce90227	0.02844341
164	0xbcee547a	-0.029093016
165	0x3c830304	0.015992649
166	0xbc96cade	-0.018407281
167	0x3c6cccd2	0.01445313
168	0xbc342f61	-0.010997624
169	0xbd0119c8	-0.031518728
170	0x3c12447e	0.008927463
171	0x3c2d1d05	0.010566001
172	0x3b887b49	0.0041650874
173	0xbc889b54	-0.016675629
174	0xbcccbb5d	-0.024991686
175	0x3cffeb97	0.031240268
176	0xbca3a671	-0.019976826
177	0x3b7dfab6	0.0038754172
178	0x3ccd4289	0.02505614
179	0xbcb878f1	-0.022518607
180	0xbc98d8ad	-0.018658007
181	0xbc9c94aa	-0.019113857
182	0x3d0afdf3	0.03393359
183	0xbcc4f57e	-0.024042841
184	0x3d025da8	0.0318276
185	0x3d04bd30	0.032406986
186	0x3c91efc9	0.017814534
187	0xbbcd2601	-0.006260634
188	0xbce3cd54	-0.027807869
189	0xbb25e450	-0.0025313087
190	0x3cbf3e31	0.023345085
191	0xbcd15856	-0.025554817
192	0x3c9af222	0.018914286
193	0x3c5beab4	0.013422657
194	0xbcee1109	-0.029060857
195	0x3cf63f29	0.030059414
196	0xbd0d2d27	-0.03446689
197	0xbb40043a	-0.0029299394
198	0x3c2bb54c	0.010480236
199	0x3c649e82	0.013953807
200	0x3c941cbb	0.018080106
201	0x3cd055b0	0.025431484
202	0xbbec01d1	-0.007202365
203	0xbc698f68	-0.014255382
204	0x3cd3dd95	0.025862494
205	0x3cbb92ba	0.022897113
206	0xba14d787	-0.0005677868
207	0xbcb64a44	-0.02225221
208	0x3c27b375	0.010235657
209	0xbc1f3b24	-0.00971869
210	0xbb32f7b8	-0.0027308296
211	0xbc358a4c	-0.011080336
212	0x3c0e6614	0.0086913295
213	0xbc0fab8e	-0.008768929
214	0x3c67401f	0.014114409
215	0xbad94f31	-0.0016579387
216	0xbcbfe350	-0.02342382
217	0x3d21b3aa	0.03947798
218	0xbc3d0150	-0.011535957
219	0x3cdfef0a	0.027335662
220	0x399b2ff6	0.00029599637
221	0xbc184fda	-0.009296382
222	0x3cf374c7	0.02971877
223	0xbcc4ef27	-0.024039818
224	0xbbefe93d	-0.0073215053
225	0xbc511a4e	-0.012762619
226	0x3d019522	0.031636365
227	0x3b9a73c4	0.0047135074
228	0xbd0d4c82	-0.03449679
229	0xbc3e8f69	-0.011630871
230	0x3c6891ea	0.014194945
231	0x3c574969	0.013140061
232	0xbc4a3c1a	-0.012343431
233	0xbc51c966	-0.012804365
234	0xbca24166	-0.019806575
235	0xbcdb611e	-0.026779708
236	0xba78dea6	-0.00094936264
237	0x3cc3caf1	0.023900481
238	0xbcc0c09c	-0.023529343
239	0xbccc63fc	-0.02495002
240	0xbc96dbe2	-0.018415395
241	0xbcae46be	-0.021273967
242	0xbc8cce0f	-0.0171881
243	0x3cf8c3e7	0.030366851
244	0x370097d5	7.664746e-06
245	0x3c93eed9	0.018058227
246	0x3ca419e9	0.020031886
247	0xbc8d44de	-0.017244752
248	0x3cb85663	0.02250213
249	0x3d230b4d	0.0398057
250	0xbc86632a	-0.016404707
251	0xbceac86f	-0.028660027
252	0xbc349507	-0.011021859
253	0xbbb85d9b	-0.005626393
254	0x3cc2710e	0.02373555
255	0x3d03e064	0.032196417

bias f4 [64]
0	0xbcac0f1c	-0.021003298
1	0xbd0d046a	-0.034428038
2	0xbafe9d98	-0.0019425629
3	0x3c7a18e3	0.0152647225
4	0xbce969cb	-0.028492829
5	0x3b71a553	0.0036872223
6	0xbcb72334	-0.022355653
7	0xbb5ccb97	-0.0033690685
8	0x3cd13d7c	0.025542013
9	0xbc2b8c63	-0.0104704825
10	0xbba0fe27	-0.00491311
11	0xbb367a64	-0.0027843947
12	0x3cc6516f	0.024208752
13	0xbd1ec36d	-0.03876059
14	0xbcf549b7	-0.029942377
15	0x3c4c63c1	0.012474955
16	0x3c6c5be2	0.014426203
17	0xbbbea8e7	-0.0058184746
18	0x3c7fcf2e	0.01561336
19	0x3c8475c0	0.016169429
20	0xbcbdc97c	-0.023167364
21	0xbb142235	-0.0022603397
22	0x3c374d35	0.011187841
23	0x3d2dc99a	0.04242859
24	0xbcbda149	-0.023148196
25	0x3ca897a2	0.020580117
26	0xbcd46566	-0.025927257
27	0xbc518fa8	-0.012790598
28	0xbcd3f8b2	-0.025875423
29	0xbcc670f1	-0.024223777
30	0xbd271f1a	-0.040801145
31	0x3c891ce6	0.016737413
32	0x3c4bc402	0.012436869
33	0x3c9214b4	0.017832138
34	0xbb238ba3	-0.0024955056
35	0x3c6621ac	0.014046114
36	0xbc43bf82	-0.0119475145
37	0xbc4812fa	-0.012211556
38	0xbd6777df	-0.056510802
39	0x3c1b7e15	0.0094905095
40	0x3cb0896b	0.021549901
41	0x3c47a04d	0.012184215
42	0xbc09e3eb	-0.008416156
43	0x3c5ad7af	0.013357087
44	0x3cf5ce06	0.030005466
45	0xbc29ae3e	-0.010356484
46	0xbc0b605a	-0.008506859
47	0x3b47e401	0.003050089
48	0xbc6b71d1	-0.014370398
49	0x3c85c083	0.016327148
50	0x3be756b6	0.0070598973
51	0xbb642c1a	-0.0034816326
52	0x3ca23c40	0.01980412
53	0xbcea40f8	-0.028595433
54	0xbd125c8d	-0.035732795
55	0xbc720bca	-0.014773319
56	0x3af55e56	0.0018720131
57	0x3b3443fd	0.0027506344
58	0x3d2f19a4	0.042749062
59	0xbc3407f0	-0.010988221
60	0xbb9b0029	-0.0047302437
61	0xbb426c14	-0.002966647
62	0x3c5f7ec4	0.013641063
63	0xbbd35483	-0.0064492836

weight f4 [10, 64]
0	0xbcc09f90	-0.023513585
1	0x3d146870	0.03623241
2	0xbc155015	-0.009113331
3	0x3dbfa30f	0.09357273
4	0xbd1db541	-0.038502935
5	0x3e08e8f1	0.1337011
6	0xbce9749a	-0.028497983
7	0x3d72f92e	0.059319668
8	0xbdcde222	-0.10052897
9	0x3da6eefa	0.0815105
10	0x3bdb0a2d	0.0066845627
11	0xbd1fcdca	-0.039014615
12	0xbd13b38c	-0.0360599
13	0x3b94433d	0.004524617
14	0x3dedc3f3	0.1160964
15	0x3de61a19	0.112354465
16	0xbe1cb238	-0.1530236
17	0x3d4b7fb6	0.04968234
18	0xbdf3b2e7	-0.11899357
19	0xbda765d9	-0.08173723
20	0xbe02a902	-0.12759784
21	0xbd2e31ee	-0.042528085
22	0x3cfc9b62	0.030835811
23	0x3cb7e57b	0.022448292
24	0x3d69c4b6	0.057072364
25	0x3dfc8555	0.123301186
26	0xbe0b8ffe	-0.13629147
27	0x3ddf43ae	0.10901581
28	0xbce7851b	-0.028261712
29	0x3de6d8a1	0.112717874
30	0x3e10e2c8	0.1414901
31	0x3da4324d	0.080174066
32	0xbd31e24d	-0.043428708
33	0x3d535818	0.051597685
34	0xbd57b87b	-0.05266617
35	0x3d9baeaa	0.07601674
36	0xbb8c6a1e	-0.004285111
37	0xbdccadb7	-0.09994071
38	0x3e138999	0.14407958
39	0xbd471fde	-0.048614375
40	0xbd09367a	-0.03349922
41	0xbc2a4140	-0.010391533
42	0x3df239cd	0.11827431
43	0xbded523d	-0.11587951
44	0xbda6af78	-0.08138937
45	0xbde3b8e3	-0.11119249
46	0xbdfd7c82	-0.123772636
47	0xbcc56652	-0.024096642
48	0x3ddd12d0	0.10794604
49	0xba922348	-0.0011149431
50	0xbd85c43e	-0.06531571
51	0xbd71e254	-0.059053734
52	0x3ca0f3b1	0.019647451
53	0xbdf7143d	-0.12064407
54	0xbb1d7a19	-0.0024029075
55	0x3d993953	0.07481637
56	0x3e0ec762	0.13943246
57	0xbdc05e1c	-0.0939295
58	0xbe0edc76	-0.13951287
59	0x3dd618d0	0.10453951
60	0xbdff0e11	-0.12453855
61	0xbbe1f1fc	-0.006895302
62	0xbe0f8f0a	-0.14019409
63	0x3d3685b5	0.044561107
64	0xbdc1806e	-0.09448324
65	0x3e235853	0.15951662
66	0x3e254797	0.1614059
67	0x3d8cc48d	0.068734266
68	0x3d936f46	0.07198958
69	0xbe0d8556	-0.13820395
70	0xbdd0854a	-0.10181673
71	0x3d916f8d	0.07101355
72	0x3ce68f3c	0.028144471
73	0xbe11590f	-0.1419413
74	0xbb02f1c8	-0.0019980539
75	0x3c3ae80f	0.011407866
76	0xbe3aa73d	-0.18227859
77	0xbd2ed382	-0.04268218
78	0xbe1c293f	-0.15250109
79	0x3d937476	0.071999475
80	0xbdc70012	-0.0971681
81	0xbdf04000	-0.11730957
82	0xbd6faddc	-0.058515415
83	0x3b822666	0.0039718626
84	0xbd8dba14	-0.06920257
85	0xbe059b09	-0.13047422
86	0xbddabfe4	-0.106811315
87	0x3d78f2d5	0.060778458
88	0xbe08012e	-0.132817
89	0xbe1b9e35	-0.1519707
90	0x3a97144f	0.0011526438
91	0x3e06d336	0.13166508
92	0x3da21653	0.07914414
93	0x3e43aeb4	0.19109613
94	0xbd60832f	-0.054812606
95	0x3be96e50	0.007123746
96	0x3dd38ab0	0.10329187
97	0x3c75b870	0.014997587
98	0xbe449510	-0.19197488
99	0xbdc387c9	-0.09547383
100	0xbd4fdfc6	-0.050750516
101	0xbd728b92	-0.059215136
102	0xbcf6b9dc	-0.030117922
103	0x3e32f592	0.1747649
104	0x3dd4e8b4	0.10395947
105	0x3b8f035a	0.004364413
106	0xbe2095b8	-0.15682113
107	0x3dae80cb	0.08520659
108	0xbd8e5114	-0.06949058
109	0xbda25cae	-0.079278335
110	0x384bc676	4.8583803e-05
111	0x3b2b0538	0.002609564
112	0xbd5c7e0a	-0.053831138
113	0x3da5564c	0.080731004
114	0x3e117a79	0.14206876
115	0xbe075f4a	-0.13219944
116	0xbdd8a356	-0.10578029
117	0xbd80fd25	-0.062982835
118	0x3e2484ec	0.1606633
119	0xbda4e2c2	-0.08051063
120	0xbe0758f9	-0.13217534
121	0x3da1f3b2	0.07907809
122	0xbd5774f2	-0.052601762
123	0xbb814f01	-0.0039461856
124	0x3dbf5516	0.09342401
125	0xbcb65bb6	-0.022260528
126	0xbe0d6e1e	-0.13811538
127	0x3e033a51	0.12815215
128	0x3e08c77e	0.1335735
129	0xbd70439e	-0.058658235
130	0xbd3d8ebb	-0.046278697
131	0x3b3205e1	0.0027164149
132	0x3d9ad486	0.07560067
133	0xbd890e2f	-0.066921584
134	0xbc7d023c	-0.015442427
135	0xbdbf5b42	-0.09343578
136	0x3e1c1547	0.15242492
137	0x3dabfa71	0.08397377
138	0x3de69748	0.11259323
139	0x3da78f65	0.08181647
140	0x3b414cd8	0.0029495265
141	0xbe0c4bc7	-0.13700782
142	0xbc963b07	-0.018338693
143	0x3c9b40eb	0.018951854
144	0x3deec9bd	0.11659572
145	0xbd8c885c	-0.06861946
146	0xbdcff71a	-0.10154553
147	0xbcfdc21c	-0.030976348
148	0xbd42e9fc	-0.047586426
149	0x3da9d239	0.0829205
150	0xbdb019ce	-0.08598672
151	0xbce17893	-0.027523315
152	0xbd70bf89	-0.058776412
153	0x3e13e7c2	0.14443877
154	0xbe0598de	-0.13046595
155	0xbdd4674f	-0.10371267
156	0x3d9e3033	0.07724037
157	0xbe016ce9	-0.12639202
158	0xbdf28810	-0.11842358
159	0xbdb72120	-0.08941865
160	0x3930f37e	0.00016875376
161	0xbd2db47d	-0.042408455
162	0xbdb7cba9	-0.08974392
163	0xbd2a67fc	-0.041603073
164	0xbd8febdb	-0.07027408
165	0x3dfc7154	0.12326303
166	0xbc60e304	-0.013726
167	0xbe353402	-0.1769562
168	0xbda266e6	-0.079297826
169	0xbd0047de	-0.031318538
170	0x3e0c07e1	0.1367488
171	0x3b9fc922	0.004876272
172	0xbdc3c204	-0.0955849
173	0x3dc75c4c	0.09734401
174	0x3dda0184	0.1064482
175	0xbe0ad0b6	-0.1355618
176	0x3de78406	0.11304478
177	0xbae641ff	-0.0017567276
178	0xbdc0f0b0	-0.094209075
179	0x3dbfc864	0.09364393
180	0xbd12ebe2	-0.035869487
181	0xbd6c5ac7	-0.05770376
182	0x3e188453	0.14894228
183	0xbd1d4ea9	-0.038405094
184	0x3e4100a4	0.188479
185	0x3e071178	0.13190258
186	0x3d86aa41	0.06575442
187	0x3c8b477f	0.017001865
188	0xbe29aebd	-0.16570564
189	0x3dbc8f00	0.092069626
190	0xbdce1e00	-0.10064316
191	0xbd29070c	-0.041266486
192	0x3e006523	0.1253858
193	0x3ca1c103	0.019745355
194	0x3ca84e1a	0.020545054
195	0x3d45bfaf	0.048278507
196	0x3c4c6ec6	0.012477582
197	0xbe06ea94	-0.13175422
198	0x3deae8da	0.11470194
199	0xbd80e9b3	-0.062945746
200	0xbd16a7e5	-0.03678121
201	0xbdc4709e	-0.095917925
202	0x3e04bbc4	0.12962252
203	0xbc8c6306	-0.017137062
204	0x3ca13157	0.019676847
205	0x3d091bce	0.033473782
206	0xbd4179e1	-0.047235373
207	0xbe25c6f2	-0.16189173
208	0x3df2b77f	0.11851405
209	0xbd25e285	-0.04049923
210	0x3d526445	0.051365156
211	0x3d4ad2c3	0.049517404
212	0x3db14b34	0.08656922
213	0x3e10bbff	0.14134215
214	0xbb9195cb	-0.0044429055
215	0x3df8a87a	0.12141509
216	0x3d97a2ed	0.074041225
217	0xbdc62c6b	-0.09676441
218	0x3cde107e	0.027107473
219	0xbdfc2ed0	-0.12313616
220	0xbdf9e950	-0.12202704
221	0x3c008be8	0.007845856
222	0xbe249501	-0.16072465
223	0xbe1b0c1b	-0.15141337
224	0x3db80446	0.0898519
225	0x3e059708	0.13045895
226	0xbd821fd6	-0.063537285
227	0xbe1c146c	-0.15242165
228	0x3dc33de6	0.095332906
229	0x3d569625	0.052389283
230	0x3cf4b4c9	0.029871361
231	0x3db3397f	0.08751201
232	0xbd2b1398	-0.041766733
233	0x3d8c185b	0.06840583
234	0xbd321731	-0.04347915
235	0x3d4cd38b	0.05000643
236	0x3c909a4f	0.017651705
237	0x3da52fc6	0.08065753
238	0x3d6b9d9b	0.05752335
239	0xbc98dcf0	-0.018660039
240	0xbd8360c5	-0.06414942
241	0x3ddf18ac	0.10893378
242	0x390087e0	0.00012257649
243	0x3d3ecc1d	0.046581376
244	0xbcfc7d36	-0.030821424
245	0x3db4d70e	0.08830081
246	0xbd8c9c55	-0.068657555
247	0x3e309bdf	0.1724696
248	0xbd26adee	-0.040693216
249	0x3d64814b	0.055787366
250	0x3d9efcc7	0.07763057
251	0x3d722214	0.05911453
252	0xbd5948b6	-0.05304786
253	0xbd079ef2	-0.033110566
254	0x3ce45213	0.027871167
255	0x3cad10d3	0.021126186

bias f4 [10]
0	0xbdbbbe07	-0.09167104
1	0xbd8faede	-0.07015775
2	0xbd57bd86	-0.052670978
3	0xbd3e406d	-0.04644816
4	0x3d88de3d	0.066830136
5	0xbd91e43d	-0.07123611
6	0xbd4b3c6d	-0.049618173
7	0x3d3bd709	0.04585937
8	0xbd870e2b	-0.06594499
9	0xbd9ec224	-0.07751873
