project01/first_train/snn_9.pth (torch, 587335 bytes, 10 tensors)

weight f4 [32, 3, 5, 5]
00000000: 0df0 a1bd db71 28be 6e26 69be 7587 24be
00000010: 08c8 973c f738 f5bd 1f99 8bbd f492 00be
00000020: 7dd3 313d 4cae 8fbd f940 ac3d 19b6 eb3d
00000030: a00f 8f3d f038 44bd 874b e0bd f72c 51bd
00000040: 988f 313d 625d 4ebc cea8 a93d c966 eb3d
00000050: 33ec 0e3e cfb6 dd3c ef5e 183e a1e4 803d
00000060: 8fab a63d 2dce 11bd 7c17 d2bd f004 2fbe
00000070: 1b11 20be c3b1 8039 3142 99bc b7f6 2dbc
00000080: a398 1b3d 3fb2 a7bc 01a4 493d af5f 0f3e
00000090: 2a3c 5b3d 99db a33d 67fc 41bd c8b5 0e3b
000000a0: 1cd9 9a3d 9936 ff3d cd7c fe3d 91ef 0d3e
000000b0: e14d 143d 697a 123d 6b78 fd3d 7e51 e9bc
000000c0: 250e 06bd 77cc 84bd 1d2b 73bd 590e 51bc
000000d0: 7a79 633d 7096 0abe 08cd 59bc 53fb 5fbc
000000e0: be69 923d bd69 e1bd dddb 963c bcd0 e3bb
000000f0: 37c1 053e 2652 acbc d27e 61bd 07c6 d8bd
00000100: 82c4 463d babb 133e 2cf7 843d 5bbe 2f3e
00000110: 86cd c53b 30cd 48bd 36af 113e 26fc 803d
00000120: 60f6 313c 85fa a73c f839 8e3b de75 91bd
00000130: e6a3 063e 66c9 bbbd 39b1 073d 149b db3b
00000140: f38b 263d f35d 02bd 5d03 dc3c 8a81 e3bd
00000150: 7123 973c d899 263e 1304 d73c 3e95 0fbe
00000160: 6c79 57be 50b0 a03c 9a9f 013e 6d83 40bd
00000170: d599 24bd c157 f1bd 3608 473e eb45 993d
00000180: 9a17 c63a bb48 d1bd 0dcb e8bc 98f6 2f3e
00000190: 997b 083e 6523 d0bc 3c31 2b3d 2420 9dbb
000001a0: 2860 073d 62e4 cb3d a0ac a53d 4789 743d
000001b0: 0dfa 4e3c 9758 a63d 88ea b93d 2bca 833d
000001c0: 787c 8abd 3e67 38be ef4e 2e3e 53d3 fd3d
000001d0: c943 b1bd b8b0 27be c253 a13b 7ab6 4a3e
000001e0: f411 96bd deb2 b7bc b827 a43b d272 083e
000001f0: 75eb 963d b702 fbbd 7bce c63c b4d5 71bd
00000200: 40c4 cebd 22dc 7ebd eb86 84bd 0ab8 4b3d
00000210: 5679 0cbe dce7 11be 7142 28bc 7b14 da3d
00000220: 7181 ab3d b8b1 58be 5f90 40be 01b9 023d
00000230: b791 c43b 0c5f f1bd 1447 35be cc20 b0bd
00000240: d077 1b3e 0239 e5bd a6f0 28be 697d 5cbe
00000250: 91a0 3b3b e874 123e 948c c0bd 0540 e5bd
00000260: 0313 1abd a028 3cbd 91fd 09be 3dbb 0fbe
00000270: 0421 98bd 8538 1bbd ff0f d5bd 6b9f 653c
00000280: 7659 eabc 8f84 163e 696e 033e 2698 7ebd
00000290: 725b d83b b349 173e 1ffc 233e 4854 ab3d
000002a0: 2e95 ec3d 09a7 e7bd 67a3 f7bd f445 a7bd
000002b0: a2bd c2bd 0d3f 29bd f171 a4bc 17b6 013e
000002c0: ca73 953d a479 c33d 9d7c b03d ce9b 2c3c
000002d0: 27c7 0ebd 9ab4 c8bd 0352 a9bd af7d 333d
000002e0: a202 6abd 57ce b63d 50df 1b3e 093a c73d
000002f0: b39e 38bc b61e b03c 95b3 f23d f741 2a3e
00000300: 5523 d53b b00e 233e 2d08 cb3d 65e2 5bbd
00000310: 1b8b dbbd 22a0 1abe b973 d2bd 0baa 3c37
00000320: 5f94 913d ba38 93bd af24 e9bc 805a dcbd
00000330: afd2 d13d 68d0 acbd 79d7 33be b627 1fbe
00000340: b29d abbc feba 07be 145a e23d baca b83d
00000350: eac2 133e a1e5 113d ff9f c93d 8f9c 9a3d
00000360: 9e41 bcbc b96b c83d e7ea a43d eb6a 653c
00000370: 5890 08be 5489 c8bd 2deb 81bc 487f 90bc
00000380: f7bb 193d c55a d6bd 5700 283d 8113 29bd
00000390: ccbf 673d 9008 8dbb 16a0 1c3c 94ef 50bc
000003a0: 0f5c 8cbd f9f5 293d ca22 b33d 1c57 ad3c
000003b0: d15d 3bbe 7e96 ad3d c7a4 593d 272b aabd
000003c0: 514b 4d3c 8c12 c1bd 48ae 833c 97e8 cb3d
000003d0: 876c ef3d bfe6 27bd faae 8a3c 1754 943d
000003e0: 5411 c03d 982d 3b3d d572 88bc 4752 113d
000003f0: 4315 76bd 9890 bdbc 6bf9 c83d 07c8 4f3d
-0.07907114 -0.16449682 -0.22768566 -0.16067298 0.018528 -0.11973756 -0.06816315 -0.12556058
0.04341458 -0.07015666 0.0841083 0.11509342 0.06985402 -0.047905862 -0.10951906 -0.051068272
0.043349832 -0.012595506 0.0828415 0.11494214 0.1395729 0.027064709 0.14879964 0.062936075
0.08138191 -0.035597015 -0.102583855 -0.17091727 -0.15631525 0.00024546505 -0.01870832 -0.010617903
0.037987363 -0.020470737 0.049228672 0.14001344 0.053524174 0.08000869 -0.04735985 0.002177583
0.075609416 0.124615856 0.124261476 0.13860919 0.036207084 0.03576127 0.123764835 -0.028481241
-0.032728333 -0.06484311 -0.059367288 -0.012759768 0.05553577 -0.1353395 -0.013293512 -0.01367076
0.07149075 -0.11006496 0.018415386 -0.0069523733 0.13061987 -0.021035265 -0.055052586 -0.10584646
0.04852725 0.14427081 0.06492457 0.17162459 0.006036463 -0.049023807 0.14226994 0.062980935
0.010861963 0.0205052 0.0043404065 -0.071025595 0.1314846 -0.09169273 0.033127997 0.0067018364
0.04066081 -0.03182788 0.026857072 -0.11108692 0.018449517 0.16269624 0.02624706 -0.14021775
-0.21042413 0.019615322 0.1265854 -0.047000337 -0.04018577 -0.11784316 0.19436726 0.07484039
0.0015113235 -0.1021895 -0.028417135 0.17183912 0.13328399 -0.025407502 0.041795 -0.004795091
0.033050686 0.0995567 0.08089566 0.05970123 0.012632859 0.08122366 0.090779364 0.06435045
-0.06762022 -0.18008134 0.17022298 0.123938225 -0.08655507 -0.16376007 0.004923315 0.19796172
-0.07327643 -0.022424158 0.0050096177 0.1332505 0.073691286 -0.12256377 0.02426838 -0.059041694
-0.100960255 -0.062221654 -0.06471046 0.04973606 -0.13718161 -0.14248604 -0.010269747 0.106484376
0.08374298 -0.21161544 -0.18805073 0.031914715 0.005998816 -0.11785707 -0.17702895 -0.086000055
0.15182424 -0.11192514 -0.1649805 -0.21532215 0.002862964 0.14302409 -0.09401813 -0.111938514
-0.037615787 -0.04593718 -0.13475634 -0.1403627 -0.07428172 -0.037895698 -0.10403442 0.014015059
-0.028607111 0.14699005 0.12835087 -0.06215682 0.006602698 0.14774208 0.16014145 0.08365685
0.11551891 -0.11311156 -0.120917134 -0.081676394 -0.09508826 -0.041319896 -0.020073863 0.12667118
0.07297476 0.095446855 0.08617518 0.010535194 -0.034857895 -0.09800072 -0.082675956 0.043821033
-0.057131417 0.08926075 0.15221906 0.09727866 -0.011268306 0.02149902 0.11850659 0.16626726
0.006504456 0.15923572 0.09913669 -0.053682704 -0.10719892 -0.15100148 -0.102759786 1.1245264e-05
0.07108378 -0.07188554 -0.028459875 -0.10759449 0.10245263 -0.08438188 -0.17562665 -0.15542492
-0.020949218 -0.13254926 0.11052337 0.09023042 0.14429823 0.03561938 0.0984497 0.075493924
-0.022980507 0.097861715 0.080526166 0.014002542 -0.13336313 -0.09791818 -0.01585921 -0.017638817
0.037532773 -0.10466532 0.04101595 -0.041278366 0.056579396 -0.0043039992 0.009559652 -0.012752432
-0.06853496 0.041494343 0.0874687 0.021159701 -0.18297507 0.0847597 0.05313566 -0.08309012
0.012530164 -0.09427366 0.016074315 0.09956472 0.11690622 -0.04099154 0.016929138 0.07242601
0.09378305 0.04569778 -0.016656319 0.035478856 -0.06007887 -0.023140237 0.09813198 0.05072787

bias f4 [32]
00000000: 605c 85be 1538 433e 36a1 be3b 88ac b7bd
00000010: d960 84be 3ec5 87bc 1230 25be e18f 3abd
00000020: 8464 d7bd 1486 053e 970e 42bd 129f d13d
00000030: 1bfb 743e 6fcb 563d b3b4 32be 1c5e 87bd
00000040: ed48 6dbd 7c21 623d 9b45 79bd a732 27be
00000050: c70e 67be 8a9f 093d b370 a23c a87e 123e
00000060: 61d8 47bd ef9f 0e3d 2ff9 8abd 2947 c33e
00000070: 35a1 d0bc beb5 cb3c 2b0a 02be 09da af3d
-0.2604704 0.19064362 0.0058175577 -0.089684546 -0.2585514 -0.016573545 -0.16131619 -0.04554737
-0.10517219 0.13039428 -0.047377195 0.102354184 0.23923914 0.052440103 -0.17451744 -0.06609747
-0.057930876 0.055207714 -0.060857397 -0.16327916 -0.22564231 0.033599414 0.01982913 0.14306128
-0.04879034 0.034820493 -0.06785809 0.38140228 -0.025467495 0.024866935 -0.12699191 0.08586509

weight f4 [32, 32, 5, 5]
00000000: e725 0bbc 47c2 d93c 0a3b 843d 12ab 113d
00000010: c65a 2a3c 5ceb 06bd 54e2 36bc 1ca7 d2bc
00000020: aaae 9fbc e37b be3c 41a0 28bd 50dc 1ebd
00000030: 7326 51bd 1c20 dfbc 8bb3 153c 674c d23c
00000040: ae6b b63c 012b c93c 8a96 18bd abd7 d8bb
00000050: ff55 adbc 554f a53c 4075 5ebc 8bbb 9cbc
00000060: db1e 38bd 3a67 163b 69bd 14bd 539b 913c
00000070: 3195 8fbc cbcf 9bbc a714 9439 56d8 1bbd
00000080: 7755 1ebd 2abb e83c 8639 0a3d dd9b 383c
00000090: 7da7 d4bc 4b78 63bc c7ee 9e3c 53e0 92bc
000000a0: 9890 42bd 9ce7 04bd 7150 fbbc 3532 2cbd
000000b0: 0982 76bc f9f4 79bb 7900 7b3b 1915 9939
000000c0: 6526 023d 3f92 893b 6b70 91bc 4660 c63c
000000d0: 2245 fe3c 91b8 08bc 3f8d 463d b3de 42bb
000000e0: 0ee5 d5bc 1934 cfbc b07b f03c 062b 873c
000000f0: ec19 34bd cc87 21bd d0d4 93bc fd5c c1bc
00000100: 0c46 97bb e9db a5bc 51f7 a13c 9bed 463b
00000110: 0517 2cbd 299f d6bc e6c4 883c edea d0bc
00000120: e7b3 553b c189 af3a 40d1 ad3b 8cf1 3a3c
00000130: 7925 b73c 6bfd 243d bc1c 193d 52e7 273d
00000140: 4fad b8bc 0aa4 b53c c9a8 81bb 1eeb 95bc
00000150: 7a1d fcbb 94ce 18bd 83f6 e73c 8fa2 983c
00000160: 325f ef3c 2b3a bebb 2067 683c d45d 8f3c
00000170: fcd6 83bb f3a6 f23c c55a 02bd acd4 c0b9
00000180: 8d66 24bd 4b39 78bc 86d6 793c 3b01 0dbd
00000190: 367a 3c3d 7b99 823d 6a82 9c3d 244f 843d
000001a0: d070 2a3d cd65 903c b753 d1bb e34a 083d
000001b0: f40b 193d 6669 e9bb e042 963a 8d4d dabc
000001c0: ac1d 2b3c 6323 e03c 69bf c1bb 4184 60bb
000001d0: 5941 203c d14b af3c bd5c 86bc 52af e23c
000001e0: 2f2c dfbc e01d f9bb 9bda 8f3c 50e8 b23c
000001f0: 9702 efbc e2fb 52bb 4201 123d d573 483d
00000200: 1fad 0c3c 799b a73b d5df a8bc 8edb 483c
00000210: 0120 81ba 0bde 343c d082 57bb e59f 1b3c
00000220: 9b1c ccbc 0ec8 02bb ac80 d93c 23bc 41bc
00000230: c8c8 993c 2874 7a3c ff4e efbc b124 88bc
00000240: bbd1 5b3c 7d15 9abc 07f2 9e3c 9593 24bd
00000250: feba abbc 9647 03bd f264 70bd 63d6 2cbd
00000260: 13a3 3bbd 8c26 43bd 58dd 91bc 26a3 783b
00000270: c427 4fbd 3471 80bb ce89 69bc ff65 58bd
00000280: 0a22 1dbd 5217 783c c506 6bbc 75fa 2bbd
00000290: 222c 52bd 89be fabc 689a df3c 33ce d93b
000002a0: 2b77 b03c 41a6 db39 e5fa 4f3c 9269 173c
000002b0: ff8c 89bc 762e 77bc eeae 713c ad0f 0b3d
000002c0: 647b cd3c d119 a4bb 1032 d63b cd56 9d3c
000002d0: 9ea2 babc 842f d03b f08f 08bb 1b0e 153d
000002e0: 46f3 62bc 69f4 de3c 079e 293b 396a 5f3a
000002f0: 3e67 c3ba 41ad fcbc fbc5 9a3c b6a3 5f3b
00000300: a533 7a3c 30dd c83c cff8 de3b 5121 96bb
00000310: 4298 8d3c 165c a0bc 1e1e 7dbc 0769 f8bc
00000320: 92e9 6bbb 0e5e 153c 11d7 063d 58bc cfbc
00000330: aa12 1a3d c8ff 473d 7677 253d 0593 03bc
00000340: a251 88bc 00b4 263d 924a df3c e744 6e3d
00000350: b14e 1a3d 5c28 c23b 1e43 afbc 9019 e73c
00000360: 0cc6 73bb f9d8 babb ed2e bb3c e7cc a03a
00000370: 8117 653d 8e9f 7b3c 14f6 fbbb 04e2 363d
00000380: e931 3f3c ba97 44bd 4cc4 20bd a36e 85bc
00000390: bdc0 13bd 3e7f 32bd 74ab e3bc dff9 3bbc
000003a0: 0f51 5ebd 2c4b 0abd b33d 22bc 0523 0fbd
000003b0: 8319 0abc 6079 52bb 7d16 30bd 39ac 03bd
000003c0: b3fa 20bd 711b 0dbd 2e9e 9d3c 66b0 3f3c
000003d0: e391 88bc 0050 ba3c 971e 093d feb2 2bbc
000003e0: 9460 04bd ba97 de3c be7b a33c b9cd 71b9
000003f0: 0a3d f13c 1566 3b3d 3f41 80bc 598d 813c
-0.008492923 0.026581896 0.06456573 0.035563536 0.010397619 -0.0329393 -0.011162359 -0.02571445
-0.019492466 0.023252433 -0.041168455 -0.038784325 -0.05106206 -0.02723699 0.009137045 0.025671197
0.022268143 0.024556639 -0.03725294 -0.0066175065 -0.02115917 0.02017943 -0.013577759 -0.019132396
-0.0449513 0.0022949711 -0.036313448 0.01777426 -0.017527195 -0.019019982 0.00028244147 -0.03804811
-0.038655724 0.02840956 0.033746265 0.011267629 -0.02595877 -0.013883661 0.019400967 -0.017929232
-0.047501177 -0.032447442 -0.030678006 -0.04204007 -0.015045651 -0.00381404 0.0038299842 0.00029198153
0.031774897 0.004198342 -0.0177538 0.024215829 0.031038824 -0.008344785 0.048474547 -0.002973479
-0.026110198 -0.025293397 0.029355854 0.016500007 -0.043970034 -0.039436147 -0.018045813 -0.02360391
-0.0046165045 -0.020246463 0.01977125 0.0030354026 -0.04201414 -0.02619894 0.016695451 -0.025502646
0.003260845 0.0013392494 0.0053044856 0.011410128 0.022356736 0.04028074 0.03738092 0.04099209
-0.022543577 0.022172946 -0.0039568883 -0.01830059 -0.0076939436 -0.037306383 0.028315788 0.018632201
0.029220197 -0.005805274 0.014184743 0.017500795 -0.004023431 0.029620623 -0.031824846 -0.00036779547
-0.040136863 -0.015150378 0.0152489 -0.034425 0.046014987 0.0637693 0.07642062 0.064604074
0.041611493 0.017626667 -0.0063881534 0.033274543 0.037364915 -0.00712316 0.0011464022 -0.026648307
0.010444086 0.027360624 -0.0059127104 -0.0034258517 0.009781205 0.021398457 -0.016401643 0.02767149
-0.027242748 -0.0076024383 0.017560294 0.02183929 -0.02917604 -0.003219359 0.03564573 0.04893859
0.008586197 0.0051149693 -0.020614544 0.012259377 -0.0009851457 0.011039267 -0.0032884367 0.009498571
-0.024915984 -0.0019955668 0.026550613 -0.01182464 0.018772498 0.015286483 -0.029212473 -0.016619058
0.013416703 -0.018809075 0.019402517 -0.040179808 -0.020963188 -0.03205069 -0.05869002 -0.042196643
-0.045809817 -0.047644183 -0.01780574 0.003793904 -0.050575033 -0.003919745 -0.014254047 -0.052831646
-0.03836254 0.015142279 -0.014344876 -0.0419869 -0.05131162 -0.030608432 0.027295306 0.0066468953
0.021541199 0.00041894804 0.012694095 0.0092414785 -0.016790865 -0.015086761 0.014751179 0.033950496
0.025083251 -0.0050079604 0.0065367296 0.019206429 -0.02278262 0.0063533206 -0.0020837747 0.036390405
-0.013851946 0.027216153 0.0025881545 0.00085226033 -0.0014908088 -0.030844333 0.018893233 0.003412468
0.015271102 0.024519533 0.0068045626 -0.0045816083 0.017284516 -0.01957516 -0.015449075 -0.030323518
-0.0035997373 0.009116663 0.032919947 -0.025358364 0.037615456 0.048827916 0.04039713 -0.008030658
-0.016640488 0.040699005 0.027257238 0.05817118 0.037672702 0.0059252214 -0.021394309 0.028210431
-0.0037196903 -0.0057021347 0.022849524 0.0012268097 0.05593062 0.015357865 -0.007689247 0.04464914
0.011669614 -0.04799626 -0.039249703 -0.016288107 -0.03607248 -0.04357838 -0.027791716 -0.011473148
-0.054276522 -0.033763096 -0.009902406 -0.034945507 -0.008428934 -0.0032115802 -0.042990196 -0.032146666
-0.039301585 -0.03445 0.019240465 0.0116997715 -0.016671127 0.022743225 0.03347644 -0.010479687
-0.032318667 0.027171958 0.019956466 -0.00023060189 0.029448051 0.04575165 -0.015656112 0.01581447

bias f4 [32]
00000000: db1e 50bc f9bb e2bc c7be 28bd a1f7 78bd
00000010: 36c2 99bd df07 d039 30a5 14be 0b97 90bd
00000020: 63ec cdbd ae3d 08be 3e6d 893d 4536 8a3a
00000030: 8880 d5bd efe0 66bc bee7 c03c 5a5c 57bd
00000040: 5b42 e23c da1d 963d 4696 16bd 7d13 85bd
00000050: ad61 db3d 2b1c 873c 3286 debc b3b6 3c3a
00000060: 85e3 8cbd b087 91bd 9fcf 43bd b1ac d1bb
00000070: a359 483c a7f8 8cbd 007a 1bbb ed13 88bd
-0.012702669 -0.027677523 -0.041197564 -0.060783032 -0.07507746 0.00039678716 -0.14516139 -0.07060059
-0.10054853 -0.13304779 0.067102894 0.0010544738 -0.10424906 -0.014091714 0.023548003 -0.052578308
0.027619531 0.073299125 -0.036764406 -0.06497858 0.107119896 0.016492924 -0.027163599 0.0007198855
-0.068793334 -0.071059585 -0.047805425 -0.0063987602 0.012228402 -0.06883364 -0.002372384 -0.066444255

weight f4 [64, 32, 5, 5]
00000000: a7c4 60bc c267 acbc 49a7 06bb e8ff 393c
00000010: 3272 b4bc 6b31 113d 9472 2c3d b930 56bc
00000020: e2ae 68ba 9767 dabc f2f2 033d ebac ff3c
00000030: 75dd 713d 1efd 593d 1339 33b9 b161 4c3c
00000040: 9295 213c c7ae 333c 7e14 54bc 30a0 513b
00000050: 5b53 bebc d7f1 b4bc 9f41 f8bb 89ca abbc
00000060: 686d 0dba 0add 38bd a38a 973b 5491 b3bc
00000070: 99e0 913c c1d0 0d3d d16a 55bc 243c 223c
00000080: 9aa8 be3c 4256 1c3a dc85 67bc 019e 50bc
00000090: 5bf1 fc3a 44dd b5bc 482e 51bc 97d9 b33b
000000a0: fc1d 3e3d f142 c33c e2de 8d3c be6e e7bb
000000b0: 0866 613b 5a9d de3c 78f9 b83c 0950 a63c
000000c0: 3d6a 00bd 7464 183d 6a9c dcbb 14b9 80bb
000000d0: f501 593b 804e 3f3c b0cd 4c3c 47b5 05bc
000000e0: efb7 b73c 2c54 af3c 1f5f c1bb 6a1e bf3c
000000f0: 039a e1bc 986e 43bd 65fd adbc a2e3 673b
00000100: 40b2 5fbc a14e 193d df64 88bb 6efd 673d
00000110: e9dc e73b 12fc d0bc 0488 0a3d ec72 30bd
00000120: 5065 e93a 3ff0 863c 04cb 123b a071 16bc
00000130: 8062 7dbc 5a0f 0abd cce2 fabc 1622 10bd
00000140: 7318 9f3c 2f08 183d a4de 053d cac3 18bd
00000150: 1303 ae3c 44e9 58bc 01c0 e83c 62ee 9d3c
00000160: da80 b2bc 51f5 8dbc a1d2 453c d093 c5bc
00000170: 58af f1bc b090 16ba 2a4e 40bc 71de 253d
00000180: 9296 123c d054 f0bc 3d65 05bc 4535 f33b
00000190: 526b 293d 2a3d 24bb 2ca3 d6bc b907 21bd
000001a0: 1671 023c 60d9 0f3c 178f 2a3d 96ab a83c
000001b0: 3814 913c f1a2 ac3c 1143 9bbb 36a1 733d
000001c0: 94f0 e83b 95a4 733c b0d2 093d d498 0a3d
000001d0: e224 303d 449b 5c3c 8561 993c 6702 88bc
000001e0: 460e 35bc 0416 4e3d 5409 a7bc b095 8eba
000001f0: 2a98 133d e74c 02bd 3d56 163d 58fc a33c
00000200: 5daa 94bc 7566 9abc f904 12bd 396a 2c3c
00000210: 27e5 7d3d 7967 2f3d cc29 ba3b 5e82 6bbb
00000220: 40f1 8e3b c2f6 ecbc 0fac 193d 5932 0b3d
00000230: 0ccb 00bb 5777 9fbc a24e 073d 417f 80bc
00000240: 76f6 52bb 2772 29bd 58d5 0bbd fa0c ffbc
00000250: 099e 68bd 468e 053c e29c c3bc df5e 473d
00000260: 79ae 4b3d d767 983b 5412 163d 2f8b 43bc
00000270: e87d f53c 6a37 993d eee5 1f3d 7371 163c
00000280: a13b 64bd a4bd 6ebd 4ee5 c3bc 5667 273d
00000290: 5cd4 3c3d ec7e 0dbd 8048 cd3c 2dcb a4bc
000002a0: 87af afbb 6623 85bc ef68 bc3c 97e3 073d
000002b0: 7dbe 1eb7 416f fe3c aa9e 8abc eb35 44bc
000002c0: 4fd5 ddb9 de79 3ebd 3c0c e7bb 075c 0e3c
000002d0: a522 8c3d 9d80 563d 2137 e83b f1a4 1abc
000002e0: 7c38 cc3c e2df 9f3c ce54 8c3c 9a27 5b3d
000002f0: dc98 e33c c350 1cbd 88bd f4bc f639 0d3d
00000300: 633f 573d fdc0 0c3c cfe2 163c 8ffa 5bbc
00000310: efe0 7d3c 3515 9e37 79ca 8c3c a983 93bc
00000320: e057 7cbc 2da8 7d3c 4cb1 f03b db85 30bc
00000330: a6c2 313c 13c5 dabc 5ca8 303a 0b09 c7bb
00000340: bac4 203d 2c30 3b3d d35b 8fbc c599 11bc
00000350: 70eb 7fbc 5695 f8bc d3b9 4dbd f033 50bc
00000360: b050 003c b096 923c ee38 19bc e36a c63a
00000370: 3739 00bd ba85 0d3d 74aa bc38 9cba d93c
00000380: b4b9 e8bc c626 913c 8ef7 5bbc 661c 993c
00000390: 2abd 093c af85 ac3c 4767 0dbc f79a 94bc
000003a0: 6be8 d7bb a53f 5abb 7193 a4b9 725b 553c
000003b0: b18e fd3c 7ee1 0abc acf5 8ebc 772e ccbc
000003c0: d57b aebc 4954 233c feb7 4cbb 5cfa d63c
000003d0: 3387 a53c 3f14 91bc 5877 7a3b 3c40 28bc
000003e0: fc44 ff3b cdd0 0ebd 9e1c 05bd 23bc c2bc
000003f0: bcf3 38bd 86d8 51bc 17e4 eabc 53de f33c
-0.013718761 -0.02104557 -0.0020546487 0.011352517 -0.022027109 0.03544752 0.042101458 -0.01307314
-0.0008876157 -0.026660724 0.032214113 0.031210383 0.05904909 0.053219907 -0.00017092032 0.012474463
0.0098623205 0.010966963 -0.012944339 0.0031986348 -0.023233106 -0.022087974 -0.007576182 -0.0209706
-0.0005395026 -0.045132674 0.004624681 -0.021919884 0.017807292 0.03462291 -0.013025955 0.009902034
0.023273755 0.0005963781 -0.014131036 -0.012732984 0.0019298004 -0.022200234 -0.012767382 0.005488585
0.046415314 0.023835631 0.017318193 -0.007062762 0.003439309 0.02717464 0.022579893 0.020301836
-0.031351317 0.037205175 -0.006732513 -0.003928313 0.0033112739 0.011676431 0.012500212 -0.008160896
0.022426574 0.021402441 -0.005901232 0.023329932 -0.027539259 -0.047712892 -0.021238992 0.0035383482
-0.013653338 0.037428502 -0.0041624154 0.056638174 0.007075895 -0.025510821 0.03382112 -0.043078348
0.0017806683 0.01647198 0.0022398839 -0.009182364 -0.015465379 -0.033706047 -0.030625723 -0.035188757
0.019420838 0.03711718 0.03268303 -0.037296094 0.0212417 -0.013239209 0.028411867 0.019278709
-0.021789957 -0.01732889 0.012074144 -0.024118334 -0.029502556 -0.0005743606 -0.011737386 0.04049534
0.008947032 -0.029337317 -0.008141813 0.0074221217 0.041362114 -0.002506087 -0.026200853 -0.039314006
0.007961532 0.008779854 0.041640367 0.020589631 0.017709836 0.02107379 -0.0047382195 0.059479915
0.0071087573 0.014870782 0.033648193 0.033837155 0.043003924 0.013464753 0.018723259 -0.016602708
-0.011050766 0.050313964 -0.02039019 -0.0010878351 0.036033787 -0.03181162 0.036703337 0.020017788
-0.018147642 -0.018847683 -0.035649274 0.010523372 0.061986115 0.04282329 0.005681252 -0.003593586
0.0043622553 -0.028926257 0.037517603 0.033983562 -0.0019652275 -0.019466085 0.033033974 -0.01568568
-0.003219036 -0.04136863 -0.034139007 -0.031134117 -0.05679134 0.008151596 -0.023878518 0.04867446
0.049726937 0.0046510505 0.036638573 -0.011935039 0.029967263 0.074812725 0.039037637 0.009182322
-0.05572093 -0.058286324 -0.023913052 0.040870033 0.04610096 -0.03454487 0.025058985 -0.020116413
-0.0053615007 -0.01625223 0.022999255 0.03317603 -9.461885e-06 0.03105891 -0.01692136 -0.011975746
-0.00042311332 -0.04650294 -0.007051019 0.008688933 0.068425454 0.05236875 0.00708665 -0.009438739
0.024929278 0.019515935 0.017130282 0.053504564 0.02778285 -0.038162958 -0.029875532 0.034479104
0.052550685 0.008590934 0.009209349 -0.013426437 0.015495523 1.8844943e-05 0.01718639 -0.018007116
-0.01540181 0.015481991 0.007345354 -0.010774101 0.01084963 -0.0267053 0.00067389547 -0.006074076
0.039250113 0.045700237 -0.01749984 -0.008886759 -0.0156200975 -0.030344646 -0.050226044 -0.012707695
0.007831737 0.017894119 -0.009351952 0.0015138056 -0.031304564 0.03455136 8.996288e-05 0.02657824
-0.028408863 0.017718684 -0.013425721 0.0186903 0.008406917 0.021059839 -0.00863058 -0.0181403
-0.0065889857 -0.0033302095 -0.0003139037 0.013022291 0.03095183 -0.008476613 -0.01745113 -0.0249245
-0.021299282 0.009968826 -0.0031237598 0.026242428 0.02020607 -0.01770985 0.0038218107 -0.010269221
0.007790206 -0.034867097 -0.032497995 -0.023771351 -0.04515432 -0.012807971 -0.028673215 0.029769098

bias f4 [64]
00000000: 6111 2ebd 17a6 c0bd 1438 ebbb 15a0 53bd
00000010: e2f3 65bd 770e f1bc 68b2 9dbd 1c54 01bd
00000020: 8706 22bd 49d4 ccbc f488 f2bc e3b4 b5bc
00000030: 2394 52bc 24fc 87bc db3c debb 8daf 00bc
00000040: e32b 33bd c341 55bd 76e2 3fbd fdd2 0abd
00000050: b9d0 7fbc 177e 5dbd 1e42 c2bc b8d9 92bd
00000060: eb46 41bc e013 d3ba 7710 a13c 7bd5 1ebc
00000070: d13d 6cbd 0bcf d5bb ff27 dc3c 0299 7abd
00000080: 2416 6dbd 53be a2bc fea4 6fbc c41d 04ba
00000090: 8dd8 83bd 39f1 72bc 99dd a1bc 32ef cbbb
000000a0: ea52 853b cffb b2bc f74f 61bc f0f7 9a3b
000000b0: 9165 73bd c05a cebc 4b3b 8fbc a1c4 52bb
000000c0: ac62 71bc fb17 bcbb 6bed bdbd 7f89 bbbc
000000d0: f802 0bbd 59f4 f6bc 5180 9e39 cdc3 0fbd
000000e0: 968d 1fbc 381e 40bd 5a8f 0bbd 4474 b4bd
000000f0: 5258 eebc 68fc 0b3c a2e5 61bb f1e7 6bbd
-0.042497043 -0.09406679 -0.007178316 -0.051666338 -0.056140788 -0.029425843 -0.07700044 -0.031574354
-0.039557006 -0.02500357 -0.02960632 -0.02218098 -0.012852701 -0.016599722 -0.006782157 -0.007854355
-0.043743026 -0.05206467 -0.04684683 -0.03389262 -0.015613728 -0.054075327 -0.023713168 -0.07170433
-0.011796693 -0.0016103946 0.019661171 -0.009694452 -0.05767614 -0.0065249256 0.02687454 -0.061181076
-0.057882443 -0.019866144 -0.01462674 -0.0005039836 -0.06437788 -0.01482802 -0.019758986 -0.0062235827
0.004068722 -0.021848587 -0.013751975 0.0047292635 -0.059423033 -0.025189757 -0.017484328 -0.0032160657
-0.014732998 -0.0057401634 -0.092737995 -0.022892712 -0.033938378 -0.03014581 0.00030231712 -0.03509884
-0.009738347 -0.04690382 -0.034072258 -0.088112384 -0.029094849 0.008544065 -0.0034469147 -0.057594243

weight f4 [64, 1024]
00000000: 2353 8eb9 1820 ee3b 5533 03bb 7cb3 953c
00000010: 3139 993c 90cb f23c 4bb2 a7bc ade1 0dbb
00000020: 38e8 c33c 8006 dd3c eca4 e9bc 3fef 80bc
00000030: 2704 ec3c 3be8 1f3c 0341 6a3c e62a 8c3c
00000040: efc1 bfbc ad57 eb3b 3d94 9b3c ceac 513c
00000050: 31ae b5bc 1bdd 5cbc 32fb 953c e61c 803c
00000060: e754 333c 1254 e2bb 3e42 b6bc 012e a7bc
00000070: 4d57 e23c 84a9 a4bc 708a 21bc ef8b 25bd
00000080: b455 87bc 3db5 ad3c 8954 a0bc ddd0 35bc
00000090: 218e 14bc 7009 dfbc 344e 693b 82ca 5bbd
000000a0: a21c f83b 0758 80bc b5b9 d3bc 2fe9 99bb
000000b0: 3e3e 73bb 9927 203d 242e 913c 5c43 6ebc
000000c0: f110 de3a 2df3 233c d778 ccbc 6123 c83c
000000d0: f54a d1ba 337b 8ebc b482 913d c35d d6bc
000000e0: 5667 bbbc 1053 c2bc 9e55 263d 6fc5 6f3c
000000f0: 9ae5 833c 79d7 913c 0ca9 2d3d e7df 07bc
00000100: e598 b4bc f2ae 653c 700c 983a 56a1 05bd
00000110: f5d1 11bc 5b0e 88bc 1547 84bd df78 01bd
00000120: 43c9 443d bc7e b0bc 4131 e63b fbe3 6f3c
00000130: 6cf2 09bd 8086 12bc 5be7 593c 34a4 bdbb
00000140: 210d 17bc de78 8f3c 8f9e b4bc 3b0d e63a
00000150: 7ab0 2bbd 8bae 7cbd c6d9 9ebc 76a5 ae3c
00000160: b334 1b3c 3504 49bc 5e5c 42bc e169 033d
00000170: 01c5 3abd 555a 5ebd b2f2 143c eb94 37bb
00000180: ea7b 223d 74dc 3c3d 90d1 0ebc 86ad 373d
00000190: e92d c5bc 8d10 dd3c 1b9b 1b3d 3e78 babc
000001a0: 21a3 903a d16d b23c af1c 713a 046a 65bc
000001b0: bc3f 26bd 28d5 4dbd ff7c 4dbc 2db2 e0bc
000001c0: 5ede d53c 19a0 c43c f279 0c3c 3146 2a3d
000001d0: 9ff9 253d eb70 d33c 8b3d 00bd ece4 073d
000001e0: 596f 4dbb 124a cdbb ef48 0cbb 3f80 e7bc
000001f0: 4b39 013b 6a58 bd3c f049 8abc ab7b 893c
00000200: 8b7c 373c 711a a1bc 267a 36bd 3d16 abbc
00000210: 2068 b53c 1271 20bc 8361 4a39 5f30 0b3d
00000220: d253 013d d6d1 523c 67df b33c 1b1b da3b
00000230: 0fbd a2ba bd4f c33c e94b 38bc ec6f 2d3d
00000240: 18d7 903c 6d1d 363c 2453 2fbd df4b 85bc
00000250: a188 ad3c a384 423d 995c c13c 62ec 89bc
00000260: e451 bb3c 6ccb 97bc be56 dbbb 1745 2b3c
00000270: c6ee 7c3b 5fb0 853c 08e0 923b b05a f93c
00000280: f106 313b e62f f93a 69b0 4a3b 6362 1a3d
00000290: f29e 1cbd 3e09 c83c cae4 7dbc c67e 32bc
000002a0: 6370 b8bc 2834 dabc b054 ab3c aae8 a73c
000002b0: 686b bf3b 8fca b5bb 67b1 d2bc 19b4 d93c
000002c0: af54 a0bc 1a77 ebb9 f486 023d e135 9dbc
000002d0: 94c1 a7bc 4bbe 83bc 5228 cb3c ea66 1cbd
000002e0: 031a 333d 4b3d 2d3d 3537 c03c d010 3b3b
000002f0: dbfc f1bc bab6 713b cb66 ae3c 2ac9 c9bc
00000300: 9bd8 eb3c af10 c63c 43a9 0fbd f559 293d
00000310: 0814 1ebd 400c 523c 5ef8 233c 3d00 743c
00000320: ac98 afba c866 0c3c 26c2 12bc 79ff b2bc
00000330: f16e 893c f86d c63c f9d7 fb3b c772 d0bc
00000340: 204d eb3a 5e98 d3bc 8889 49bc 7e40 8fbc
00000350: 7bf2 573c bf63 2ebc 7495 cb3b 4e01 85bb
00000360: e03c 71bc 32cd 723d 3959 df3b caa7 df3c
00000370: 97f6 96bb b51a a3bb 45a1 143d 0a05 debc
00000380: 02b0 a8bb c4ac 62bc 1528 f03c 3b96 4b3c
00000390: 8b25 35bd a828 89bc e29e 6a3c 6964 823c
000003a0: 9349 5bbc e0c2 10bd 3406 8fbc 4945 7dbc
000003b0: 2d5d a23b e6f4 d93c 1786 97bc e011 a9bc
000003c0: 79c6 77bc ba0b 8dbb 3c82 e6bb 5583 0d3d
000003d0: 30ee 803b 3118 983c bf76 ca3c 9bc6 d8bc
000003e0: ccc0 f83c b0bc 293d 329b 8ebb 99c7 3cbd
000003f0: 18a7 56bc 01c9 bcba dfd9 103d 833b 183d
-0.00027146292 0.0072670095 -0.002001961 0.018274061 0.018704029 0.029638082 -0.020470759 -0.0021649406
0.023914441 0.026980639 -0.028521024 -0.015739081 0.028810574 0.009759958 0.014297727 0.0171103
-0.023407904 0.0071820826 0.018991584 0.0127975475 -0.022177787 -0.01348045 0.018308256 0.01563878
0.010945535 -0.0069069946 -0.022248384 -0.020407679 0.027629519 -0.020100363 -0.009859666 -0.040416654
-0.016520359 0.021204585 -0.01957156 -0.01109716 -0.009067089 -0.02722618 0.0035599591 -0.053659923
0.0075717727 -0.015666975 -0.025845388 -0.004696987 -0.0037115957 0.039100263 0.017722197 -0.014542427
0.0016942305 0.010006708 -0.024959965 0.024430932 -0.0015967774 -0.01739273 0.07105008 -0.026167756
-0.022876423 -0.023721248 0.040608995 0.014634474 0.016100693 0.01780294 0.042397544 -0.008293129
-0.022045562 0.014018761 0.0011600386 -0.032624565 -0.008900155 -0.016608408 -0.0645887 -0.031609412
0.0480435 -0.021544807 0.0070249145 0.014641757 -0.033678457 -0.0089432 0.013299788 -0.005787397
-0.009219439 0.017513689 -0.022048263 0.001755155 -0.041916348 -0.061689895 -0.019390952 0.021319132
0.009473014 -0.012269069 -0.011862842 0.032083396 -0.045598034 -0.054285366 0.009091066 -0.0028012346
0.039668955 0.046108678 -0.008716956 0.04484322 -0.024069743 0.026985431 0.037989717 -0.022762414
0.0011034944 0.02178088 0.00091976946 -0.014002327 -0.040588126 -0.05025211 -0.012542008 -0.02742871
0.02610701 0.024002122 0.008573996 0.041570846 0.04052126 0.02581068 -0.031308692 0.0331773
-0.0031346886 -0.0062649334 -0.0021405776 -0.028259395 0.0019717987 0.023113448 -0.01688096 0.016782602
0.011199127 -0.019665929 -0.044550084 -0.020884627 0.022144377 -0.009792583 0.00019300547 0.033981677
0.031574078 0.012867412 0.021957112 0.0066560633 -0.0012415963 0.023841733 -0.011248567 0.042343065
0.01768069 0.011115414 -0.0428039 -0.01627153 0.021183314 0.047489773 0.023603724 -0.016836349
0.022866197 -0.018529616 -0.00669369 0.010453484 0.0038594468 0.016319452 0.004482273 0.030438751
0.0027012194 0.0019011467 0.0030927903 0.037691485 -0.03823752 0.02441847 -0.015496442 -0.010894483
-0.022514528 -0.026636198 0.020914406 0.020496685 0.0058416612 -0.0055478285 -0.025719358 0.026575135
-0.01957163 -0.0004491143 0.031866983 -0.01919073 -0.020478047 -0.01608195 0.0247995 -0.038184084
0.04372598 0.04229478 0.023463825 0.0028543957 -0.029539516 0.0036882595 0.02128925 -0.024632055
0.028789809 0.024177877 -0.03507353 0.041345555 -0.038593322 0.012820303 0.010007946 0.014892635
-0.001339694 0.008569427 -0.008957421 -0.021850334 0.016776534 0.024222359 0.007685658 -0.025445355
0.0017952062 -0.02582949 -0.012300856 -0.017486807 0.01318037 -0.0106438985 0.0062128846 -0.0040589934
-0.014723986 0.05927772 0.006816056 0.027301688 -0.0046070325 -0.004977549 0.03628661 -0.027102012
-0.005147935 -0.013835136 0.029315988 0.012425954 -0.044225257 -0.01674302 0.014320107 0.01591702
-0.013384241 -0.035342097 -0.017459013 -0.015458413 0.004954955 0.026606034 -0.018496556 -0.020638406
-0.015123003 -0.0043043764 -0.007034568 0.034549076 0.003934644 0.018566223 0.024714826 -0.02646189
0.03036537 0.041439712 -0.004351997 -0.04608879 -0.013101362 -0.0014403166 0.035364028 0.03716613

bias f4 [64]
00000000: c8a2 55bc e10d 08bd a5e4 30bc 21d0 463c
00000010: 0d22 16bd 95be 233c 8764 04ba 7fee 2cbb
00000020: 3fe5 183d d294 8ebc 4f7a 66bb f303 22bb
00000030: 5223 053d 1ec5 e4bc 2e12 32bd 448a a23b
00000040: 97d2 703c defc 1fbc d85e a63c 399a cc3c
00000050: 3603 9ebc 37e8 88bb 3a66 d43b 0c87 6a3d
00000060: 9f53 34bc 82f2 c33c 73d5 10bd 6d36 b8bc
00000070: 4a92 33bd 729c 43bd 2832 76bd 90c6 e93c
00000080: 2d9c 943c 1c08 e03b 6e2a 37bb e0de 2d3c
00000090: a614 143b 7bfc 93bc 24b1 96bd 0973 e73c
000000a0: df44 943c ddcd 303c 1cdd b6bc 2f89 d43c
000000b0: 5b22 133d affd 23bc ee11 85ba df05 f9bb
000000c0: 6840 a3bb 7bc9 883c 4060 b83c d6c0 8bbb
000000d0: 7e92 c13c a68b b0bc 97d5 84bd 1a66 febb
000000e0: 897d 03bc b561 223c 3b9c 733d 4e51 e5bc
000000f0: 8b41 cabb 26a6 23bc 545f d23c e272 0abd
-0.013039298 -0.03321636 -0.010796701 0.012134583 -0.036653567 0.009994169 -0.000505038 -0.0026387272
0.037328 -0.017404947 -0.0035168116 -0.0024721592 0.032504387 -0.027926024 -0.04347437 0.00496033
0.014698646 -0.009764878 0.020308897 0.024975883 -0.01928864 -0.004178073 0.006481913 0.057257697
-0.011006265 0.023919348 -0.03535981 -0.02248689 -0.043840684 -0.04775662 -0.060106426 0.028537065
0.018140877 0.006836904 -0.0027948874 0.01061222 0.0022595315 -0.018064728 -0.07358006 0.028253095
0.018099247 0.010791269 -0.02232223 0.02594432 0.035921436 -0.010009213 -0.0010152438 -0.007599577
-0.004982043 0.016697636 0.022506833 -0.004264931 0.023629423 -0.021550965 -0.064860515 -0.0077636363
-0.008025535 0.0099109905 0.059475165 -0.02799287 -0.006172364 -0.009988343 0.025680222 -0.033800967

weight f4 [10, 64]
00000000: f3b2 7dbc c14f 243d 0d0e 65bd ffc8 053e
00000010: 27fb 22bd 29cf 223e e3aa 89bd 80db 893d
00000020: bada 1abe 5273 133e 1462 2d3d 7a85 84bd
00000030: 7477 a3bd 1a39 ddbb a886 f43d c146 063e
00000040: 556c 46be 409c b93d e71e 2ebe 43f3 20be
00000050: 6ceb 1ebe dc60 71bd 784a 833d 3925 6e3d
00000060: 59d0 963d f691 273e 28d9 36be 647e 1c3e
00000070: 5f22 44bd 4224 0e3e 0aea 523e 6a7a e73d
00000080: 3c0f 65bd 3e1f b13d a083 91bd d1a5 863d
00000090: b6ec fb3c f0ac e5bd 7143 353e 800e acbd
000000a0: 1266 5ebd a0f1 e1bb a7db 2e3e 8411 05be
000000b0: 8cd4 e1bd ea97 d3bd e53b 18be 2595 2abd
000000c0: b4b7 233e ade6 f2b9 c3f7 7dbd 2d2f 54bd
000000d0: 9551 56bc e479 4cbe 3471 883c fff0 013e
000000e0: 454a 603e 312e ffbd ced6 39be bb37 113e
000000f0: 3444 33be 00cd 833c ad71 30be 0e35 a53d
00000100: 581a 10be 03c5 6d3e fb11 5c3e 87df 913d
00000110: 9600 053e d45d 4fbe e2df efbd 69b0 b73d
00000120: 6303 ef3c daac 51be dfb3 a2bd 47ec 9c3c
00000130: 021c 6cbe c646 81bd 13e5 41be dfbf d73d
00000140: ed8a 1abe dcbe 2fbe 178b d8bd e2a7 3a3c
00000150: f8a6 00be 8121 56be 78d7 33be 15d6 b53d
00000160: 437c 31be 5093 4abe 371a 9abb 5945 443e
00000170: 3ed7 a83d e2c5 913e 2387 43bd 6661 1d3d
00000180: 7462 253e 513f 853b 7657 8abe 6b6b ebbd
00000190: 41ce 84bd 8018 dbbd 0c3f a7bd 7496 7e3e
000001a0: 2cac 2d3e e12f 143c 7a2c 81be c358 fa3d
000001b0: a089 b9bd 13b1 ddbd a8ce e53b e4c1 503c
000001c0: 5a0c 8dbd 7036 e33d d6f2 783e 3a70 72be
000001d0: a8f6 26be 6bd1 b7bd 6c3b 4c3e 694a 11be
000001e0: b343 57be 9b94 9b3d 56e5 b0bd 63a9 1bbd
000001f0: 7e72 1f3e 9080 34bd 2958 50be dc2e 173e
00000200: ffc4 3c3e 696c e4bd 18c8 c0bd 6dac 0cbd
00000210: 75f0 d93d 8195 99bd 71ed bfbc 9fb3 29be
00000220: 569f 2c3e 05c8 043e cf57 273e 55a4 f93d
00000230: 4af8 10bc f0cd 4abe a7ad a1bc 06a4 e53c
00000240: 3c5c 3f3e fd09 84bd 3d56 03be 2233 49bd
00000250: d738 1dbd afff 173e 6e4e 8ebd 9689 29bd
00000260: 3e0a aebd 5bae 153e a92f 27be 90fc 0dbe
00000270: 5c23 c03d 0655 46be 6111 08be 937d f6bd
00000280: 1f25 a83c cdf5 3dbd 8a05 97bd 352c 6abd
00000290: 2305 79bd ad62 353e a22f 21bc 04d9 7ebe
000002a0: 1f5b b9bd d812 73bc 6151 243e 6731 0abb
000002b0: 8d90 f9bd 2024 1e3e 766e 133e da8f 36be
000002c0: 80d5 253e 4930 16bc 469e f7bd 7484 0f3e
000002d0: 6604 a6bc 882e a0bd a735 4d3e dc69 62bc
000002e0: 7070 803e 8c54 0d3e b3b3 b43d 3a30 ed3c
000002f0: 36cd 68be 1502 c33d bbb8 e0bd 0022 12bd
00000300: edb4 293e 8f32 963c 5d25 1abc de93 823d
00000310: be98 a2bc c35a 02be 1f6b 053e 8023 99bd
00000320: 2050 30bd 428e 89bd 3e89 1a3e 31e9 24bd
00000330: 5696 f63c 3686 343d 89d1 443b cb0a 35be
00000340: 16e5 2c3e b452 02bd ceec c73d 1513 893c
00000350: 5c3f e13d ca16 3e3e 4dd5 d33c 22c9 013e
00000360: 5f9a b53d 738e b3bd fb00 013d 24ca febd
00000370: 66db 26be 4fa5 5c3b 4bd3 17be 8a0b 3dbe
00000380: 4a79 d23d 77c2 213e 06e3 05bd 947e 32be
00000390: 5838 d53d 4967 433d bf89 163d f457 b13d
000003a0: 5e3b 02bd 8424 7d3d 9eae c6bb b30a b83c
000003b0: 7d9c 1d3d 8e60 ae3d c0f2 673d 7f7e 24bd
000003c0: 8f65 a3bd c83c 043e 082e e2bc d695 933d
000003d0: 3b8c 2e3b db11 003e 8867 c2bd ee56 803e
000003e0: b0ab 13bd 1dee 143d 559a 843d 9c2b 8b3d
000003f0: 74b0 bcbd 9655 8dbd dfc5 b13c 9fdb 033d
-0.015484559 0.04011512 -0.055921603 0.13064955 -0.0397903 0.15899338 -0.06722047 0.067313194
-0.151225 0.1439946 0.042329863 -0.06470771 -0.07981768 -0.006751192 0.11939746 0.13112928
-0.19377263 0.090630054 -0.17003976 -0.15717797 -0.15519494 -0.058930263 0.06410688 0.058140967
0.07363958 0.16364273 -0.17856276 0.15282589 -0.04788434 0.13881019 0.20597091 0.113026455
-0.05592273 0.08648537 -0.071051836 0.06574596 0.030752521 -0.11214626 0.17701508 -0.08401203
-0.05429656 -0.006895259 0.17075978 -0.12994963 -0.11026868 -0.1033171 -0.14866598 -0.04164614
0.15988046 -0.00046329704 -0.062003862 -0.051802803 -0.013080974 -0.19968373 0.016655542 0.12689589
0.21903332 -0.12459982 -0.18148348 0.14181416 -0.17506486 0.016088963 -0.17230864 0.0806676
-0.1407255 0.23219685 0.21491234 0.071227126 0.12988505 -0.20250636 -0.11712624 0.089691944
0.02917642 -0.20476094 -0.07944464 0.019155635 -0.23057559 -0.06312327 -0.18935041 0.105346434
-0.15092058 -0.17162651 -0.10573404 0.011392565 -0.12563694 -0.20911218 -0.17562664 0.088787235
-0.17332558 -0.19782758 -0.004702832 0.19167079 0.08244179 0.28471285 -0.0477363 0.038422965
0.16150838 0.004066386 -0.27019852 -0.11495098 -0.06484652 -0.106980324 -0.08166322 0.24862081
0.1696021 0.009044618 -0.25229245 0.12223961 -0.09059453 -0.1082479 0.0070131607 0.01274154
-0.068871215 0.110943675 0.24311385 -0.23675624 -0.1630503 -0.0897549 0.19944543 -0.14188541
-0.21021919 0.075967036 -0.08637492 -0.038003337 0.15571019 -0.04406792 -0.2034613 0.14763969
0.18434523 -0.1115349 -0.09413165 -0.034344126 0.10641567 -0.07499219 -0.02342865 -0.16572426
0.16857657 0.12966926 0.1634209 0.12189547 -0.008848259 -0.19805121 -0.019736124 0.028032314
0.18687528 -0.064472176 -0.12825866 -0.04912103 -0.038384285 0.1484363 -0.06948553 -0.041390978
-0.08498047 0.14617293 -0.16326775 -0.13865876 0.09381744 -0.19368371 -0.1328788 -0.1203567
0.020525513 -0.046376992 -0.07374103 -0.057171065 -0.060795914 0.17713423 -0.009838017 -0.24887472
-0.09050583 -0.014836036 0.16046669 -0.0021086575 -0.12185774 0.15443468 0.14397606 -0.17828313
0.16194725 -0.0091667855 -0.12090735 0.1401537 -0.02026577 -0.07821375 0.20039998 -0.013819184
0.25085783 0.13801783 0.088233374 0.02895366 -0.22734532 0.095218815 -0.109727345 -0.035676956
0.16572924 0.018334655 -0.009408322 0.0637586 -0.019848224 -0.12729935 0.13029145 -0.07477474
-0.043045163 -0.06716587 0.15091416 -0.04026145 0.030100983 0.044073306 0.003003212 -0.17679898
0.16884264 -0.031817153 0.09761964 0.016732732 0.10998413 0.18563381 0.025858546 0.12674382
0.088673346 -0.087674044 0.031495076 -0.12440899 -0.16294631 0.0033667868 -0.14826696 -0.18461433
0.1027704 0.15796839 -0.03268721 -0.17431098 0.10411137 0.047705922 0.03675246 0.08659354
-0.0317949 0.061802402 -0.0060632965 0.02246604 0.038479317 0.0851451 0.05662799 -0.0401597
-0.07978355 0.12913811 -0.02760984 0.07206313 0.0026633877 0.12506811 -0.09492403 0.25066322
-0.036052406 0.036359895 0.06474749 0.06795427 -0.09213343 -0.0690109 0.021700798 0.03219187

bias f4 [10]
00000000: dfa0 11be 1b09 b9bd 6afc 7ebd 714e 86bc
00000010: a272 fb3d 790e ebbd 30f9 99bc b7fa a83c
00000020: b194 f2bc 8f17 a7bd
-0.14221524 -0.0903494 -0.06225244 -0.016394826 0.12277724 -0.1147737 -0.01879558 0.020627363
-0.029611917 -0.0815879
