project01/first_train/snn_7.pth (torch, 587335 bytes, 10 tensors)

weight f4 [32, 3, 5, 5]
00000000: 0b4f 8dbd a408 19be 631c 5abe f965 1cbe
00000010: 1a9f 903c 95dc edbd 8fea 79bd 13dd edbd
00000020: 8706 4a3d 3c63 86bd b768 a23d cf74 de3d
00000030: 28c8 873d ecee 3cbd 32fd d1bd fb7e 78bd
00000040: 4946 ec3c c110 efbc 1144 8f3d b326 e13d
00000050: 5021 093e fcda 953c a34f 0d3e b6bc 513d
00000060: e3cc 983d eabe fdbc dfb1 bebd 32b1 24be
00000070: a1e7 1abe 4af7 0fbb 8db3 9cbc e10c f3bb
00000080: afa5 353d 19ac 81bc 0392 5b3d 80cb 083e
00000090: 7215 3b3d 663c 9c3d 99cc 33bd e78a 423c
000000a0: 02ed 8a3d 9224 e53d e6c0 e23d fbdd 053e
000000b0: cf5d 193d af17 083d a0a4 f13d b390 0fbd
000000c0: 299b 1ebd bee2 84bd 3f88 5fbd ed92 64bb
000000d0: 8e3e 873d 85a4 02be a040 2abc 9db1 62bc
000000e0: 17a9 993d fd3d d2bd 3fc3 d53c eefc 2f3b
000000f0: 58dd fe3d d3c0 e3bc fe3a 6abd 6267 cbbd
00000100: 5fe5 803d 60cd 0c3e 4296 5e3d cde3 243e
00000110: cd22 273b bc55 2cbd 8b01 103e 0d48 723d
00000120: 7b04 f03b 9d7d 9b3c 93e8 253c cc26 76bd
00000130: a146 053e 892c b5bd 71f5 403d 2b05 9b3c
00000140: 9a97 393d 6b8b 2ebd 55fe ec3c 6fcc bcbd
00000150: 846d bb3c a153 253e cf9a b83c 3b3c f2bd
00000160: dd16 3bbe ef8b 503c 3507 003e 9eb3 0bbd
00000170: 6cf4 14bc 3ba1 d3bd 4e56 353e 9766 ab3d
00000180: f63c 813c ffc0 b7bd d78f 02bd 2e06 283e
00000190: 3e0e 073e d9d3 17bd 2e1f 173d 6c56 1bbb
000001a0: 9036 013d 3c06 bf3d 1bcc 7c3d 862d 603d
000001b0: e443 a53c d8f7 923d 68fe a23d d989 583d
000001c0: fb88 56bd 4b4f 27be 1fee 193e 30da e33d
000001d0: d669 abbd 6041 11be 224e e03b a574 2b3e
000001e0: 2091 95bd 9969 83bc 280e 2a3c 8c21 f63d
000001f0: d8de 653d f8d6 f6bd c06c 853c 07d4 7cbd
00000200: 9a31 cebd 44ea 88bd 4f41 85bd c725 133d
00000210: d7e4 0ebe db74 0cbe b1ce b1bc 6534 d33d
00000220: 8b33 9f3d 81ef 46be 71da 30be 460e 4c3c
00000230: b6b8 41bb b072 eabd 498a 20be 281f b2bd
00000240: 32a6 f63d e178 e0bd a9e3 21be 6705 57be
00000250: bc58 3cbc fecb fe3d 0cfd bfbd 9287 d9bd
00000260: 84cf 0abd 596c 47bd 58e8 0cbe 4e92 ffbd
00000270: cbb3 69bd 3f29 c3bc 3080 c7bd eef5 893c
00000280: 222e f6bc b751 053e f5da ef3d ee11 78bd
00000290: c817 353c a729 0d3e 001c 163e 55be 9b3d
000002a0: ba29 df3d 6185 dbbd 3637 d9bd 6597 73bd
000002b0: c9dd 9abd 8154 04bd 4d44 85bc 5008 eb3d
000002c0: 8164 873d a98c b13d e14f 943d 08dd 12bb
000002d0: af2d f0bc 7f27 babd 5678 a1bd 1c1e 293d
000002e0: 6bac 7ebd c019 a43d 1815 023e 15ba 9e3d
000002f0: 6d14 8dbc b3a4 9c3c e9af d43d 3389 163e
00000300: f0be ddbb e8f9 163e 7b32 cc3d 15d1 28bd
00000310: ab52 b4bd 4255 09be 8965 c3bd e12f ff3a
00000320: 5c13 873d 801c 96bd 9ef5 f7bc 7fa7 e9bd
00000330: 3b44 c63d f4f7 93bd d77c 26be 2103 14be
00000340: 01e8 82bc 0750 05be 1efd df3d 8a25 973d
00000350: 5b88 083e 71e5 1a3d 4630 d43d e47d 8b3d
00000360: a90e 10bd c857 bb3d 38a5 9b3d c112 b13c
00000370: c80a f2bd f58d 9fbd 1ec3 3a3b 2874 d6bb
00000380: e03e 353d edfc d3bd 1aff 293d 6742 05bd
00000390: b4c1 733d 3d91 29ba c7c7 573c 6c08 c7bb
000003a0: 49e9 74bd a2df 1f3d 072c b63d 788e c63c
000003b0: 8247 30be 09c8 b23d ffd8 3d3d c00f abbd
000003c0: 17c4 533c f016 b1bd 9617 6f3c 78f6 b53d
000003d0: 4b8e e53d d153 19bd 8a3a a23c a700 8c3d
000003e0: 64dc b13d b2f6 433d 5abb afbc 7e59 fc3c
000003f0: 924e 64bd 8013 d7bc ad60 bf3d 2bb2 483d
-0.06899842 -0.14944702 -0.21299891 -0.15273274 0.01765399 -0.11614338 -0.061014708 -0.11614432
0.04932263 -0.06561896 0.07930129 0.10862123 0.06629974 -0.04612629 -0.10253371 -0.060667973
0.028842108 -0.029182794 0.069954045 0.109937094 0.13391614 0.018292896 0.1379991 0.05120536
0.07460954 -0.030974824 -0.0931127 -0.1608322 -0.15127422 -0.0021967464 -0.019128585 -0.007417307
0.04434746 -0.015829133 0.053606045 0.13358879 0.04567475 0.076287076 -0.04389629 0.011873937
0.06783487 0.11188616 0.11071949 0.1307296 0.03744298 0.03322571 0.11798978 -0.035050105
-0.03872219 -0.0648856 -0.054573294 -0.0034877614 0.06603728 -0.12758072 -0.010391384 -0.013836292
0.075029545 -0.102657296 0.026094077 0.0026853639 0.12444562 -0.027801907 -0.057185166 -0.09931828
0.06293749 0.1375022 0.054342516 0.16102524 0.002550292 -0.04207395 0.14063089 0.059150744
0.007324753 0.018980796 0.010126251 -0.060095593 0.13015224 -0.08846385 0.04710907 0.018923363
0.045310594 -0.042613428 0.028929869 -0.0921868 0.02287937 0.16145183 0.022534756 -0.11827894
-0.1827044 0.012728675 0.1250275 -0.034106843 -0.009091478 -0.10333487 0.17708704 0.08369177
0.015776139 -0.08972358 -0.031875458 0.16408607 0.13189027 -0.037067268 0.03689497 -0.0023702634
0.031546175 0.09327361 0.061718088 0.054730915 0.020173974 0.07176179 0.079586804 0.052865837
-0.05237673 -0.16338842 0.15032242 0.111256 -0.08369796 -0.14185095 0.0068452517 0.16743715
-0.07303071 -0.016041564 0.010379352 0.12018117 0.056120723 -0.12052721 0.016287208 -0.061725643
-0.100680545 -0.066853076 -0.06506597 0.0359247 -0.13954483 -0.13716452 -0.021705003 0.10312728
0.07773503 -0.19427301 -0.17270829 0.012454575 -0.002955956 -0.11447656 -0.15677752 -0.08697349
0.12043418 -0.10960556 -0.15809502 -0.20998155 -0.011495765 0.12441252 -0.09374437 -0.10621561
-0.03388931 -0.048687313 -0.13760507 -0.12479077 -0.05705623 -0.023823379 -0.09741247 0.016840901
-0.030051295 0.13019453 0.117116846 -0.060563974 0.011053033 0.1378542 0.14659119 0.07604662
0.108966306 -0.107187994 -0.10606234 -0.059470553 -0.075618334 -0.03230715 -0.01626792 0.11476195
0.066109665 0.08669407 0.07241798 -0.0022409577 -0.029318659 -0.090895645 -0.078842804 0.04128848
-0.06217615 0.08012724 0.12703359 0.07750336 -0.017221654 0.019121503 0.10385115 0.14700775
-0.0067671463 0.14743769 0.09970566 -0.04121502 -0.0880483 -0.1341143 -0.09540851 0.0019469225
0.065954894 -0.07329655 -0.030268487 -0.114089005 0.09680983 -0.07225028 -0.1625856 -0.14454319
-0.015979769 -0.1301881 0.1093695 0.07380207 0.13333265 0.03781647 0.1036077 0.06811121
-0.03517023 0.09147602 0.07599872 0.021615388 -0.118184626 -0.07790748 0.0028497647 -0.0065446086
0.044249415 -0.10350976 0.04150305 -0.03253403 0.0595109 -0.00064684806 0.013170189 -0.006074002
-0.05979279 0.039031632 0.08895116 0.024237856 -0.17214778 0.0872956 0.04634952 -0.083526134
0.012925169 -0.08646953 0.014593026 0.08884901 0.11208781 -0.03743345 0.019803304 0.06836062
0.08684614 0.04784269 -0.02145164 0.030804392 -0.055738993 -0.026254416 0.09344611 0.04899804

bias f4 [32]
00000000: 3b5e 7cbe 3d00 493e 9498 2b3c d4d0 94bd
00000010: a821 79be f88b a3bc de9c 20be f14e 15bd
00000020: 099e bfbd 6602 fb3d 10c0 24bd 386b b63d
00000030: e798 643e f574 6c3d 0918 27be 068d 4dbd
00000040: f5f9 77bd 7731 523d 7827 65bd 88da 25be
00000050: 9a38 59be 93bd 033d 8d06 db3c 2e0f 1f3e
00000060: dad5 f5bc 830c 293d 12b5 60bd 46bd b43e
00000070: ee66 0dbd 3f4b d73c ec96 f6bd c851 913d
-0.24645321 0.19628997 0.010473389 -0.07266393 -0.24329245 -0.019964203 -0.1568484 -0.036452238
-0.09356315 0.12256317 -0.040222228 0.08907169 0.22323953 0.057728726 -0.16317762 -0.05018332
-0.060541112 0.051316705 -0.055945843 -0.16196644 -0.21212998 0.032163214 0.026736522 0.15533134
-0.030009199 0.041271698 -0.054860182 0.35300654 -0.03452199 0.026280997 -0.12040505 0.07095677

weight f4 [32, 32, 5, 5]
00000000: e873 3bbc 4374 8c3c e23c 5a3d 20ec dc3c
00000010: 6eda 0e3c fb59 04bd 806d 4abc 2261 e5bc
00000020: 960a c7bc dd6b 9b3c 0b45 25bd 1cb4 16bd
00000030: f151 43bd 7550 e0bc d592 ca3b a45c d43c
00000040: 06c5 ad3c e6ee cd3c bb5c 15bd d78b babb
00000050: 36a7 9cbc 7ebd a13c 18fb 5dbc e5d8 8fbc
00000060: 9dee 32bd be44 c03b 1222 04bd 1d84 af3c
00000070: 20b1 4dbc 93ce 6dbc 7cfb c93b ec19 0bbd
00000080: 3e2d 0dbd 5c22 f93c a88f 153d f356 853c
00000090: 28e2 babc 3796 2ebc d3e1 b83c 67a8 67bc
000000a0: c463 3ebd 674b f4bc 2eb5 e3bc 6b35 1fbd
000000b0: 74af 4ebc 9bb1 a8bb ff73 953b 8c0c 453a
000000c0: 9746 063d 6d65 b43b 2826 9bbc 4be5 aa3c
000000d0: 3608 dc3c 2212 30bc ee13 483d 55a0 14ba
000000e0: 55e8 c7bc 7b45 c8bc 4661 eb3c b3d7 843c
000000f0: 4180 20bd 77b4 07bd fd70 3dbc d3ef a2bc
00000100: 55d9 24bb 303a a2bc d525 ad3c 686c 903b
00000110: ca67 27bd 2f17 cfbc 3ac4 893c bef1 e0bc
00000120: 5f39 e438 1789 ffba 6097 153b 7bfe fb3b
00000130: 9d63 aa3c 5e28 263d a47d 183d cbfd 2d3d
00000140: 0464 cabc 6145 af3c e777 59bb 3d0e 8dbc
00000150: e02d d0bb b6a2 16bd 3f42 eb3c 850f 933c
00000160: fb4e ed3c 9e11 9dbb cf14 763c d74c 963c
00000170: a3c1 a6bb 805f f23c 9cf1 ffbc 64ee daba
00000180: 1eb4 24bd 5179 81bc 74d7 6f3c 6632 0cbd
00000190: bc6c 233d 305f 643d 074a 903d 17fb 793d
000001a0: 73d9 263d 8a94 683c 75bd 4abc e5f6 d93c
000001b0: d920 023d 1c06 22bc a842 833b de07 c7bc
000001c0: 9e1f 493c 875d e53c 9697 acbb 7635 32bb
000001d0: e32b 2e3c 1741 ba3c cdbb 80bc e4a3 ea3c
000001e0: 3551 d1bc ecf4 e1bb 5faf 9d3c 7459 c33c
000001f0: c709 dabc d851 89bb 6615 f63c 68db 323d
00000200: d3a2 793b 8bbb ba3b 729d 90bc 1703 753c
00000210: 1c02 303a cfef 1e3c 0c47 96bb 3d5b 473c
00000220: 5445 b2bc c5f3 b33a 19a5 d93c 4a42 53bc
00000230: adc9 aa3c 6768 833c 4f97 dbbc fc6a 72bc
00000240: c645 753c 9b43 8cbc 21bc a73c 83da 20bd
00000250: 3a09 a0bc 41c2 f9bc 7f59 5bbd 181b 1bbd
00000260: e04d 25bd 3c34 33bd 8ef3 88bc 03dc 353c
00000270: f034 35bd 7afe f73a 10b8 12bc 6d64 45bd
00000280: 333b 12bd 3941 893c f847 40bc 56db 23bd
00000290: f20e 46bd a628 ffbc e226 dd3c 8a89 f93b
000002a0: 16ab a43c d47c 1abb a21d fa3b 1f6b ae3b
000002b0: 519b 9cbc aa62 98bc 5b60 2c3c 3014 0e3d
000002c0: b9f2 ce3c 0614 d9bb 2bd9 b03b ecff 9d3c
000002d0: 836b c7bc b3e0 d83b 2c71 a4ba 6b48 163d
000002e0: 6588 51bc bcf7 f13c 0ed0 d23b 455b 9d3b
000002f0: 9b84 9b3a 269e e8bc 6296 be3c 7e88 cc3b
00000300: f88f 973c 22fe e33c 9017 453c 19fd f8b9
00000310: 36ad a73c f3cd 82bc d0b7 2dbc 1823 d0bc
00000320: 248f 03bc 6030 eb3b 630c 033d bcce dbbc
00000330: ea00 123d 5f21 2e3d 5b08 093d e93e 5cbc
00000340: c947 a0bc 15e8 253d f5ca e23c 3719 673d
00000350: 49a7 153d 0251 e73b 5a44 98bc 1560 e63c
00000360: af3c 83bb 5147 f4bb a719 b33c c46e 033b
00000370: 290a 5a3d 0cfd 6e3c 4e64 23bc 0eb5 303d
00000380: 0acd 193c 0e10 41bd bde8 14bd eecb 66bc
00000390: a298 0ebd e8ac 2cbd 2f69 d7bc 028c eabb
000003a0: ea16 4abd 9807 eebc 8e6f e2bb 2720 01bd
000003b0: 4a8f 9fbb 8d07 a5b8 bda2 23bd b1c9 efbc
000003c0: c237 19bd 481e 06bd d781 a43c e9be 543c
000003d0: cc26 79bc a66e ab3c 6f70 0b3d bd8a 34bc
000003e0: 0749 06bd 7533 db3c fc6a 933c 91b5 50bb
000003f0: e285 de3c 99bc 3a3d c96d 71bc a0d0 893c
-0.011441208 0.017145282 0.05328072 0.026968062 0.00871907 -0.032312375 -0.012355208 -0.028000418
-0.02429704 0.018972332 -0.040349048 -0.03679286 -0.047685567 -0.027382115 0.0061820545 0.02592308
0.021212112 0.02513833 -0.036465388 -0.0056929397 -0.019122701 0.019743677 -0.013548635 -0.017559478
-0.04368459 0.0058675697 -0.032259054 0.021425301 -0.012554437 -0.014514583 0.0061640125 -0.033960268
-0.034466974 0.030411892 0.036513954 0.016276812 -0.022812918 -0.010655931 0.022568619 -0.014139271
-0.046481863 -0.02982111 -0.027796354 -0.038869303 -0.0126150735 -0.0051481253 0.004560947 0.0007516823
0.032782163 0.005505255 -0.018939093 0.020861289 0.026859384 -0.010746511 0.04884713 -0.0005669643
-0.024402777 -0.024447193 0.028732907 0.016216135 -0.039184812 -0.03313109 -0.011562583 -0.019889748
-0.0025153954 -0.019803137 0.021136204 0.0044074543 -0.040870465 -0.02527961 0.0168172 -0.027459022
0.000108825734 -0.0019495812 0.0022825822 0.0076902485 0.020799452 0.04056584 0.037229195 0.042478364
-0.024705894 0.021395387 -0.003318304 -0.017218703 -0.006353125 -0.036776267 0.028718112 0.017951736
0.028968325 -0.00479336 0.01501961 0.018347187 -0.0050890013 0.029586554 -0.031243138 -0.0016703126
-0.040210836 -0.015804918 0.01463877 -0.03422775 0.03989862 0.05575484 0.070453696 0.061030474
0.04073472 0.014195571 -0.012374272 0.026606986 0.031769607 -0.009889152 0.004005749 -0.024295744
0.0122756045 0.027998699 -0.005267094 -0.002719251 0.010630581 0.022736115 -0.01571455 0.028642602
-0.025551418 -0.006895652 0.019248663 0.023846366 -0.02661599 -0.0041906647 0.0300395 0.043666273
0.0038091436 0.0056986264 -0.0176532 0.01495435 0.00067141815 0.0097007295 -0.004586106 0.012167749
-0.021761574 0.0013729265 0.026567983 -0.0128942225 0.02084812 0.016040994 -0.026805548 -0.014796015
0.014970249 -0.01712208 0.020475449 -0.03927089 -0.01953565 -0.030488135 -0.053552147 -0.037867635
-0.04035747 -0.043750986 -0.016717698 0.011099818 -0.04423994 0.0018920444 -0.008955017 -0.048191477
-0.035700988 0.016754733 -0.011735909 -0.040004097 -0.048354097 -0.031147312 0.02699608 0.007615273
0.020101111 -0.0023572939 0.007632927 0.0053228284 -0.01911703 -0.018601734 0.01052102 0.03468722
0.025262224 -0.0066247014 0.005396982 0.019287072 -0.024343258 0.006618583 -0.0012545935 0.036690157
-0.012788867 0.029537074 0.0064334935 0.00480214 0.0011865081 -0.028395724 0.023265067 0.006241857
0.018501267 0.02783114 0.0120295435 -0.00047490819 0.020468336 -0.015967345 -0.010602906 -0.025407359
-0.008029733 0.0071773976 0.031994235 -0.026831977 0.035645403 0.042512294 0.033455234 -0.013442733
-0.01956548 0.040504534 0.027684668 0.05642053 0.03653649 0.0070592174 -0.01858728 0.028121987
-0.004005037 -0.0074547906 0.021862818 0.0020055035 0.053232346 0.014586698 -0.009972645 0.043141417
0.009387264 -0.04713445 -0.03635477 -0.014086707 -0.03481353 -0.042157084 -0.026295273 -0.0071578035
-0.04933826 -0.029056355 -0.006910271 -0.031524803 -0.0048693763 -7.8692196e-05 -0.03995012 -0.029270979
-0.03740669 -0.032743722 0.020081444 0.01298497 -0.015207004 0.020926785 0.034042772 -0.011019406
-0.032784488 0.026757935 0.01799535 -0.0031846503 0.02716345 0.045590017 -0.0147356475 0.016823113

bias f4 [32]
00000000: 475b 23bc b67e aebc 0385 07bd a418 41bd
00000010: c1be 5ebd e00d f7bb f098 febd 2f13 84bd
00000020: 56be b0bd f78d e0bd c8fa 823d 10ec 293c
00000030: a03d 9cbd 4a73 c4bb 57f0 0c3d de5e 17bd
00000040: 03e9 fd3c 3030 913d bb23 f1bc 7529 6cbd
00000050: 934e cd3d 6fab fe3c 4e15 8dbc 8e6b 403c
00000060: 4528 5bbd 5352 84bd c3de 2ebd 9ad4 f9bb
00000070: 192a 893c 629d 46bd 5a0c 96bb 15f6 60bd
-0.009970493 -0.021300655 -0.033085834 -0.04714264 -0.054381136 -0.007539496 -0.12431514 -0.064489715
-0.08630054 -0.10964578 0.06395489 0.010371223 -0.076289415 -0.005995189 0.034408893 -0.036955707
0.030994898 0.07089269 -0.029435983 -0.057656724 0.100247525 0.031087605 -0.017222073 0.011744393
-0.0535052 -0.064610146 -0.04269291 -0.007624221 0.016743707 -0.048489936 -0.004579109 -0.054922182

weight f4 [64, 32, 5, 5]
00000000: 1da5 85bc a32c c4bc 0b1e 5fbb 4f9a 663c
00000010: 58d5 9fbc b8c6 043d d897 263d ad78 3cbc
00000020: ca64 f339 24c1 c8bc 91c0 f83c a63b c33c
00000030: 571e 4e3d f8d2 4d3d e0a5 45bb 25ca 873c
00000040: c411 443c e335 e73b c2ab 83bc d7ed 123a
00000050: 0187 96bc 9f59 8cbc bdee 01bb 80bf 7dbc
00000060: 3d8a 263b 4b76 23bd 9047 aa3b 3eda b8bc
00000070: 195d 6f3c 118e 0e3d 76ad 1fbc 52fa 273c
00000080: 4287 ce3c de7d 3bba 08be 6fbc 6a0d 62bc
00000090: f99a e0ba 11ee bcbc d3d6 6abc ef66 693b
000000a0: b726 3d3d 20df c53c db0f 9f3c a7ca e7bb
000000b0: fb3d 933b 08e4 e23c 0f5d bd3c 4bd5 bc3c
000000c0: 4acf edbc f708 153d c702 3ebc c76a 7dbb
000000d0: 592f 113c 494e 923c e05c 753c 18b7 85bc
000000e0: d3c9 a83c 489b a73c 6cfd d5bb 7a99 dc3c
000000f0: 4da7 00bd a368 36bd 239a 8cbc da97 383c
00000100: 3cd6 fbbb 775f ec3c 98fd 98bc 0519 2e3d
00000110: 5b1e 80b8 b4c5 00bd 860e 053d 80d6 21bd
00000120: 3963 6939 151c 783c 9bd6 883b baa4 fbbb
00000130: 6412 7abc 1503 08bd 3138 fdbc e08b 10bd
00000140: e2f5 8d3c 75c2 0b3d faab 073d 44e0 19bd
00000150: 106e a13c 879b 94bc a2c5 ad3c 8984 843c
00000160: 13d1 b0bc e6f5 82bc c534 473c ddb2 ccbc
00000170: 500c f0bc 4e23 a13a 083a 29bc 1247 243d
00000180: 203d f03b 450d f3bc e2f7 21bc 5b27 8e3b
00000190: 60bf 1b3d 748e 0cbc fa87 dcbc 7e1a 22bd
000001a0: 71c3 fd3b 9ff2 a83b f4bd 1d3d cd17 ba3c
000001b0: 0777 8f3c 51d1 9a3c cd16 11bc 6e5d 603d
000001c0: d6df 573b 8486 803c 1369 073d 342c fa3c
000001d0: 1333 2a3d 16df f13b 58db 8d3c 0fd4 8cbc
000001e0: d1d7 60bc 2890 533d f25f 92bc 804f 8a3b
000001f0: ff7e 1a3d c27d e4bc 86ed 1a3d a7bc b93c
00000200: 2b0e 94bc 3083 94bc afa5 17bd 2b35 053c
00000210: 03c4 713d 47f2 2c3d 6638 183c 1b21 90bb
00000220: 0e48 e03b c3e5 d1bc d719 1a3d 6be1 f93c
00000230: a51b b6bb e14b bebc 940b eb3c da35 80bc
00000240: fc4e b7bb 263b 29bd 839e 0abd 4d19 ddbc
00000250: d91d 50bd 46f8 283c be83 a7bc 61e4 553d
00000260: d985 743d a711 393c 01f6 293d e304 99bc
00000270: 52a7 af3c 4f96 8e3d dca3 183d 06fb 333c
00000280: 9195 5bbd a84d 46bd ed17 97bc f566 263d
00000290: 8dff 2c3d b465 2cbd 9a5f 933c e48c d4bc
000002a0: 628f 96bb 780a 90bc 8c7d b03c 0c9e e93c
000002b0: 0d86 c7bb 755a fd3c c4ab 7bbc 8764 90bc
000002c0: 49e6 adba 3701 3cbd 540f 92bb 2192 0e3c
000002d0: a5db 723d c7f0 513d c378 e33b a738 48bc
000002e0: 2584 ae3c 17c1 253c 8fef ba3b c2cb 333d
000002f0: 2030 f33c 00ae 0ebd db84 f2bc b9dd 153d
00000300: 1c7b 493d 8e6c b73b 2d95 ce3b 5e73 41bc
00000310: 8430 713c f973 40bb 0413 803c 14be 81bc
00000320: c55d 96bc 3bf5 8a3c 2669 1c3c d5c4 16bc
00000330: e787 3f3c 0ed5 debc 7cc7 a23b 1376 57ba
00000340: e9f4 2f3d 77d3 3e3d 2e4f aebc 0ac0 3fbc
00000350: a7dc 8cbc c84a cebc fd90 32bd 6d9d 62bc
00000360: 71ab 343c 0ccc 913c d5b3 22bc f698 97b9
00000370: d186 0abd 443a f63c 3631 6abb ff49 e93c
00000380: d86c bdbc 0694 9c3c b1e0 49bc e977 953c
00000390: dd7b 2a3c 6e8f b63c 7355 5abb 0f4d 75bc
000003a0: f997 abbb aeb7 353b dbdb 813b e2b0 8e3c
000003b0: 66e1 0b3d fb72 2abc c15d 8cbc b0e6 d2bc
000003c0: 438c abbc d30f 603c 900f c2bb d8d0 cd3c
000003d0: bfb3 a13c 60e1 99bc 535d 2e3b 6ec9 44bc
000003e0: 642f 513c 0409 f5bc 2fb6 fabc 3175 a7bc
000003f0: 07f6 34bd 3dd5 80bc 4c14 07bd dfa9 ff3c
-0.016314084 -0.023947066 -0.0034045007 0.014074876 -0.01951091 0.032416075 0.040672153 -0.011503381
0.00046423665 -0.02450616 0.03036526 0.023832154 0.050321903 0.050250024 -0.0030158684 0.016575882
0.011967126 0.0070559843 -0.016073111 0.0005604899 -0.018374922 -0.017132578 -0.0019826137 -0.015487552
0.0025411986 -0.039907735 0.005196519 -0.022565003 0.014609599 0.034803454 -0.009745946 0.010252552
0.02521098 -0.00071522396 -0.014632709 -0.0137971435 -0.0017136029 -0.023062738 -0.014333445 0.0035614332
0.0461795 0.024154246 0.01941674 -0.0070737186 0.0044934726 0.027696624 0.023115663 0.023050925
-0.029029507 0.036385503 -0.011597342 -0.003866838 0.008861386 0.017859595 0.014975756 -0.016322657
0.02060405 0.020459786 -0.0065304544 0.026928652 -0.03140955 -0.044533383 -0.017163342 0.011266673
-0.007685451 0.028854115 -0.01867561 0.04250433 -6.10917e-05 -0.031438544 0.032484554 -0.039511204
0.00022257575 0.015143414 0.0041759736 -0.007679549 -0.015263174 -0.033206064 -0.030910583 -0.035289645
0.01732916 0.034120996 0.033122994 -0.037567392 0.019705802 -0.018140567 0.021212403 0.016176479
-0.02158407 -0.015986394 0.012158577 -0.024987632 -0.029302746 0.0012293847 -0.010328777 0.04010684
0.0073315054 -0.029669413 -0.00988576 0.0043381876 0.038024306 -0.008578885 -0.026920307 -0.039576046
0.0077442457 0.005155876 0.03851123 0.022716427 0.017512811 0.018898638 -0.008855534 0.0547766
0.0032939813 0.015689142 0.03305919 0.030538656 0.041552614 0.0073813302 0.017316505 -0.017190961
-0.01372333 0.05165115 -0.017868016 0.004220903 0.03771877 -0.027891997 0.037824176 0.022672964
-0.018073162 -0.018128961 -0.037023243 0.008130352 0.059024822 0.04222324 0.00929079 -0.0043984777
0.006844527 -0.025622254 0.0376223 0.030502995 -0.0055574947 -0.023229541 0.028692044 -0.015650678
-0.0055941325 -0.041316174 -0.033842575 -0.026989603 -0.050809715 0.010313099 -0.020448562 0.052219752
0.05969796 0.011295713 0.041494373 -0.018679088 0.02144209 0.06962263 0.037265643 0.010985142
-0.053609435 -0.048413903 -0.018444026 0.04062553 0.0422359 -0.04208918 0.017989922 -0.025946088
-0.0045947293 -0.017583117 0.02154424 0.028517745 -0.006088978 0.030926922 -0.015360776 -0.01762606
-0.0013267483 -0.045899596 -0.0044573937 0.008701832 0.0592915 0.051255014 0.006941886 -0.012220538
0.021303246 0.010116837 0.005704827 0.04389549 0.029686034 -0.034833908 -0.029604366 0.036588404
0.049189672 0.0055976575 0.006304404 -0.011807291 0.01472104 -0.0029366 0.015634067 -0.015837707
-0.01835526 0.016962638 0.009546554 -0.009202202 0.0116901165 -0.027201202 0.004967628 -0.00082191936
0.042958174 0.046588387 -0.02127799 -0.0117035005 -0.017195059 -0.025182143 -0.043595303 -0.013831479
0.011027203 0.017797492 -0.009930571 -0.0002891493 -0.033819977 0.03005708 -0.0035734898 0.028477667
-0.02312319 0.019113552 -0.012321637 0.018245654 0.010405508 0.02228519 -0.0033315092 -0.0149719855
-0.0052366224 0.002772789 0.0039629764 0.017418329 0.034150504 -0.01040339 -0.01713455 -0.025744766
-0.020940905 0.013675648 -0.0059222654 0.025123999 0.01973903 -0.018784225 0.0026605919 -0.012010915
0.012767646 -0.029911526 -0.03060445 -0.020441623 -0.044179942 -0.01572668 -0.03297834 0.03120893

bias f4 [64]
00000000: f6f5 02bd 1987 b4bd b6e3 68ba 1e8a 32bd
00000010: 0049 5abd 1be6 f7bc 0133 88bd 71a7 e0bc
00000020: 9eb2 22bd 6118 acbc f0b9 eabc 540b 83bc
00000030: 52e2 6bbc 65c0 55bc a8e3 25bb 2181 24bc
00000040: 5e04 1ebd f152 3cbd 1949 2cbd f85c f1bc
00000050: 5303 5ebc 8074 59bd 2e28 6bbc 88b3 87bd
00000060: a58d 00bc 5265 4b3b 1132 ed3c 4871 f7bb
00000070: b4db 59bd 3508 9ab9 086a ee3c ae16 6fbd
00000080: cc40 65bd d523 56bc 7220 c2bb f8d2 fa3b
00000090: 3c1f 67bd c216 3ebc 862f 34bc 33f5 a039
000000a0: ffd8 ff3b 6dc2 87bc 0d0a 2bbc 5350 2e3c
000000b0: 7c99 52bd f118 8cbc a401 61bc 471c 5cba
000000c0: fd6d 88bc ff12 ccbb daef b4bd 28e5 7dbc
000000d0: c6c3 f2bc 4ab4 c5bc cbb1 df3b dea7 e2bc
000000e0: de1b 88bb f07d 1ebd fc0a 01bd 5fdf 9ebd
000000f0: 79ad c0bc 46a7 4c3c b0bb c43b 02c9 56bd
-0.031972848 -0.0881483 -0.0008884029 -0.04358875 -0.053292274 -0.03026109 -0.06650353 -0.027423592
-0.039721124 -0.021007719 -0.028653115 -0.015996613 -0.014397221 -0.013046359 -0.0025312696 -0.010040552
-0.038578384 -0.045977537 -0.0420619 -0.029463276 -0.013550597 -0.05308962 -0.014352841 -0.0662604
-0.007846271 0.0031035733 0.028954538 -0.007551346 -0.05318804 -0.00029379284 0.029103294 -0.05837124
-0.05597 -0.013070066 -0.005924278 0.007654544 -0.05642627 -0.011602106 -0.010997659 0.00030700266
0.0078078504 -0.016572202 -0.010439408 0.010639268 -0.051415905 -0.017101737 -0.013733301 -0.00083965476
-0.016654009 -0.0062278504 -0.088348106 -0.01549653 -0.029634368 -0.02413382 0.0068266145 -0.027667936
-0.0041537127 -0.038694322 -0.031504616 -0.077574484 -0.023520218 0.012491053 0.0060038194 -0.05243779

weight f4 [64, 1024]
00000000: a4ad 57bb 9555 963b c79c f9ba 4563 903c
00000010: b71b 6e3c dad4 d03c fd41 8cbc 0e65 333b
00000020: 2fc3 d33c 5405 e93c 2fb3 cabc e93e 13bc
00000030: 0bfc f23c 31d8 243c 9330 3c3c 68e6 933c
00000040: afaf c3bc 0bb0 793b 843d 943c fe2e 4b3c
00000050: cea5 9abc e030 0ebc bae4 9f3c 9c2c ac3c
00000060: cfac 393c db50 dfbb 4170 a7bc 7044 abbc
00000070: 74a5 e53c b286 72bc 6e68 16bb ca6c 0bbd
00000080: f915 a2bc af25 af3c 511e 7fbc 8c3f efbb
00000090: 547a 32bc d8d0 edbc dcfc 8739 d93b 51bd
000000a0: 92e6 623c 7fae 6cbc 1c65 c9bc e956 c03a
000000b0: a5ec ad3a 3b5a 2b3d 9d51 b93c 97e1 20bc
000000c0: 0b33 873b 41de ab3b ccfd cdbc 6950 e73c
000000d0: 238d 823b f9fd a5bc 73f0 813d 0385 b8bc
000000e0: 674a 8ebc ae8c 99bc a7bf 163d 900b 8f3c
000000f0: 0def a13c d626 6c3c 2ce8 2e3d 3afb a2bb
00000100: 217e b1bc edb3 803c fc71 ed3a ea0b 03bd
00000110: 07e9 31bc 6825 a2bc d5fa 7bbd 5bd1 05bd
00000120: 1ecd 313d fc95 d9bc 7893 153c 2caf 983c
00000130: 3c5b 0cbd f997 33bc 5031 413c c52a b4bb
00000140: 4a36 c5bb a0e8 9b3c 0542 a8bc e0b1 b63b
00000150: 6f5c 31bd b227 5cbd 6c1e 98bc bb9c 9d3c
00000160: 700b e03a bc93 31bc 2698 88bc 3727 cc3c
00000170: c9ff 27bd 790c 54bd 799f 273c 3f50 8abb
00000180: 8f08 113d 0e7d 1e3d 9b38 bdbb 35ff 3a3d
00000190: da0d dbbc 8e7e 6e3c 20d6 0f3d c8ae d6bc
000001a0: ffd3 ac3b 6164 b73c 9db3 b53a b4da 65bc
000001b0: 8541 12bd 77f5 3bbd a0cf dabb 9bfc ccbc
000001c0: 9859 d53c 07d9 a63c 931d c03b a752 273d
000001d0: b757 1c3d c382 b83c d941 e0bc ba8b 073d
000001e0: 3604 42bb 372c dfbb 5255 223b 7129 dabc
000001f0: d7ae 853b ae51 bc3c af0c 74bc 24e7 a63c
00000200: 019e e73b 4399 8fbc 54e6 1bbd 92ca 9dbc
00000210: ad8a 923c 381b 39bc b13c 54bb 426f f53c
00000220: 23b5 e13c b4c4 243c 1542 c23c 2ec9 c33b
00000230: 1f35 0d3b 0f35 d33c a2ae d3bb f21c 233d
00000240: 86fc a33c 915e 6e3c 4f7e 11bd 4d16 83bc
00000250: e6af 983c f284 2c3d 2ccf ce3c cb7a aabc
00000260: ecf6 b63c 4e44 7abc 5216 04bb 1a27 ce3b
00000270: 06fe b13b 5eb7 8e3c dcab 833b de6e 073d
00000280: c127 3c3b d3b7 4bb9 e33b 073b 4046 1e3d
00000290: c2f3 12bd 6588 ac3c e465 6bbc 75f1 a9bb
000002a0: ce81 9cbc 6cad f3bc ef9b 883c 5479 9c3c
000002b0: ee55 023c dd80 00bc 3f43 cbbc b1d0 f13c
000002c0: 47af 9dbc c6d1 933b 0554 043d d597 9fbc
000002d0: 3ccb acbc 90f6 7fbc f49d e13c 6324 0ebd
000002e0: 72b3 2d3d 1101 2d3d e93c bc3c 1c19 a5ba
000002f0: 9c3f e3bc 9254 5c3b 45ae b83c c699 d2bc
00000300: 02ee e13c 4cdb b93c 5ac6 04bd b416 2d3d
00000310: 469d 23bd 6f2e bb3b e993 3c3c 3965 523c
00000320: c73a 613b a88a 743c d683 7cbb 53cd 87bc
00000330: 5b5a ac3c eefa c93c 1584 e73b e587 c5bc
00000340: 94f0 f23a 5cc1 bebc 1e87 47bc 7dac 83bc
00000350: 6c5c 0c3c 1a1e 16bc 465c 0b3c 4999 60bb
00000360: d184 8cbc 1cf5 5c3d 8c5e 983a 5e31 d53c
00000370: 7ef6 17bb 79a5 36ba 28c9 1a3d 58eb d6bc
00000380: 9fba 70bb 568e 1bbc 928d f63c 92c0 2d3c
00000390: 1270 33bd 110f 71bc eb78 6b3c 6f5f 5e3c
000003a0: df3a 76bc ac0a e8bc 4193 84bc 11ec 98bc
000003b0: 7cce 633b 9df9 e03c 84ea 9ebc 3d59 a1bc
000003c0: bcc5 60bc 7b1e 06bc 35d9 3abc 0a85 093d
000003d0: 257b cd3b f5e5 ae3c 0bff df3c 2638 c7bc
000003e0: fc4c f53c 1281 413d d173 3dbb 2cc7 28bd
000003f0: b76e 4bbc 26d3 76ba 1cfa 003d e556 113d
-0.0032909894 0.004587839 -0.0019043916 0.01762546 0.014532975 0.02549212 -0.01712131 0.0027373466
0.025849907 0.028444923 -0.024743645 -0.008987167 0.0296612 0.01006131 0.01148619 0.018054202
-0.023887483 0.0038099315 0.01809574 0.0124013405 -0.01887789 -0.008678645 0.019518245 0.021017365
0.011332705 -0.0068150586 -0.020439269 -0.020906657 0.028032996 -0.014802622 -0.0022950429 -0.034039296
-0.019785868 0.021380274 -0.015571193 -0.0073012765 -0.010893423 -0.029030249 0.00025937601 -0.051082466
0.013848918 -0.0144459 -0.024584346 0.0014674339 0.0013269378 0.041834097 0.022621924 -0.00981941
0.004125958 0.0052450006 -0.025145434 0.028236585 0.00398411 -0.020262705 0.0634469 -0.022524362
-0.017369462 -0.01874384 0.036803868 0.017461568 0.019767309 0.014413556 0.042701885 -0.004973796
-0.021666588 0.015710795 0.0018115635 -0.031993784 -0.010858781 -0.019793227 -0.06151851 -0.03267036
0.043408506 -0.026560776 0.009129398 0.018638216 -0.034266695 -0.010961526 0.011791542 -0.0054982626
-0.0060184347 0.019031823 -0.020539293 0.0055754036 -0.043301042 -0.053748794 -0.018569194 0.019239774
0.0017093252 -0.010838445 -0.016674113 0.024921043 -0.04101542 -0.051769707 0.010230892 -0.004220992
0.035408553 0.03869348 -0.00577457 0.04565354 -0.026740003 0.01455654 0.035116315 -0.02620639
0.0052742953 0.022386732 0.0013862733 -0.014029194 -0.035707016 -0.04588839 -0.006677583 -0.025022795
0.026043698 0.020367159 0.0058629005 0.040850308 0.03816959 0.02252329 -0.027375149 0.033092238
-0.002960456 -0.0068106907 0.0024770093 -0.026631089 0.0040796804 0.022988167 -0.014895602 0.020373888
0.007068396 -0.017529136 -0.038061455 -0.019261632 0.017888391 -0.011297993 -0.0032384808 0.029960278
0.027552193 0.010056663 0.023713151 0.00597491 0.0021546555 0.025782136 -0.006460027 0.039822526
0.020017873 0.014548914 -0.035520848 -0.016001845 0.018638562 0.042118974 0.025245272 -0.020810505
0.022334538 -0.015275074 -0.0020154906 0.0062912824 0.0054318933 0.01742142 0.00401829 0.033064716
0.0028710219 -0.00019428068 0.002063506 0.038641214 -0.035876997 0.021061132 -0.014367554 -0.0051862546
-0.019104864 -0.02974578 0.016675917 0.019100823 0.007955058 -0.007843223 -0.024812339 0.029518457
-0.019248618 0.004511091 0.03230669 -0.019481579 -0.021093003 -0.01562275 0.027541138 -0.03470267
0.04240746 0.042237345 0.022978263 -0.0012595984 -0.027740292 0.0033619744 0.022544036 -0.02570809
0.027579311 0.022687577 -0.032415725 0.04225798 -0.03994491 0.0057123224 0.011509874 0.012841516
0.003436731 0.014925636 -0.0038530729 -0.016577398 0.021039179 0.024655785 0.007065306 -0.024112651
0.0018534833 -0.02328556 -0.012178211 -0.01607346 0.008566957 -0.00916245 0.008505886 -0.0034271053
-0.017153176 0.053944692 0.0011624857 0.026024517 -0.0023187692 -0.00069674064 0.037789494 -0.026235268
-0.0036732329 -0.009494385 0.030096803 0.010604994 -0.04380805 -0.014713065 0.014372091 0.013572558
-0.015028684 -0.028325401 -0.016183497 -0.018667253 0.0034760525 0.027462775 -0.019398935 -0.019695872
-0.013719019 -0.008185978 -0.011404325 0.03357414 0.0062707835 0.021349886 0.027343294 -0.024318766
0.029943936 0.04724223 -0.0028908143 -0.04120557 -0.012416533 -0.0009415619 0.031488523 0.03548326

bias f4 [64]
00000000: aa4d 41bc 67b4 0bbd 87cb 09bc 1ee1 373c
00000010: 55cd 08bd 9fe5 e53b d469 41bb 1704 90bb
00000020: b53b 163d 0635 8cbc 871d 33bb da2b ceba
00000030: fb85 ff3c cf48 efbc 578a 32bd 664a a03b
00000040: 7edc 8e3c 4c8d 29bc 2f72 a73c b18e cc3c
00000050: 1cae 94bc 5fe0 a9ba 1212 f63b c7a8 5d3d
00000060: a033 49bc d793 b13c 7203 07bd 17c9 bcbc
00000070: b4fc 25bd 6b8a 39bd 74c3 72bd 6707 c53c
00000080: 9b86 993c 01b8 083c 4530 26bb d4ce 223c
00000090: 6968 583a 7f65 75bc 2bb4 92bd 02b6 d33c
000000a0: 5286 923c 2b19 483c 7363 a6bc ffd1 ce3c
000000b0: dd3e 123d 5451 05bc 7f49 af38 ba25 c3bb
000000c0: 1f59 00bc dd51 913c 4e9d 9d3c b5dc 1cbb
000000d0: 5f1f bc3c cd42 b1bc be62 78bd 894a 11bc
000000e0: c486 03bc 69fb 2b3c fe14 713d 940c d5bc
000000f0: 3f9d bcbb 49c2 12bc a8d0 d63c 0db0 f3bc
-0.011798302 -0.034107592 -0.008410341 0.011223106 -0.033398945 0.0070158984 -0.0029512541 -0.004395019
0.036678035 -0.017115127 -0.0027330832 -0.0015729622 0.031191817 -0.029209523 -0.043588962 0.0048916815
0.017439123 -0.010348629 0.02044019 0.024970384 -0.018149428 -0.0012960545 0.0075094784 0.054116037
-0.012280375 0.02167694 -0.03296227 -0.023045106 -0.0405242 -0.04529802 -0.05926843 0.024051381
0.018740943 0.008344651 -0.002535836 0.009937007 0.00082553044 -0.014977812 -0.071632706 0.025843624
0.017886315 0.012213032 -0.020311093 0.025246618 0.035704482 -0.008137066 8.35834e-05 -0.005955425
-0.007833748 0.01773923 0.019240048 -0.0023935263 0.022964178 -0.021638298 -0.060641043 -0.008867868
-0.008027736 0.010496953 0.05885791 -0.026006974 -0.00575605 -0.008957454 0.026222542 -0.029747033

weight f4 [10, 64]
00000000: f67e 55bc 76a2 263d 24c9 3bbd 7179 f83d
00000010: b6af 18bd 2559 1d3e b517 49bd d453 7a3d
00000020: 5f44 0bbe a00b 003e f297 1d3d 1697 60bd
00000030: 1728 96bd 6dbe eabb 75dc e63d 621b 083e
00000040: dd43 39be 47dd a63d cfbc 27be 3064 12be
00000050: 50e0 1dbe 4673 72bd 66f0 683d 0476 513d
00000060: d13b 8e3d b1fa 1d3e 0521 30be 1e99 103e
00000070: 6471 43bd d206 023e a8a1 3f3e 231a e03d
00000080: 3b8f 43bd 9d6c 973d e2ee 8fbd c6f5 7f3d
00000090: af9f d43c 96bb ddbd ac44 2d3e ed07 86bd
000000a0: 10e2 4bbd 6138 d0bb eed3 1d3e 0c2b f3bd
000000b0: 92cd d4bd 5c94 d5bd 2c1d 09be 495f 53bd
000000c0: 4903 1f3e 7141 7a3b fdcb 6cbd ca66 66bd
000000d0: cf80 37bb bcee 3abe aa81 fa3b 410d f63d
000000e0: 75ad 483e 50fb e9bd ab53 2fbe cf00 fd3d
000000f0: d0f5 2cbe 1034 413c cafa 2abe 3e1e 873d
00000100: 422f febd 2c31 663e 0f5d 553e de9f 833d
00000110: 8fa0 073e 0411 37be 0d03 e5bd 15f7 b43d
00000120: 4f89 ed3c 9515 3ebe ccb5 8cbd f6e2 a63c
00000130: 1d7b 62be 4b5c 5abd 2886 41be f977 cd3d
00000140: 322f 19be cb89 24be 151b cbbd 3ee5 143c
00000150: 091a f2bd f6ca 46be d5db 22be 9ce3 9f3d
00000160: 9808 20be 2f0c 3fbe 3815 5bbc 84d4 363e
00000170: b448 a93d 4971 893e 0d20 38bd 007a 173d
00000180: 312c 1b3e 37e4 c23a 1bfc 85be 004d d7bd
00000190: e69d 74bd 3237 dcbd 99a0 91bd 7055 6f3e
000001a0: a7f1 1a3e bbc7 093c f42f 6bbe c688 eb3d
000001b0: 9222 b5bd 55a4 d7bd 579f 943b 2870 703c
000001c0: ac8f 7bbd 1939 ce3d cdf5 603e b07a 5ebe
000001d0: 0ae4 1cbe 1664 c3bd cf84 403e 47a0 08be
000001e0: ac65 47be 2c2c 9f3d e46b a8bd 7949 eabc
000001f0: 80a7 0b3e 5de9 17bd b83c 3ebe 088c 143e
00000200: 4919 343e 5a49 b4bd a46b 9bbd 7784 cebc
00000210: 4451 cf3d ea8f 95bd 237c 98bc dd9b 11be
00000220: 7227 203e 357c f13d 1280 183e e836 e33d
00000230: 3c07 1cbc 41db 31be e4e5 71bc 981f b13c
00000240: aa01 2a3e 0bbe 8cbd 7454 f3bd 59d2 35bd
00000250: 1532 0fbd f7d6 063e ba96 94bd 5ef4 21bd
00000260: 5a10 a2bd 6965 143e ef69 23be 74df 02be
00000270: e3d8 ab3d df15 31be ae48 01be d1ac f2bd
00000280: aa5c 8c3c 2188 31bd 7365 9fbd 611d 36bd
00000290: 3651 84bd daca 1f3e 3090 41bb b257 69be
000002a0: 88be b6bd b421 babc b377 1c3e 6ceb 203b
000002b0: 72b6 ebbd e5db 093e 68eb 083e daf7 25be
000002c0: 2ce4 163e 3720 0abc d8ea ecbd 8d63 ff3d
000002d0: 150a babc c76e 92bd e33b 3f3e 53fe a1bc
000002e0: 094b 6c3e 07ea 0e3e 005c a73d b870 e83c
000002f0: 4134 59be e35d b53d ebee d2bd 5681 10bd
00000300: 27b1 243e 567e e23b bad0 5ebc b802 783d
00000310: 7fdf 78bc 9d5b 06be bdd0 063e 948f a0bd
00000320: c563 1dbd de35 86bd 3b38 193e 747d 0cbd
00000330: e5d9 023d e242 123d cfc2 cbbb 4a54 2fbe
00000340: cd31 2c3e 4d61 09bd 54b1 b73d c5d3 b23c
00000350: 1b12 dc3d 2113 3b3e 52de b83c d874 013e
00000360: acde a43d 3e7a b7bd a04f 073d 8834 05be
00000370: 9bb4 1abe 2bd5 23ba f6e5 19be 20ce 39be
00000380: 7692 ce3d df61 1d3e f916 01bd 9791 33be
00000390: 5e3d c83d 6784 6b3d 1c28 063d 638b a53d
000003a0: 8044 f7bc 3ba1 893d 12b6 7dbb 9c52 af3c
000003b0: 904a e63c b0e0 bb3d 96fa 7c3d 2f91 31bd
000003c0: c896 99bd b83e fd3d df52 bebc 37d0 903d
000003d0: ffbc f2ba a97a f33d cdd2 b4bd aacc 743e
000003e0: 6544 e3bc 642f 293d a345 7c3d b117 893d
000003f0: 512c b5bd f81c 80bd e89c a33c 7bc8 e93c
-0.013030758 0.04068228 -0.04584612 0.12132538 -0.037276946 0.15366037 -0.049094874 0.0611151
-0.136003 0.12504435 0.038474984 -0.054831587 -0.07331865 -0.007163814 0.112725176 0.13291696
-0.18092294 0.08147674 -0.16380619 -0.14296031 -0.154176 -0.059191965 0.056869887 0.05113794
0.06945003 0.15427662 -0.17200096 0.1412091 -0.04771556 0.12697914 0.1871401 0.10942485
-0.047744017 0.07393763 -0.07027985 0.062490247 0.02595505 -0.10826795 0.16920727 -0.065444805
-0.049776137 -0.006354377 0.15412876 -0.11873445 -0.10390772 -0.10428688 -0.13390034 -0.051604543
0.15528597 0.0038185979 -0.057811726 -0.05625037 -0.002800036 -0.18255132 0.0076448517 0.12014247
0.19597419 -0.11424887 -0.1712176 0.1235367 -0.16890645 0.011792198 -0.16697231 0.06597565
-0.124113575 0.22479695 0.2083628 0.064269766 0.13244842 -0.17877585 -0.111822225 0.0883619
0.028996138 -0.1856292 -0.068706125 0.020371895 -0.22117276 -0.053310674 -0.18898833 0.100326486
-0.1495941 -0.16068189 -0.09917275 0.009087859 -0.11821372 -0.19413361 -0.15904172 0.07807085
-0.15628278 -0.18656991 -0.013371758 0.17854506 0.0826582 0.26844242 -0.04495244 0.036981583
0.15153576 0.0014869039 -0.26168904 -0.105127335 -0.059720896 -0.10752715 -0.0711071 0.23372436
0.15131246 0.008409436 -0.22967511 0.11500697 -0.088444844 -0.10529391 0.0045355964 0.014675178
-0.061416313 0.10069484 0.21968766 -0.21726489 -0.15321365 -0.09540574 0.18800662 -0.13342391
-0.19472378 0.07772097 -0.082237035 -0.028599488 0.13638115 -0.037087787 -0.1857785 0.14506543
0.1758777 -0.08803053 -0.0758889 -0.025209649 0.10122922 -0.0730284 -0.01861388 -0.14219613
0.15640047 0.11791269 0.14892605 0.11094457 -0.009523209 -0.17368795 -0.014764283 0.02162151
0.16602197 -0.06872185 -0.118813425 -0.044390056 -0.03495987 0.1316794 -0.07255311 -0.039539687
-0.07913275 0.1449181 -0.15958379 -0.12780553 0.08390977 -0.172935 -0.12625381 -0.11849368
0.01713403 -0.043342713 -0.07783022 -0.04446161 -0.06460802 0.15604725 -0.0029535405 -0.2278736
-0.0892306 -0.022721149 0.15280037 0.0024554385 -0.11509408 0.1346279 0.1337105 -0.16207829
0.14735478 -0.008430532 -0.115682304 0.1247016 -0.022709886 -0.07150035 0.18675189 -0.019774592
0.23075499 0.13956462 0.081718445 0.028374061 -0.2121134 0.08855798 -0.10299476 -0.035279594
0.16083203 0.006912033 -0.013599569 0.060549468 -0.015190004 -0.13120885 0.13165565 -0.07839885
-0.038425226 -0.06553243 0.14962856 -0.03429933 0.03194608 0.035708316 -0.0062182914 -0.17121997
0.16815872 -0.03354006 0.089693695 0.021829495 0.10745641 0.18269016 0.022566948 0.12642229
0.08050284 -0.08958863 0.03303492 -0.1300832 -0.15107958 -0.0006249721 -0.1502913 -0.18145037
0.10086529 0.15369366 -0.03151605 -0.17536007 0.0977733 0.057499316 0.032753095 0.080832265
-0.03018403 0.067202054 -0.0038713259 0.021401696 0.028111726 0.09173715 0.061762415 -0.04335135
-0.07499462 0.12365478 -0.023232875 0.07070964 -0.001851946 0.1188863 -0.088292696 0.23906198
-0.027742574 0.04130496 0.06158985 0.06693972 -0.08846343 -0.06255525 0.01997228 0.02853798

bias f4 [10]
00000000: 04fe 12be 45cf b5bd a817 6abd 9c27 85bc
00000010: f742 e73d 2c9d dcbd edd2 c4bc e5da be3c
00000020: 342c 02bd 96e5 a2bd
-0.14354712 -0.08877424 -0.057151467 -0.016254239 0.112920694 -0.10772166 -0.024026359 0.023297736
-0.031780437 -0.07953946
