project01/first_train/snn_6.pth (torch, 587335 bytes, 10 tensors)

weight f4 [32, 3, 5, 5]
00000000: 2f15 7cbd 31c6 0fbe b5fd 4fbe 5302 15be
00000010: 1d83 a43c 1708 e5bd 6df8 64bd e3a9 dfbd
00000020: 0731 613d 16c5 7abd 76b4 9f3d 3281 d93d
00000030: b1c0 863d 7f61 34bd 6842 c9bd 69f8 85bd
00000040: 5088 b33c f59c 15bd 58ea 833d 259f dc3d
00000050: 430e 063e 008c 6b3c ec0e 093e 27e6 3f3d
00000060: d373 943d 2dc7 ebbc 2e29 b7bd 6e71 1fbe
00000070: 283b 17be 243c 34bb 13e4 9cbc f96a d7bb
00000080: cff4 423d b134 50bc 4c5a 653d a3bb 043e
00000090: 3aea 263d f38a 973d 77ed 2dbd 28ab 823c
000000a0: 9fdb 803d a195 d63d a8d6 d43d cae3 013e
000000b0: 325f 193d e828 003d 14bc eb3d f59f 19bd
000000c0: 9a3a 26bd 2e48 83bd 2ecf 59bd 77b3 83ba
000000d0: fd6e 8f3d 37b5 fdbd 4fdf 17bc 05fd 6bbc
000000e0: da1e 9a3d e793 ccbd efee f33c 900c e13b
000000f0: a114 f73d d0e2 03bd 5b6e 71bd bbeb c5bd
00000100: 087c 8d3d 1ec3 083e 85a8 473d 1395 1f3e
00000110: 0485 753a 0185 20bd 5cf1 0e3e ce21 6c3d
00000120: e4f9 d23b 79ec 9d3c 2160 5f3c 4770 65bd
00000130: 4e7b 043e 75e5 aebd d5f3 5c3d 0e79 be3c
00000140: 8e74 403d bdec 3fbd 174d 033d 25e7 a8bd
00000150: 0c63 c43c 6e58 233e 8ff7 a93c a90e dbbd
00000160: 823c 2dbe b25a 033c 0066 fe3d 052f e1bc
00000170: d69d d13b 2711 c5bd b598 2b3e be60 b53d
00000180: 3e73 c13c de06 a9bd 784a 08bd e343 223e
00000190: aa44 053e b64b 2fbd b16f 133d 3726 7aba
000001a0: 12a1 f23c c48f b73d 0679 5a3d ceb2 5e3d
000001b0: f111 c93c e01d 883d b6be 953d b9f7 423d
000001c0: f7c7 33bd 005e 1ebe b85c 0f3e 529b d73d
000001d0: 2b6c a7bd 6a7e 05be 1236 0a3c 0ec8 1b3e
000001e0: 8777 93bd 4e56 3ebc 3e90 743c 117c eb3d
000001f0: 80b6 3e3d 8003 f8bd cf1a 3e3c f5e9 7dbd
00000200: 5700 cebd bfbc 8fbd 5419 88bd 2eb8 ef3c
00000210: 8087 0ebe 5a6a 09be 0d6f e4bc 73e0 cc3d
00000220: 59e5 983d 974e 3dbe aa7d 28be 2b76 343b
00000230: c754 ebbb d6e1 e5bd f332 15be 18af b0bd
00000240: 322e d83d 948a dcbd 3640 1dbe 5a17 52be
00000250: bbc2 89bc 5d12 ec3d 584f babd 86a7 cdbd
00000260: 0242 f7bc 8550 43bd 200e 0cbe 9b90 e9bd
00000270: 332b 3abd ad1b 7abc c165 bcbd 8989 a63c
00000280: d6a2 f9bc 0b3d fa3d 2922 e23d b826 77bd
00000290: ebc2 4b3c fb70 073e f38c 0e3e f598 903d
000002a0: 86a3 d63d 365b d7bd e104 c8bd 3de0 43bd
000002b0: af52 87bd f354 d9bc 4b0f 52bc ccaf dd3d
000002c0: ab13 803d 1a5f a63d 6cf6 843d 60c9 1abc
000002d0: 3786 d4bc 6144 b1bd 3abf 9ebd 5a45 233d
000002e0: f90f 85bd f3d8 973d 11f1 e73d 1cfa 843d
000002f0: e5cc b8bc ec5b 793c 5b7f c23d 0153 0b3e
00000300: 32f4 81bc 4409 0f3e ceb8 c83d 0652 0dbd
00000310: bf52 a0bd 7253 01be 545d babd f424 7b3b
00000320: 07cb 813d 14d8 96bd 7e09 02bd 8b7c f0bd
00000330: 2396 bf3d 32cb 84bd 4f4f 1ebe ea4c 0ebe
00000340: 2834 53bc 57bb 03be 6cd1 de3d 5fb6 863d
00000350: b98e 013e 0b7f 1b3d d5c5 d63d 756b 843d
00000360: ce0c 27bd 5a4a b33d 52f5 963d f0bd ce3c
00000370: 1722 debd 8928 87bd 2280 583c f002 c03a
00000380: b9a9 4d3d 8eb3 cfbd b55f 333d faee d9bc
00000390: 66f8 753d 30c0 353a dbef 843c 2bfd 45ba
000003a0: abe1 5ebd a310 143d a8bc b53d d5c2 d73c
000003b0: 0770 29be 80c6 b63d 5300 2b3d fb6a acbd
000003c0: e1d0 593c 9f25 a8bd 9f08 5a3c 481c a83d
000003d0: d679 e03d 006b 10bd 062a b23c ec0e 863d
000003e0: 44c8 a53d 4975 423d e0fc b9bc 0a89 f63c
000003f0: 869d 56bd 9208 efbc 496b b83d 838e 493d
-0.06154364 -0.14040448 -0.20311625 -0.14551668 0.020082051 -0.11183184 -0.05590098 -0.10921075
0.054978397 -0.061223112 0.07798092 0.10620345 0.06579722 -0.044038292 -0.09827119 -0.06541521
0.021915585 -0.03652664 0.06441182 0.10772542 0.13091378 0.01437664 0.13384598 0.04685035
0.07248654 -0.028781498 -0.08943401 -0.15570614 -0.1476866 -0.0027501667 -0.019151723 -0.0065740314
0.04759675 -0.012707875 0.055994317 0.12962203 0.04075072 0.07399549 -0.042462792 0.015950754
0.062918894 0.10477758 0.10392505 0.12684551 0.0374443 0.03128901 0.115104824 -0.037506063
-0.04058323 -0.064102516 -0.053176098 -0.0010047992 0.07003591 -0.123880796 -0.0092695495 -0.014403586
0.07525416 -0.09989148 0.029777018 0.0068679526 0.120644815 -0.032198727 -0.058943134 -0.09664103
0.06908423 0.13355681 0.048744697 0.15584211 0.0009365829 -0.039189342 0.13959259 0.057649426
0.0064384807 0.019277798 0.013633759 -0.05601528 0.12937662 -0.08539859 0.053943474 0.023251083
0.046986155 -0.04685663 0.03205594 -0.08247212 0.02397301 0.15951702 0.020747928 -0.106961556
-0.16917613 0.008017229 0.12421799 -0.027488241 0.0063969893 -0.09622412 0.16757472 0.08856343
0.023614522 -0.08253263 -0.033274144 0.15846209 0.13014475 -0.042796813 0.03599519 -0.00095424376
0.02961782 0.08962968 0.053338073 0.05436974 0.024544688 0.06646323 0.07311766 0.047599528
-0.043891873 -0.15465546 0.14000213 0.10527672 -0.08174928 -0.13036504 0.008435743 0.15213034
-0.072005324 -0.011617256 0.014926968 0.11498273 0.046560764 -0.121100426 0.011603071 -0.061990697
-0.100586586 -0.07018422 -0.06645456 0.029262628 -0.13918877 -0.13419476 -0.027884984 0.10003748
0.074656196 -0.18487011 -0.16454187 0.0027536254 -0.007181737 -0.112247154 -0.14570217 -0.086271465
0.10555686 -0.10768619 -0.15356526 -0.2051672 -0.016816488 0.1152694 -0.09097165 -0.10041718
-0.030182842 -0.04768421 -0.13677263 -0.114045344 -0.045451354 -0.0152653875 -0.091990955 0.020329254
-0.030473154 0.12218674 0.11041672 -0.06033966 0.012436609 0.13226692 0.13920955 0.07060424
0.10480408 -0.10515444 -0.097665556 -0.047821272 -0.066075675 -0.026529765 -0.012821029 0.10824546
0.06253751 0.08123608 0.06492314 -0.009447426 -0.025942905 -0.0865562 -0.07751317 0.03986106
-0.06497187 0.07414427 0.11325277 0.06493017 -0.022558639 0.01521967 0.094969474 0.13605882
-0.015863512 0.13968378 0.09800874 -0.03450205 -0.078282826 -0.12629488 -0.09099832 0.0038321586
0.063375525 -0.073654324 -0.031747334 -0.11742505 0.09354808 -0.06484069 -0.15459941 -0.13896528
-0.012890853 -0.12864433 0.10879788 0.06577753 0.126521 0.037962954 0.10486952 0.06465808
-0.040783696 0.08754416 0.0737101 0.025237054 -0.10846346 -0.06599528 0.013214143 0.0014649313
0.05021069 -0.10141669 0.043792445 -0.02660321 0.060051344 0.000693324 0.016227653 -0.00075526786
-0.054414432 0.03614868 0.08873874 0.02633802 -0.16546641 0.089245796 0.041748356 -0.084188424
0.0132944295 -0.08210301 0.0133077195 0.08208519 0.10960738 -0.035258293 0.021748554 0.06545815
0.08094838 0.047475133 -0.022703588 0.030094642 -0.05239632 -0.029178891 0.09004838 0.049208175

bias f4 [32]
00000000: b833 73be c790 473e 19b4 1f3c e587 85bd
00000010: 95c1 6dbe e852 a9bc 772f 1bbe cecc 04bd
00000020: 812b bebd 2954 ef3d 1ef4 16bd b7c4 a33d
00000030: c765 553e 7028 793d 3029 21be f874 1fbd
00000040: 6fe3 8bbd 2f95 3a3d d5d2 58bd a861 23be
00000050: 5e8d 54be c1af 003d a959 d43c 37f5 223e
00000060: 5c9d 98bc d8c6 333d f04c 37bd 50d1 a93e
00000070: 3a16 2bbd e3dc af3c e229 f0bd 98e7 7d3d
-0.23750198 0.19488822 0.0097475285 -0.065200604 -0.23218377 -0.020669416 -0.15154825 -0.03242188
-0.092856415 0.11685974 -0.036853902 0.07996505 0.20839606 0.06082958 -0.15738368 -0.03892991
-0.06830489 0.04555243 -0.05293544 -0.15955222 -0.20757052 0.031417612 0.02592166 0.15913855
-0.018629722 0.043890804 -0.044751108 0.33167505 -0.041769244 0.021467632 -0.117267385 0.061988443

weight f4 [32, 32, 5, 5]
00000000: 3921 43bc 40bb 573c 5c52 433d e568 b63c
00000010: 5918 e83b efc8 fdbc c53d 44bc effe e3bc
00000020: 59ae d1bc d92b 923c 1158 23bd 80e5 14bd
00000030: 03f6 3ebd 2940 e1bc 2da8 a03b 8fd2 d23c
00000040: 3266 aa3c 9897 d23c a7c7 11bd ed57 a0bb
00000050: 6623 8dbc 2e30 ab3c 69b5 48bc a833 7abc
00000060: 99ea 2bbd b936 f03b a365 f9bc 121d bf3c
00000070: cc60 28bc 5442 50bc 4e74 0c3c 131a 05bd
00000080: c913 03bd ac5e 023d 66c5 193d 1f59 983c
00000090: 04f3 acbc c006 0bbc c0a3 c93c 1158 50bc
000000a0: 05e6 39bd 0941 e3bc f20b d2bc 5461 16bd
000000b0: 1914 36bc 5520 b8bb e0c3 b43b 667b 8e3a
000000c0: dc28 083d 3c2f d53b b0f3 99bc 52a8 a03c
000000d0: 6334 cd3c 678b 43bc 306e 483d 9385 b73a
000000e0: f051 b8bc 09c6 b9bc 6916 f43c 982d 8b3c
000000f0: 4d0d 16bd 10e5 f3bc acff 06bc 0ed2 92bc
00000100: 412b 95ba 389e 9fbc 796e b43c 43d1 b23b
00000110: 521c 24bd 28cf cabc 2025 8c3c c45f e4bc
00000120: 494b f9b9 e2a3 1cbb b258 cf3a 28d5 a43b
00000130: fb4c 9c3c 07c5 233d 4e52 1a3d 3bbf 313d
00000140: 3574 dbbc 9d27 a23c df20 70bb 8f2a 84bc
00000150: f1fc acbb 00b0 19bd 383b e53c 8028 8f3c
00000160: 5490 f43c 4059 78bb 18b7 753c b32e 973c
00000170: 9929 9dbb f000 fa3c 9e3e fabc d808 02bb
00000180: 1689 24bd c5cd 71bc 0189 773c 854c 0bbd
00000190: 5bb8 173d ec50 523d fb94 883d 1158 6f3d
000001a0: ba19 233d dd25 573c 0d83 71bc 3e17 c33c
000001b0: 397b f13c b76a 30bc 94d0 ae3b b290 c1bc
000001c0: fd6b 523c 848d e63c e402 a2bb 91bf 1bbb
000001d0: d60a 2f3c 4049 be3c 1e06 7abc 1ed5 ed3c
000001e0: bb8a c8bc 2ec9 d3bb 0932 a63c 0efd cd3c
000001f0: 5afa cdbc 9793 82bb 90f2 e43c f961 293d
00000200: 0886 a93a c5c4 c23b 4184 7dbc a41f 8b3c
00000210: e70b 133b e8ad 203c 9959 8cbb 353d 5d3c
00000220: 361f a7bc cae1 4b3b 4c96 db3c 9d86 55bc
00000230: 856b b33c a2c3 8a3c 9bff cebc a7fe 59bc
00000240: ec34 853c c2c4 7ebc 2e4f b43c 33b3 1abd
00000250: 316d 93bc 5503 edbc dcf3 47bd 1614 09bd
00000260: 2849 13bd b049 26bd 7d01 71bc ea37 823c
00000270: c46e 24bd 9255 a43b b42d ccbb 822f 3abd
00000280: 6e0b 08bd 3872 983c e582 23bc 8b64 1fbd
00000290: 9215 3ebd 6881 f9bc 3448 e03c 87eb 013c
000002a0: 9c12 9d3c 8fd5 50bb e34a 983b 9ac0 1f3b
000002b0: 1c68 b4bc c560 afbc 7ce5 023c e037 0e3d
000002c0: c465 cb3c a484 09bc 37a0 8a3b 4e36 973c
000002d0: 65dc cdbc bbf3 dd3b b061 9eba 7737 173d
000002e0: 9de5 4bbc 2a71 fa3c bd90 f83b 46fc cd3b
000002f0: fdde 2a3b b987 dbbc fc83 ce3c 7637 ea3b
00000300: d00b a63c 8c51 f53c b8d0 6e3c 91ef dc3a
00000310: 4e77 b83c 0ef5 5ebc b397 edbb b06e bbbc
00000320: 533d 37bc 9061 b93b 26d3 003d 63af d8bc
00000330: 5989 103d 51b8 1f3d d39f f63c fea3 76bc
00000340: 4ff1 a0bc 3e1f 2a3d f073 e33c e11b 643d
00000350: 2829 173d 803d 133c d684 85bc b384 de3c
00000360: 1ec1 9fbb 340c 0fbc 8f27 ad3c 11f2 f73a
00000370: fce0 4f3d c502 583c 03ad 3bbc 145f 2a3d
00000380: 2ad3 f73b 087f 40bd 3dd6 0fbd 6d90 4fbc
00000390: 4aad 07bd 977d 27bd a3dc d4bc 6e17 b2bb
000003a0: 0b2e 3fbd a43f d2bc 4dab 92bb c2d7 fbbc
000003b0: 90d8 72bb 8e64 083b 1a42 19bd a993 e0bc
000003c0: a49e 17bd 4f81 03bd 4b22 b13c 6b13 6f3c
000003d0: e7ac 67bc c8de a23c c89c 0b3d c3f6 2abc
000003e0: 62df 06bd 7d14 d83c 7f8e 8e3c 248a 9abb
000003f0: b87f d13c e46f 383d 05e9 71bc 1802 923c
-0.011909776 0.0131672025 0.047685966 0.022266814 0.0070829806 -0.030979602 -0.011977618 -0.027831523
-0.02559583 0.017843174 -0.03987891 -0.03635168 -0.046621334 -0.027496414 0.0049028606 0.025735168
0.020800684 0.025707051 -0.035590794 -0.004893294 -0.017228793 0.020896997 -0.012250283 -0.015271105
-0.041971777 0.007330742 -0.030443972 0.023329291 -0.010276984 -0.012711126 0.008572651 -0.03249557
-0.03200129 0.031828567 0.03754177 0.018597184 -0.021111973 -0.008485496 0.024614215 -0.012716309
-0.04538538 -0.027740972 -0.025640462 -0.036713913 -0.01111319 -0.0056190887 0.005516514 0.0010870516
0.03324209 0.006505875 -0.018792957 0.019611511 0.025049394 -0.011935092 0.048933208 0.00140016
-0.022500008 -0.022677438 0.029795842 0.016989514 -0.03663378 -0.029772311 -0.008239668 -0.017922428
-0.0011380689 -0.019484624 0.022025334 0.005457075 -0.04006607 -0.024756983 0.017107546 -0.027877696
-0.00047549073 -0.0023901393 0.001581928 0.005030293 0.019079676 0.03998282 0.037676148 0.043395262
-0.02678881 0.01979428 -0.0036640686 -0.016133575 -0.0052791764 -0.037521362 0.02798234 0.017475367
0.029853977 -0.0037894994 0.014997266 0.018454885 -0.0047962186 0.030518025 -0.030547436 -0.0019841697
-0.040169798 -0.014758532 0.015108348 -0.03400852 0.03704105 0.051346704 0.06669041 0.058433596
0.039819457 0.013131586 -0.014740718 0.023814794 0.029477702 -0.01076763 0.005334923 -0.023628566
0.012843129 0.028143652 -0.0049441922 -0.0023765306 0.010683736 0.023228288 -0.0152602475 0.029032286
-0.024480214 -0.0064631915 0.02028753 0.02514508 -0.025143791 -0.0039848792 0.027947694 0.0413532
0.0012933621 0.005943867 -0.015473426 0.01698286 0.0022437514 0.0098070875 -0.004283142 0.013503362
-0.020400625 0.0031109923 0.026805066 -0.013032583 0.021901855 0.016938988 -0.025268367 -0.013305343
0.016260587 -0.01554984 0.022010412 -0.037768554 -0.017996402 -0.028932253 -0.048816547 -0.03346642
-0.03595844 -0.040597618 -0.0147098275 0.015895803 -0.040144697 0.0050150836 -0.006231034 -0.045455463
-0.033214025 0.018609151 -0.009979938 -0.038914245 -0.04640729 -0.030457214 0.02737818 0.007929689
0.019173913 -0.0031865572 0.004647599 0.0024376274 -0.0220223 -0.021408448 0.007989284 0.034721255
0.0248288 -0.00839344 0.004230525 0.018458512 -0.025129506 0.0067734397 -0.0012083557 0.03691813
-0.012444881 0.030571539 0.0075856135 0.006286177 0.0026072853 -0.026798116 0.02520942 0.0071477247
0.020269305 0.029946111 0.01457613 0.0016856064 0.022517826 -0.01360823 -0.00725075 -0.022879928
-0.011184054 0.0056573823 0.031451367 -0.026450818 0.035287235 0.038994137 0.030105507 -0.015053747
-0.019646315 0.0415337 0.027765244 0.05569065 0.036904484 0.008986831 -0.016298693 0.027162885
-0.0048753163 -0.008730937 0.021137027 0.0018916746 0.05075167 0.013184254 -0.011454823 0.04159458
0.0075630145 -0.046996146 -0.035116423 -0.012668711 -0.033124246 -0.040891256 -0.025984114 -0.005434922
-0.04667477 -0.025665112 -0.004475987 -0.03074253 -0.003705535 0.0020811888 -0.037416555 -0.02741416
-0.037016526 -0.03210574 0.021622797 0.014592032 -0.014140344 0.019881621 0.034085065 -0.010434809
-0.03292788 0.026376957 0.017401932 -0.0047161747 0.025573596 0.045028582 -0.014765029 0.017823264

bias f4 [32]
00000000: 7e9d 0abc a168 8abc a82c f0bc 95c4 27bd
00000010: ee44 39bd 38d7 3ebc 6436 eebd e864 80bd
00000020: 0087 9ebd ef44 c7bd 0401 7c3d 77f5 5d3c
00000030: d282 80bd 3c7d 9abb 7f2b 223d b7af f6bc
00000040: 3a71 023d e75b 8d3d 5eff d9bc 9a9d 5fbd
00000050: cc13 c23d e5e4 143d 31c9 3abc d5bd 8a3c
00000060: e8c8 3ebd 37dc 79bd 7b18 26bd 1dd7 08bc
00000070: 73e6 943c 2ff9 1fbd 0d94 b8bb 8a1c 47bd
-0.008460401 -0.016895594 -0.029318169 -0.04095896 -0.045231752 -0.011647992 -0.11631468 -0.06269246
-0.07740593 -0.09729945 0.061524406 0.013547293 -0.06274952 -0.004714636 0.039592262 -0.030113084
0.031846263 0.069022946 -0.026611026 -0.05459366 0.09476432 0.036351103 -0.011400507 0.016936222
-0.046578318 -0.06100103 -0.04055069 -0.008352068 0.018176293 -0.039056 -0.0056328834 -0.0486112

weight f4 [64, 32, 5, 5]
00000000: 084d 84bc da71 b7bc 0b7b feb9 4fdd 903c
00000010: f910 86bc c7dd e93c ae7f 1e3d 73fa 3dbc
00000020: e73d 443a ca8f cabc ee7f f23c 1552 a43c
00000030: 09b1 3a3d 1edc 443d 6886 7bbb 7f67 943c
00000040: 2aac 523c b4ab b93b 343f 8dbc 0ade 5539
00000050: 92db 84bc 4917 6ebc 29e4 993a 4c30 5bbc
00000060: 7ec8 193b 970f 1dbd f76d a53b 06d8 c4bc
00000070: b6bd 413c 54c1 063d 63b0 20bc 283c 103c
00000080: c9d4 c33c c78b 17bb edb3 86bc f93f 75bc
00000090: a9b9 79bb 3a97 c1bc 0f43 74bc 1f2c e93a
000000a0: 4765 3a3d 1654 c63c 928e ab3c d496 f4bb
000000b0: 03fa 743b 9027 e43c 5f2b bf3c 3ae0 c63c
000000c0: 866d e5bc ad1b 133d 72c3 38bc c2d2 4fbb
000000d0: f227 443c d4ef b93c afb5 963c 97e7 9abc
000000e0: d0e3 ac3c a27c a63c ee27 fabb c104 da3c
000000f0: ce71 fcbc 3b9c 2abd 2c24 82bc af4d 533c
00000100: ea45 03bc fd20 d43c 4227 d1bc 6501 0b3d
00000110: dc4c 54bb fbb2 00bd 1677 ff3c b46c 17bd
00000120: c1b5 883a 4c5c 813c 93d8 c13b b241 f3bb
00000130: 6323 77bc e593 02bd a4a9 fbbc 5f21 0dbd
00000140: 8fb3 7a3c 3cab 063d 666f 0a3d 5ad3 19bd
00000150: fb66 a43c 1caa a6bc de10 9c3c d634 813c
00000160: 49b8 afbc 0520 73bc f1fd 493c 6564 c8bc
00000170: 6792 e6bc c4f0 163b ddcb 22bc fa1b 263d
00000180: f51d da3b 2099 f2bc ee63 32bc fbcd 3b3b
00000190: 2f72 153d 0be3 1fbc 97fa debc adf2 1ebd
000001a0: e59c c73b b7d1 5e3b fc3e 163d d6e9 bd3c
000001b0: 9fb4 9d3c 5ad7 843c 96f2 2ebc 4ac2 543d
000001c0: 228b e93a 6cbd 8a3c 4b34 033d ede4 e93c
000001d0: 9b54 243d 284a b43b 43af 893c fb94 9cbc
000001e0: ff52 83bc cae0 513d dba4 88bc b599 c63b
000001f0: 4963 143d fc38 d2bc 6e15 1c3d 4f0e bb3c
00000200: 6173 9cbc 34a7 95bc e07e 18bd 14e0 cb3b
00000210: b175 643d a317 233d 0a43 153c acb3 6dbb
00000220: a0e9 0d3c 17ee c6bc 1524 1b3d 3d09 e93c
00000230: fd7a fabb a13f cebc 0a0c de3c 040b 77bc
00000240: bbc9 dabb e1ec 27bd c687 07bd 3a77 c9bc
00000250: adfe 46bd 9c0b 2b3c 0019 8cbc f4c5 543d
00000260: fb0b 793d 0409 673c 8b9e 313d 021c 97bc
00000270: 639a 9e3c c59f 863d 7485 133d e1e2 413c
00000280: 981b 59bd 1f3e 35bd 4273 8bbc 4861 213d
00000290: 8e2e 193d 85f1 39bd 4931 5d3c 3f8f 00bd
000002a0: 4abf bebb 4665 9bbc adb7 a63c 248b db3c
000002b0: 844e 0cbc d12d 003d 1f5c 54bc 38c8 a6bc
000002c0: 985f 9cba 7020 32bd 6b78 eaba aae7 1e3c
000002d0: 70a9 5e3d cae2 4c3d 86d2 c33b 1f2c 76bc
000002e0: 249b 8c3c 9f05 c73b fa0a 1eba c63f 1b3d
000002f0: 8b8e f53c 9680 08bd c9e3 f2bc 70ae 183d
00000300: 4b25 443d 128c 9f3b e5a2 c33b 8d5a 49bc
00000310: 338b 6c3c f718 69bb 72ec 6f3c 110a 83bc
00000320: ac49 9ebc a97b 8f3c 6bea 2f3c 67c2 07bc
00000330: e77d 3e3c 716f d0bc a1c6 fd3b 59d2 af3a
00000340: 59a1 343d ed59 3a3d 2615 b8bc e9bc 61bc
00000350: 3202 9ebc 5fa8 bebc afca 24bd 25b1 73bc
00000360: fb27 353c a0e4 833c c65a 34bc a0ab 02bb
00000370: daa4 11bd ce59 e63c 49fa a5bb 9dc3 ec3c
00000380: 118a b1bc d964 a93c 80c9 2ebc 1420 a23c
00000390: 0713 4b3c 5350 be3c 1e99 d33a 4fd2 4bbc
000003a0: ed48 54bb e7e8 ec3b 67d4 fd3b a4f7 a53c
000003b0: 68b9 0d3d 0bbd 43bc 2105 7dbc 435d c3bc
000003c0: d098 b1bc ba90 5b3c d0b0 04bc 18d0 c93c
000003d0: 608a 933c 8f7c 91bc 2491 953a 6857 56bc
000003e0: bab3 6d3c e25d ebbc df09 f5bc 55c1 9abc
000003f0: 96ef 2dbd c334 88bc 3372 0cbd c432 043d
-0.016150013 -0.022393156 -0.0004853833 0.017683653 -0.016365515 0.028548134 0.038695984 -0.011595356
0.0007486031 -0.024726767 0.029602017 0.020058671 0.04557899 0.048061483 -0.0038379673 0.018115757
0.01285843 0.0056662206 -0.017242052 0.00020395979 -0.01621798 -0.014531919 0.0011740971 -0.013378214
0.002346545 -0.038344946 0.005048509 -0.02402879 0.011825016 0.032899216 -0.009807679 0.008803405
0.023905175 -0.0023124085 -0.016443217 -0.014968866 -0.0038105047 -0.02363168 -0.014908566 0.0017789638
0.04550674 0.024210017 0.020942006 -0.007464269 0.0037380464 0.027850896 0.02333611 0.024276841
-0.028006326 0.035915066 -0.011277067 -0.0031711315 0.011972414 0.022697367 0.01839718 -0.018909259
0.021104723 0.020323101 -0.0076341545 0.026613595 -0.030815985 -0.0416529 -0.015886389 0.012896939
-0.008012274 0.025894636 -0.025531415 0.033936877 -0.0032394445 -0.03142069 0.031184714 -0.0369689
0.0010430143 0.01579108 0.0059157102 -0.007423603 -0.01508412 -0.031879324 -0.03072054 -0.034455653
0.015301599 0.032878146 0.033797644 -0.037555076 0.020068636 -0.020344786 0.019051012 0.015772264
-0.021450179 -0.014839177 0.012328611 -0.024461934 -0.028145982 0.002303169 -0.0099363 0.040554024
0.006656403 -0.029614031 -0.010888083 0.002865671 0.036485847 -0.009758721 -0.0272191 -0.038805652
0.0060917013 0.0033999512 0.03668116 0.02318279 0.019251166 0.016215969 -0.010677954 0.0519431
0.0017817954 0.016936027 0.032032292 0.028551543 0.04011975 0.005502004 0.016807204 -0.019114008
-0.016030787 0.051239766 -0.016680172 0.006060804 0.0362275 -0.025661938 0.038106374 0.022833971
-0.019097986 -0.018268205 -0.037230372 0.0062217806 0.0557763 0.039817464 0.009110222 -0.0036270423
0.008661658 -0.024283452 0.037876207 0.028446788 -0.007644056 -0.025176825 0.02710535 -0.01507831
-0.00667688 -0.04099739 -0.033088468 -0.024592984 -0.04858272 0.01043978 -0.017101765 0.051946595
0.06080244 0.014101271 0.04336409 -0.018445972 0.019360727 0.06573442 0.036015943 0.011833877
-0.05300483 -0.044248696 -0.017022733 0.039399415 0.037397914 -0.045396347 0.01350052 -0.03138661
-0.0058211433 -0.01896919 0.020351255 0.026799746 -0.008563641 0.031293694 -0.0129614165 -0.020359144
-0.0011930345 -0.043487966 -0.001788867 0.009698788 0.054360807 0.05002097 0.005976024 -0.015025168
0.01716382 0.006073668 -0.00060288573 0.037902616 0.029975196 -0.033325754 -0.029649632 0.03727573
0.047887128 0.0048689926 0.0059703463 -0.012289655 0.014437485 -0.0035567859 0.014643775 -0.015996011
-0.019322239 0.01751502 0.010737042 -0.008286095 0.011626697 -0.025443764 0.0077446257 0.0013414129
0.044099186 0.045495916 -0.022471022 -0.01377795 -0.019288156 -0.023273645 -0.040232357 -0.0148737775
0.011056895 0.016100228 -0.01100797 -0.0019938722 -0.035557605 0.028118994 -0.0050652367 0.02890187
-0.02167228 0.02067797 -0.0106681585 0.019790687 0.012394673 0.023231661 0.0016143655 -0.012440278
-0.00323921 0.0072299126 0.0077462676 0.020259686 0.034600645 -0.011946927 -0.015443117 -0.023848182
-0.021679312 0.013401205 -0.008098796 0.02463536 0.018010318 -0.01775959 0.0011411053 -0.013082363
0.014508182 -0.02873129 -0.029911933 -0.018891016 -0.042464815 -0.016626721 -0.034288596 0.032274976

bias f4 [64]
00000000: 13f3 e0bc 297f adbd f651 b63a 8888 21bd
00000010: cb64 54bd f2d6 f9bc 9d9a 76bd aab5 d9bc
00000020: 8838 24bd cce6 9fbc cb2e e8bc d2bf 4bbc
00000030: b352 81bc 8481 42bc db61 65ba 58fc 31bc
00000040: e413 12bd 3326 34bd f25e 26bd d5b0 dcbc
00000050: 5948 4bbc 1d3d 5cbd d93c 16bc 01e8 80bd
00000060: 7a78 cbbb e619 c63b ed88 093d 2400 e9bb
00000070: 4c79 50bd bff9 1c3b a85d f33c b72e 69bd
00000080: e85f 63bd eba4 1bbc 3abd 48bb db83 3b3c
00000090: 3fa7 52bd eba4 2ebc 317a e8bb 25e5 173b
000000a0: f9ec 213c 531c 6bbc 1a55 00bc 5731 6c3c
000000b0: 5867 3dbd d08a 45bc 7c21 45bc 6d47 e339
000000c0: 4f81 96bc 945b c8bb 8361 b1bd 0b18 3fbc
000000d0: 4f46 d7bc 098f b0bc 1bc7 293c 4f45 ccbc
000000e0: 8898 88ba c7c5 0dbd cb4d fbbc c814 93bd
000000f0: 1a07 abbc 494c 6c3c 1156 1e3c e225 4bbd
-0.027459657 -0.084715195 0.0013909924 -0.039436847 -0.051853936 -0.030498002 -0.060206044 -0.026575882
-0.040092975 -0.019519232 -0.028342625 -0.01243587 -0.015786504 -0.011871699 -0.00087502383 -0.010863386
-0.0356635 -0.043981742 -0.04061789 -0.026939789 -0.012407386 -0.05376922 -0.009169781 -0.06294251
-0.0062094303 0.006045568 0.03357785 -0.0071106125 -0.050896928 0.0023952571 0.029707745 -0.056929316
-0.055511385 -0.009499769 -0.0030630366 0.011445011 -0.05142903 -0.010659437 -0.0070946445 0.0023177352
0.009883159 -0.014350015 -0.00783279 0.01441606 -0.046241134 -0.012057021 -0.012031909 0.0004335003
-0.018372206 -0.0061144326 -0.08661177 -0.011663447 -0.026278643 -0.02155258 0.010362412 -0.024935393
-0.0010421434 -0.034612443 -0.030676743 -0.07181698 -0.02087741 0.014422485 0.0096640745 -0.049596675

weight f4 [64, 1024]
00000000: e3d9 a8bb 9864 473b 4ec8 6eba 73b6 8c3c
00000010: c374 653c 9aa0 cf3c 1d36 56bc 1dd4 8f3b
00000020: 3068 d33c 2942 eb3c e8ea cebc 8f84 e3bb
00000030: 8faa eb3c 3d75 0d3c c0e0 0e3c eb3b 953c
00000040: f649 c0bc ea1a 283b 4e44 973c ad40 553c
00000050: c105 8abc 7a39 b6bb 9e93 af3c 0d50 be3c
00000060: a32b 3a3c e6f6 dcbb 223c a0bc 51dc b0bc
00000070: 6fd3 e83c c7c7 3ebc af5d 0d3b 1ad2 f2bc
00000080: c299 afbc ab8c ab3c 36e3 6cbc 1173 eebb
00000090: c03f 2dbc 04a0 efbc 845a 80b9 39b1 48bd
000000a0: 79d9 883c 3425 5cbc 20cf b9bc 75a1 8b3b
000000b0: 78f4 6d3b ad70 293d 03c0 bc3c 9366 06bc
000000c0: 7044 e03b e1b4 393b 08f0 c5bc 78df ed3c
000000d0: f608 ed3b 488e a9bc 08a6 733d 76a2 a3bc
000000e0: 7cc7 6abc 9f4d 83bc 765f 133d f479 a13c
000000f0: 92b1 b13c e76f 3c3c 926f 2c3d 4c9e 39bb
00000100: 61fa b3bc 2214 883c 274d 073b 501a 02bd
00000110: 7e32 46bc 941e a9bc e850 6fbd 4abe 04bd
00000120: 06d2 2c3d db6c dfbc 7c98 313c b621 a63c
00000130: 2736 0dbd 7b99 38bc 345f 4b3c 84ad 81bb
00000140: 08d7 88bb 58d6 9d3c add4 a6bc dc40 dc3b
00000150: 430c 31bd c44f 3cbd f300 88bc 5ac4 a33c
00000160: 7796 08bb 397b 39bc 068c a1bc b225 a83c
00000170: ef2c 1ebd 68d3 48bd 88d7 4a3c 18d8 a7bb
00000180: 9a62 063d d31a 0d3d f8f5 b9bb 5440 363d
00000190: 5d76 e4bc 451d e93b 760d 053d b007 e7bc
000001a0: 3c0a 063c e1c9 bd3c 20ed 1e3b 41a6 64bc
000001b0: 582d 07bd a55f 32bd 15a1 63bb 29d9 c7bc
000001c0: a086 ca3c 7b23 913c a252 703b 77ab 213d
000001d0: aa1c 183d 38b0 ac3c 59d6 cdbc 8449 053d
000001e0: f119 22bb 6828 10bc 96b2 783b f589 cebc
000001f0: b738 a43b 75a6 b83c ea74 6fbc 46ef ae3c
00000200: 8228 aa3b 63d4 79bc e1cd 0abd c9d5 9abc
00000210: 82b3 823c 64ce 2bbc c139 40bb 776b e83c
00000220: d794 d23c 751e 0e3c 11f4 c93c 0a94 c63b
00000230: 2ab1 673b 6085 d33c 32b7 92bb 546a 203d
00000240: 6faf a33c ee78 673c 17ad 0abd 34ed 90bc
00000250: 4ca5 993c 4763 213d 42e7 da3c 9f0a b1bc
00000260: fedb b53c f8c7 7abc 36f4 55ba 24ae 453b
00000270: f6fd d13b d8ba 8f3c 2b5a 983b 05a2 073d
00000280: f4e0 0a3b 69e9 0dbb 647a df3a cb01 1c3d
00000290: 9932 0dbd 9e78 a83c bede 51bc 26d4 acba
000002a0: 9640 8dbc 205e febc 1b56 7b3c 2525 963c
000002b0: 0dab 0d3c d72f 21bc 838c c9bc c077 ff3c
000002c0: eabb a0bc da09 db3b cbc6 033d a459 a5bc
000002d0: c845 aabc e366 7bbc b2a6 f03c d49d 05bd
000002e0: 6c4f 283d 078c 2a3d 5fb6 bb3c e021 36bb
000002f0: 387c ddbc 8dc1 343b ef49 b53c d138 d8bc
00000300: 1a4f db3c 6ae8 b83c 406f fabc 4a93 2a3d
00000310: 3215 23bd c530 5b3b 5846 543c 1b7a 583c
00000320: 37dc dd3b 6491 9d3c 74cd cbba 7733 5dbc
00000330: 0b78 bb3c a74f c43c 0e16 be3b 2903 bbbc
00000340: 29f9 3c3b 8f22 a7bc 4db9 2cbc e26d 76bc
00000350: 685e f23b ee05 05bc bab9 263c 3d9c 18bb
00000360: c903 93bc 1934 533d d2d1 78ba 9be8 d83c
00000370: 5edf 53ba 7f48 de39 409c 1b3d fc99 d5bc
00000380: ce5a 6cbb e154 f1bb 1c6e fd3c eb94 203c
00000390: 6d93 2fbd bde8 51bc 6c6a 6c3c 02cd 543c
000003a0: 82e9 7ebc 9c3b c7bc 269a 80bc 9f4b a4bc
000003b0: 4e91 303b c89e e43c ed7c a3bc 9331 a4bc
000003c0: 598a 60bc 1314 2bbc 7aff 59bc 07ac 0a3d
000003d0: 5606 f53b 637a bf3c 7818 ef3c b58e b5bc
000003e0: e3cd ec3c d62e 463d ba4b 5cbb a5b0 1ebd
000003f0: a4b7 35bc c323 7eb9 fd73 fc3c b73c 113d
-0.0051529272 0.0030424949 -0.0009108827 0.017176842 0.014004889 0.025345135 -0.013074425 0.0043892995
0.025806516 0.028718071 -0.025258496 -0.0069432925 0.028767852 0.008633909 0.008720577 0.018217048
-0.023472767 0.0025650808 0.018465187 0.013015908 -0.016848447 -0.005561051 0.021432694 0.02323153
0.011362943 -0.0067433 -0.019559924 -0.02158943 0.028421132 -0.01164431 0.0021570732 -0.0296412
-0.021435622 0.0209411 -0.014458468 -0.0072769006 -0.010574281 -0.029251106 -0.00024481502 -0.048997138
0.016705262 -0.013436604 -0.022681773 0.0042611905 0.0036309045 0.04136722 0.023040777 -0.008203167
0.006844096 0.0028336572 -0.024162307 0.029037222 0.0072337342 -0.020697728 0.05948451 -0.019974928
-0.014329787 -0.016028224 0.03597971 0.019711472 0.021691117 0.011501289 0.04209859 -0.0028323112
-0.021969976 0.016611163 0.0020645352 -0.031763375 -0.012096999 -0.020644464 -0.058426768 -0.032408036
0.04219248 -0.027273586 0.010839578 0.020279747 -0.03447547 -0.011267061 0.012412835 -0.0039574523
-0.0041760243 0.019267246 -0.020365084 0.006721599 -0.043224584 -0.045974508 -0.016602015 0.019991089
-0.0020841637 -0.0113208825 -0.019720089 0.020525787 -0.03861707 -0.049029738 0.012380488 -0.005122196
0.032808878 0.03444941 -0.0056750737 0.04449494 -0.027888471 0.007114085 0.03248354 -0.028201908
0.008181151 0.023167552 0.0024250224 -0.013955654 -0.033002228 -0.043548245 -0.0034733464 -0.024395542
0.024722397 0.017717114 0.0036670347 0.039470162 0.03713671 0.021080121 -0.025126623 0.032540813
-0.00247347 -0.008798696 0.0037948242 -0.025212267 0.0050116437 0.02254031 -0.014615277 0.021354329
0.005192817 -0.015248391 -0.033887748 -0.018900769 0.015954737 -0.010486219 -0.00293313 0.028371556
0.025705738 0.008674254 0.024652513 0.006060128 0.00353534 0.025820434 -0.004477405 0.039163902
0.019981114 0.014127953 -0.033856478 -0.017691232 0.018755578 0.03940132 0.0267216 -0.02161151
0.022199627 -0.015306465 -0.00081616954 0.003016361 0.0064084483 0.017545149 0.0046494207 0.0331135
0.0021191211 -0.0021654016 0.0017050025 0.038087647 -0.03447208 0.020565327 -0.0128094535 -0.0013185784
-0.017242711 -0.031050742 0.015340353 0.018328259 0.008646739 -0.009838066 -0.024603134 0.031185031
-0.019620854 0.006684524 0.032172006 -0.020184346 -0.020785227 -0.015344354 0.029376362 -0.03262122
0.041091368 0.041637447 0.02291411 -0.0027791187 -0.027036771 0.0027581186 0.02212998 -0.02639428
0.026771117 0.022571761 -0.030570626 0.041644372 -0.039815135 0.0033445817 0.012956224 0.013212706
0.0067706364 0.019234367 -0.0015548901 -0.01350104 0.02288439 0.023963762 0.005800969 -0.022828655
0.0028835034 -0.020402221 -0.010542226 -0.015040847 0.007396508 -0.0081190895 0.010176117 -0.0023286485
-0.01794614 0.051563356 -0.0009491715 0.026478102 -0.00080822955 0.00042397153 0.03799081 -0.026074402
-0.0036064866 -0.0073648547 0.030936293 0.00980113 -0.042865206 -0.012811837 0.01442967 0.012988331
-0.015558602 -0.024320416 -0.015698504 -0.02005559 0.0026942077 0.027907744 -0.01995703 -0.02004317
-0.01370486 -0.010441798 -0.013305539 0.033855464 0.007477562 0.023373788 0.029186472 -0.022162775
0.028906768 0.04838451 -0.0033614472 -0.03874268 -0.011091147 -0.0002423665 0.030817026 0.035458293

bias f4 [64]
00000000: 0706 39bc 3f18 0fbd a8e4 e4bb 4f8f 293c
00000010: 5478 ffbc 94f1 ab3b 36f7 a1bb 2fc4 bebb
00000020: 1813 133d 6cd4 87bc b016 00bb d84f 4fba
00000030: bd5f f53c 2ce7 fabc 9218 36bd a2bc ae3b
00000040: abae 9a3c 4bb8 2abc 1452 a03c b4f2 c93c
00000050: ae10 96bc 7618 cb38 6443 073c bca4 563d
00000060: 983a 55bc 34a2 a53c a407 00bd 0d42 bbbc
00000070: f130 1dbd ca75 32bd 28a7 6fbd bae1 b13c
00000080: d352 a03c 7c88 1b3c 68cd 3cbb b22d 153c
00000090: 8f8d 8139 1f16 4bbc 92e4 90bd 946f ca3c
000000a0: 86ed 903c ecdc 603c 4c71 9bbc 53e8 ca3c
000000b0: 935d 103d 4fd0 d8bb 46ee 8c3a b389 acbb
000000c0: 3fd3 16bc 1020 9b3c e206 8f3c cfcb 61ba
000000d0: 6f36 b53c abba b7bc 1cbf 6cbd 8571 1cbc
000000e0: f6c3 fdbb be53 2c3c 641d 703d a64f cbbc
000000f0: 528f a0bb 4880 02bc 905d db3c 089b debc
-0.011292941 -0.034935232 -0.0069852658 0.010349109 -0.031185307 0.005247304 -0.0049428 -0.0058217268
0.03590688 -0.016580783 -0.0019544773 -0.0007908321 0.029952878 -0.03062781 -0.044457026 0.0053325454
0.018882116 -0.010419915 0.019570388 0.024651863 -0.0183185 9.6843505e-05 0.008255813 0.052403197
-0.013014458 0.020218946 -0.031257287 -0.022858644 -0.038376752 -0.043569364 -0.058509022 0.02171408
0.019570744 0.00949299 -0.0028808955 0.009105133 0.00024710267 -0.012395411 -0.07074846 0.024711408
0.017691385 0.013724547 -0.018974923 0.024768984 0.03524549 -0.006616629 0.0010752163 -0.0052654385
-0.009205638 0.018936187 0.017459337 -0.00086134387 0.022120683 -0.022427877 -0.057799444 -0.00954855
-0.0077443076 0.010518013 0.05862178 -0.024818253 -0.0048998976 -0.007965155 0.026778013 -0.027173534

weight f4 [10, 64]
00000000: 3944 6cbc 9c2e 323d 2250 17bd fcd2 f13d
00000010: bb72 17bd 44f9 193e c42e 2abd 8dab 7d3d
00000020: 4846 04be 613b e93d 8695 ff3c c6f4 4dbd
00000030: da58 90bd 39cb 95bb 4f17 e23d 94a1 093e
00000040: 9e17 36be 1966 9a3d 1e63 23be f01d 08be
00000050: 8635 1ebe 0cfa 74bd 708b 4e3d 5a2e 433d
00000060: 660d 893d 6c4f 183e 9d87 2ebe f9cd 0c3e
00000070: c0f4 3dbd 67e4 003e 882b 383e 820f de3d
00000080: 39e5 35bd 6f9e 883d f6a2 8cbd 775f 803d
00000090: ee15 bc3c f276 e4bd 36e0 2a3e 5877 63bd
000000a0: 628f 42bd ca8b e2bb 113d 123e 03f0 e6bd
000000b0: dc6d ccbd e406 dfbd d5d9 04be 4fbd 50bd
000000c0: 96d2 1a3e 2e19 a93b 8708 5dbd 3b3d 80bd
000000d0: fff8 613b 7446 30be 82f8 223b 67b0 eb3d
000000e0: 73a7 3b3e cf65 e1bd bb58 2bbe 667f eb3d
000000f0: 36cd 26be 02fe 063c 9a7a 2abe 1b6b 723d
00000100: 101d ecbd 095e 603e 9104 503e 9dcc 7c3d
00000110: 5293 063e 1b2b 28be 4404 dbbd f483 ab3d
00000120: 6476 ed3c 11e4 32be 06d2 74bd 57f9 a43c
00000130: df6d 5ebe d067 49bd adaa 3fbe 62e2 ce3d
00000140: 20d9 15be f43d 1ebe d78a c2bd 3fa3 0b3c
00000150: 5107 e8bd 47ac 3cbe 9c2d 17be 32ff 943d
00000160: 26ff 16be bbb1 39be 627d 8cbc 560b 313e
00000170: fded a73d bcee 833e adfc 2ebd 4c0c 0e3d
00000180: 4c99 153e 9da1 073b ecb6 82be e0bd d1bd
00000190: 6671 6bbd 4595 d8bd 5248 82bd e3e6 663e
000001a0: 113b 113e bef2 f03b eb76 5ebe d176 e23d
000001b0: 3997 b3bd 68a0 d3bd bb03 983b 5b5d 3d3c
000001c0: a337 69bd 9928 c43d 0ec6 523e d524 51be
000001d0: 15c9 15be 0148 c4bd e7a5 3a3e d625 00be
000001e0: 58c3 3cbe b9c9 a13d 02c0 a3bd cfbc c9bc
000001f0: 5b67 fe3d c505 08bd e9bd 34be 5926 123e
00000200: a319 2e3e 84cb 9fbd 1e51 84bd 0b34 a9bc
00000210: e635 c83d ee14 9abd 7d37 a4bc 787e 04be
00000220: b5f3 1a3e 85c7 e23d 5b40 0e3e 2cb0 d53d
00000230: 3607 1cbc 2881 26be b673 37bc def9 863c
00000240: b57f 1f3e 2487 8fbd 15b0 e5bd 2add 29bd
00000250: 8903 08bd 8b90 fa3d c3e7 9cbd 6d1d 22bd
00000260: 7135 9ebd b411 103e 56f9 1dbe 3e8e fabd
00000270: de09 a93d 8661 23be 2091 febd fec5 f2bd
00000280: f1d1 563c 49c9 2dbd 2a4f a2bd 0972 22bd
00000290: 6f05 8cbd f677 163e dd84 48bb 5092 5fbe
000002a0: 9131 b1bd d204 d3bc 1097 183e f6d4 5f3b
000002b0: 185d e2bd ca92 013e c36d 023e 9d45 1bbe
000002c0: 025f 0a3e 99e6 f2bb db90 e8bd fa39 ee3d
000002d0: b8b4 d7bc fd84 87bd d6ee 383e 583b d9bc
000002e0: 8894 603e ea30 103e 02aa a03d adcf e63c
000002f0: d054 4fbe 23dd b53d abdf cdbd eeec 02bd
00000300: c0da 203e 2f48 b13b 5021 4fbc f092 723d
00000310: 7297 40bc 74db 0bbe 19ed 043e e3e3 9ebd
00000320: d694 0ebd 052f 8cbd e6b9 173e ef59 febc
00000330: 3d7f 073d f351 053d 8bd7 35bc c018 2fbe
00000340: 2d31 2b3e cf46 12bd e5d2 b23d dd46 d23c
00000350: e491 d93d e0ab 373e 40d7 903c fc28 013e
00000360: f052 983d 0e8f babd 49e2 063d f347 09be
00000370: c1dc 14be d2d0 9eba 1b3c 1dbe f883 39be
00000380: 465a cd3d 672c 1b3e e028 09bd bac4 33be
00000390: 03e4 c13d c909 783d b301 003d 33a2 9f3d
000003a0: 5d72 edbc 018d 893d 0e23 eabb 7ff7 c73c
000003b0: aa0f c03c cefc be3d d130 833d d25a 2abd
000003c0: 604b 98bd cd78 f63d 533b a2bc 04b2 893d
000003d0: 146b e0bb 8091 f03d 0635 a9bd 4453 6c3e
000003e0: 5392 c9bc 1ffa 373d 8661 7c3d 3356 8b3d
000003f0: 1015 afbd c9de 6fbd 6452 983c 18f1 e13c
-0.014420562 0.04350148 -0.036941655 0.1180782 -0.03697465 0.15036494 -0.041548505 0.06193118
-0.12917435 0.11388279 0.031199228 -0.050282262 -0.07048197 -0.004571345 0.11039602 0.13440543
-0.17782447 0.07539005 -0.15955779 -0.1329267 -0.15450105 -0.059808776 0.050425947 0.047651626
0.06692009 0.14874047 -0.1704392 0.13750447 -0.04637599 0.12587129 0.17985356 0.10842802
-0.044408057 0.06670844 -0.0686702 0.062682085 0.022959676 -0.111554995 0.16687092 -0.055533737
-0.04750002 -0.006913637 0.14281107 -0.11276247 -0.099818915 -0.10889986 -0.12973721 -0.05096179
0.15119395 0.0051604724 -0.05396321 -0.06261679 0.0034480689 -0.17214376 0.002486736 0.115082555
0.18325596 -0.110057466 -0.16733067 0.11498909 -0.1628922 0.008239271 -0.16648331 0.059184175
-0.11528981 0.21910872 0.20314242 0.061718572 0.13142136 -0.16422693 -0.10694173 0.083747774
0.028987117 -0.17469813 -0.059770606 0.020138426 -0.217216 -0.04917127 -0.18717451 0.10101773
-0.14633608 -0.1545332 -0.09499138 0.008522808 -0.113295205 -0.18425094 -0.14763492 0.07275237
-0.14745769 -0.18134205 -0.017149631 0.1728948 0.081996895 0.25768077 -0.04272144 0.034679696
0.1460926 0.0020695694 -0.25530183 -0.10241294 -0.057481192 -0.10575346 -0.0636145 0.22549014
0.14182688 0.007353156 -0.21725051 0.11057819 -0.08769078 -0.103333294 0.0046391166 0.011557902
-0.056937825 0.09578056 0.20583364 -0.20424207 -0.14627488 -0.09584046 0.18227349 -0.12514433
-0.18433893 0.07899804 -0.07995607 -0.024626164 0.12422057 -0.033208627 -0.1765057 0.14272441
0.17001967 -0.078024894 -0.064607844 -0.020654699 0.09775905 -0.07523523 -0.02004599 -0.12938869
0.1513203 0.110732116 0.13891737 0.10433993 -0.009523204 -0.16260207 -0.011197021 0.016476568
0.1557606 -0.07008198 -0.112152256 -0.041470684 -0.033206496 0.12234601 -0.076613925 -0.039578844
-0.07725037 0.14069253 -0.15427145 -0.12234162 0.08253835 -0.15955171 -0.12430024 -0.1185417
0.013111577 -0.04242829 -0.079252556 -0.039659534 -0.06836974 0.14694199 -0.003059677 -0.21833158
-0.08652032 -0.025759134 0.14901376 0.0034154034 -0.110529125 0.12653652 0.12737183 -0.15163274
0.13512805 -0.0074127433 -0.11355754 0.11632152 -0.02633129 -0.066171624 0.18059859 -0.026517555
0.2193166 0.14081159 0.078449264 0.0281752 -0.20247197 0.08880069 -0.10052427 -0.031964235
0.15708447 0.0054102163 -0.01264222 0.05922216 -0.011754857 -0.13657933 0.1298107 -0.0775831
-0.03480991 -0.06844906 0.14817008 -0.031048743 0.03308033 0.032548856 -0.011098753 -0.17099285
0.16717978 -0.03571206 0.08731631 0.025668556 0.106235296 0.17936659 0.017680764 0.1261329
0.07437694 -0.09109317 0.032930646 -0.13406353 -0.14537336 -0.0012116677 -0.1535496 -0.18116748
0.10026984 0.15153657 -0.033486247 -0.17555514 0.09467318 0.060556207 0.03125162 0.07794609
-0.028985197 0.067163475 -0.007145292 0.024410008 0.02344497 0.093255624 0.06405795 -0.04159052
-0.07436252 0.1203476 -0.019803679 0.06723407 -0.006848702 0.11746502 -0.082620665 0.23078638
-0.024605906 0.04491627 0.061616443 0.068035506 -0.08548939 -0.058562074 0.018593974 0.027580783

bias f4 [10]
00000000: 9206 13be 35e5 b2bd b53d 59bd 923a 89bc
00000010: 5081 d63d e3c3 d4bd 8eed d1bc cf59 c63c
00000020: 7414 0bbd 5363 9ebd
-0.14357975 -0.08735124 -0.053037364 -0.016751561 0.10473883 -0.10388925 -0.02562597 0.024212746
-0.033955052 -0.07733788
