project01/first_train/snn_8.pth (torch, 587335 bytes, 10 tensors)

weight f4 [32, 3, 5, 5]
-0.074622184 -0.1574502 -0.22105917 -0.1576624 0.017123945 -0.11861812 -0.06503547 -0.12144645
0.045606207 -0.06856323 0.081551015 0.111769125 0.067863055 -0.047201514 -0.10610124 -0.05560955
0.036250867 -0.02085048 0.07647047 0.11267731 0.13696907 0.022655256 0.14322567 0.056839187
0.07778264 -0.033407476 -0.09780775 -0.16608864 -0.1543325 -0.001529354 -0.019177003 -0.009000156
0.041003786 -0.018570753 0.051078066 0.13692203 0.049832676 0.078242026 -0.045582525 0.0071864063
0.07202543 0.118497 0.11762782 0.1347953 0.0371434 0.034671113 0.120851 -0.031908292
-0.03595837 -0.06505373 -0.056712765 -0.007638119 0.061116274 -0.13151027 -0.011994114 -0.013680148
0.0736451 -0.106055126 0.022275867 -0.002090965 0.1278213 -0.023985902 -0.055745415 -0.102273844
0.056133844 0.14124668 0.059955448 0.16661331 0.004581376 -0.045069706 0.14164597 0.061086092
0.009081098 0.019685103 0.0072557656 -0.06516345 0.13091883 -0.09073638 0.0397954 0.013155502
0.043260183 -0.03739742 0.027260022 -0.101687 0.021252241 0.16244721 0.024353364 -0.12953226
-0.19655395 0.016707513 0.12590748 -0.04050132 -0.024740335 -0.11064362 0.1861353 0.079019584
0.008424558 -0.09644064 -0.030442998 0.16852617 0.13324724 -0.030899772 0.03892437 -0.0036888302
0.032783747 0.09696259 0.07137874 0.05678883 0.016501866 0.07720188 0.085661985 0.05868026
-0.060242996 -0.17176981 0.16073628 0.11775058 -0.0850338 -0.15296505 0.0057218266 0.18294246
-0.07347889 -0.019590678 0.006954591 0.12616001 0.06516018 -0.12095709 0.020665914 -0.060811937
-0.100996524 -0.06422627 -0.0642505 0.043104578 -0.13866451 -0.13971436 -0.015383184 0.10538661
0.08096085 -0.20314151 -0.18040936 0.022567838 0.0017011961 -0.11602173 -0.1670778 -0.086690284
0.13620807 -0.11089793 -0.16167897 -0.21324606 -0.0047664903 0.13390496 -0.09437616 -0.109800346
-0.036290426 -0.04799256 -0.13688163 -0.13322498 -0.06629288 -0.03119033 -0.101316385 0.014777848
-0.02927919 0.13882506 0.123259395 -0.06136133 0.008853071 0.14320679 0.15388677 0.0804724
0.11253395 -0.10997544 -0.11356725 -0.07059513 -0.08535348 -0.037188977 -0.018569168 0.121038824
0.06966762 0.09133197 0.079409234 0.0042702346 -0.03217791 -0.09446711 -0.08052191 0.04253621
-0.05971054 0.085119545 0.14026472 0.08831216 -0.013808442 0.020822516 0.11174431 0.15732184
0.00064554025 0.15381612 0.09983444 -0.04746247 -0.097575255 -0.1424831 -0.099348456 0.00070706377
0.06866665 -0.07258108 -0.029192463 -0.11081839 0.0996921 -0.07860845 -0.16928276 -0.1498808
-0.018618457 -0.13150759 0.10999697 0.08231745 0.13942596 0.036860943 0.101232715 0.071897805
-0.02881245 0.09506813 0.07833955 0.01778196 -0.12623665 -0.08826773 -0.0067834267 -0.012759891
0.040189173 -0.10459714 0.04052363 -0.037535165 0.058285132 -0.0024794333 0.011177784 -0.009864655
-0.06434767 0.040861093 0.0884117 0.022763994 -0.17771465 0.085915655 0.050116234 -0.083346434
0.012862776 -0.090314984 0.015672285 0.094682135 0.11431035 -0.039258834 0.018297823 0.070809364
0.09116887 0.04706487 -0.019499628 0.03246998 -0.058568154 -0.024443874 0.09590606 0.049618896
00000000: 84d3 98bd a03a 21be 565d 62be 4172 21be
00000010: 8447 8c3c 0fee f2bd 5131 85bd ebb8 f8bd
00000020: 93cd 3a3d e16a 8cbd 3804 a73d 36e7 e43d
00000030: c9fb 8a3d 6056 41bd 9b4b d9bd d7c6 63bd
00000040: ca7b 143d a0ce aabc 8d9c 9c3d 5dc3 e63d
00000050: 9f41 0c3e 8497 b93c c0a9 123e 35d0 683d
00000060: 814c 9f3d 47d6 08bd 6e4f c8bd 2413 2abe
00000070: 5709 1ebe 9b74 c8ba 1719 9dbc 6475 13bc
00000080: 96f3 273d b121 98bc 3c37 513d 4a35 0c3e
00000090: 591d 4c3d 5b3d a03d beb4 3abd f27b eb3b
000000a0: 1282 933d 8eae f23d dbe6 f03d c707 0a3e
000000b0: ae23 183d 4c03 0e3d bb80 f73d 45b2 02bd
000000c0: 1549 13bd e43a 85bd a54b 68bd 3049 fabb
000000d0: 0f55 7a3d a1aa 06be f682 44bc b322 60bc
000000e0: 3ed3 963d 6e33 d9bd e17b b63c 9208 09bb
000000f0: 96e3 023e 157e c4bc 4e55 64bd f374 d1bd
00000100: 9aec 653d f8a2 103e d893 753d ae9c 2a3e
00000110: 5e1f 963b 039b 38bd a40b 113e 6935 7a3d
00000120: e3c8 143c a742 a13c c6c1 ed3b 6a74 85bd
00000130: 960f 063e ffd3 b9bd 8000 233d 2d8a 573c
00000140: 9731 313d 092e 19bd 6950 df3c 4641 d0bd
00000150: 2e19 ae3c 9058 263e b580 c73c 1ba4 04be
00000160: 7045 49be 32de 883c e4ed 003e b6e4 25bd
00000170: 3eac cabc 1f99 e2bd 419a 3e3e 05d5 a13d
00000180: 2807 0a3c ac82 c5bd 9863 f9bc 2092 2c3e
00000190: f771 083e 8521 fdbc 296f 1f3d 4dc0 71bb
000001a0: 4048 063d 5394 c63d 042f 923d 679b 683d
000001b0: ec2e 873c 051c 9e3d 8d6f af3d b65a 703d
000001c0: 5cc1 76bd 6de4 2fbe 0d98 243e 3727 f13d
000001d0: 3326 aebd dfa2 1cbe 297e bb3b 4555 3b3e
000001e0: 1a7c 96bd a17c a0bc 56e3 e33b 1730 013e
000001f0: b372 853d 5ab8 f7bd 904b a93c f015 79bd
00000200: 44d7 cebd 1089 83bd c495 83bd 6d8e 303d
00000210: 12fe 0dbe 4811 0fbe c009 7cbc efd4 d73d
00000220: cdce a53d 5404 50be 3bbd 38be 30e0 b83c
00000230: abfa de3a cd9c edbd 7116 2bbe ad8a b1bd
00000240: 217a 0b3e 741e e3bd 2c8f 25be 2d5d 5abe
00000250: 3830 9cbb 621e 093e 4a48 c1bd 01df e0bd
00000260: 45a5 14bd d993 44bd b32a 0cbe 216c 08be
00000270: 90c4 87bd dd82 ffbc f77e cfbd c91e 723c
00000280: e9da efbc 2828 0e3e 6c6f fc3d 0556 7bbd
00000290: 790c 113c cda4 123e 7e94 1d3e b7ce a43d
000002a0: 3378 e63d ce3a e1bd f295 e8bd 2e94 90bd
000002b0: cecd aebd 7853 18bd 5e1e 98bc 34e3 f73d
000002c0: e6ad 8e3d 420c bb3d 4fa1 a23d 53ed 8b3b
000002d0: fccc 03bd f977 c1bd ace8 a4bd 733a 2e3d
000002e0: 0a93 74bd 2853 ae3d 8ea1 0f3e 01dd b43d
000002f0: ce3c 62bc fb93 aa3c 33da e43d fa18 213e
00000300: 7939 293a f981 1d3e 0076 cc3d 0268 42bd
00000310: 89d5 c7bd 17e7 11be 3477 cbbd 3f5a 393a
00000320: 1aa1 8c3d 64a5 94bd 0825 efbc c1f4 e2bd
00000330: 5f2b cc3d 78fd a0bd 7658 2dbe 5a7a 19be
00000340: bc85 98bc eda9 06be 1746 e13d 0d96 a83d
00000350: aec5 0e3e 80fb 163d 1953 cf3d 283f 933d
00000360: 1608 ecbc 14b3 c23d 7c70 a03d 79ab 913c
00000370: 2e44 01be b6c5 b4bd 8247 debb dd0e 51bc
00000380: 679d 243d 0637 d6bd 1bfc 253d 79be 19bd
00000390: 64bc 6e3d fd7d 22bb 0623 373c 5d9f 21bc
000003a0: b6c8 83bd f65d 273d 3211 b53d 8e7b ba3c
000003b0: d4fa 35be 8cf4 af3d ae46 4d3d 89b1 aabd
000003c0: 65be 523c 10f7 b8bd 2a63 803c b5e8 c13d
000003d0: 8b1b ea3d dfcd 20bd 51e5 953c 8004 913d
000003e0: bfb6 ba3d 18c7 403d afbd 9fbc 3eff 043d
000003f0: 29e5 6fbd 853e c8bc 656a c43d 2f3d 4b3d

bias f4 [32]
-0.25421152 0.19444256 0.00854379 -0.08113564 -0.25163847 -0.018347247 -0.15974925 -0.040900897
-0.09851106 0.12669432 -0.04368627 0.096266314 0.2327783 0.055043012 -0.16897237 -0.058757406
-0.057868548 0.053942706 -0.058651637 -0.16304933 -0.21835025 0.033057105 0.024045726 0.14948018
-0.04014899 0.038303275 -0.06210074 0.36863795 -0.03003888 0.026457984 -0.1234995 0.07872639
00000000: 0328 82be f31b 473e 41fb 0b3c 712a a6bd
00000010: c2d6 80be f74c 96bc 4f95 23be b387 27bd
00000020: 2bc0 c9bd 28bc 013e 60f0 32bd 4627 c53d
00000030: 6f5d 6e3e c874 613d 1807 2dbe 9bab 70bd
00000040: 9207 6dbd 07f3 5c3d b33c 70bd 67f6 26be
00000050: 3597 5fbe e366 073d 8bfb c43c 5511 193e
00000060: 4473 24bd e5e3 1c3d 585d 7ebd 1dbe bc3e
00000070: 1914 f6bc 6abe d83c 4eed fcbd 4d3b a13d

weight f4 [32, 32, 5, 5]
-0.009921811 0.021880297 0.059244905 0.03169249 0.009884689 -0.03300286 -0.012185314 -0.027371127
-0.022404168 0.02071191 -0.04055878 -0.03750846 -0.049116276 -0.027294334 0.007918919 0.0258512
0.021674804 0.024859024 -0.0369504 -0.0061608003 -0.020575343 0.01949779 -0.013839986 -0.018759603
-0.044513892 0.0042026383 -0.03428486 0.019632002 -0.014980671 -0.016727425 0.0034071384 -0.035753045
-0.03658027 0.029292043 0.03509861 0.013806835 -0.02438769 -0.012221119 0.021060148 -0.016123807
-0.04715848 -0.031272337 -0.029067134 -0.040602602 -0.013892584 -0.0043298644 0.0041381475 0.0007572328
0.03241133 0.004822836 -0.01833838 0.022682915 0.029129438 -0.009283427 0.048789814 -0.0020268427
-0.025646709 -0.025324542 0.028630946 0.01601174 -0.041715205 -0.03645341 -0.014992728 -0.021939687
-0.003780758 -0.019871946 0.020543877 0.0038099762 -0.04125965 -0.025499638 0.016735848 -0.026589544
0.0014515145 -0.000540626 0.003614652 0.009747296 0.0219481 0.040517256 0.03727911 0.041710805
-0.023452945 0.022210488 -0.0035830669 -0.017856205 -0.0072651054 -0.03677481 0.02887587 0.018314177
0.029070383 -0.005468378 0.014714768 0.01806549 -0.0047533917 0.02964157 -0.03168804 -0.0011141663
-0.040150885 -0.015744098 0.01500843 -0.03428883 0.04307852 0.060084872 0.07388545 0.06316901
0.041416537 0.015661169 -0.009712357 0.029675426 0.034357503 -0.0087433355 0.0025506036 -0.025421789
0.011363144 0.02771182 -0.0056720125 -0.0029895783 0.010326092 0.022172054 -0.016022844 0.028287783
-0.026518786 -0.007333805 0.01834287 0.022827951 -0.027829364 -0.0036682782 0.032852124 0.046373278
0.006408703 0.005416253 -0.019455468 0.0133519145 -0.00055341015 0.009983847 -0.004290285 0.0110530425
-0.02312306 -0.00021191288 0.026675668 -0.012180016 0.01982323 0.0155483605 -0.028066803 -0.015855864
0.014123049 -0.018271385 0.019684596 -0.040032856 -0.02047895 -0.031346492 -0.056819614 -0.04080755
-0.043722533 -0.046338253 -0.017899258 0.007281097 -0.047586974 -0.0009989424 -0.011552595 -0.05050739
-0.037308123 0.015458693 -0.013157473 -0.041094437 -0.049961377 -0.031173578 0.026951363 0.0071114353
0.020803994 -0.000882884 0.010260729 0.007497238 -0.017548714 -0.016575925 0.01288499 0.034626998
0.025327802 -0.0054161977 0.0063400986 0.01952747 -0.023591708 0.006519324 -0.0015505947 0.036490444
-0.0132816825 0.0284335 0.0048625865 0.0028545563 -0.00022706432 -0.029630363 0.021165414 0.0049568843
0.016867213 0.026278421 0.009482872 -0.0027204095 0.018799601 -0.017803645 -0.013205225 -0.027940484
-0.005502937 0.008290628 0.032439873 -0.02624226 0.03655641 0.045848314 0.037036836 -0.01095518
-0.01833348 0.040217992 0.027243461 0.057052035 0.03667231 0.0060837725 -0.020638924 0.028549839
-0.003627319 -0.0063234265 0.022629874 0.001782153 0.055002887 0.0151884565 -0.008684931 0.04419427
0.010588549 -0.047485705 -0.03765119 -0.015369254 -0.03570158 -0.04311675 -0.02701024 -0.009122059
-0.0520236 -0.031730805 -0.008769212 -0.03299168 -0.0064156204 -0.0018452286 -0.041549217 -0.030828716
-0.038261585 -0.03352976 0.019328222 0.01227738 -0.016120825 0.021837091 0.033837575 -0.011004305
-0.03245445 0.026984164 0.019006848 -0.001563688 0.028535565 0.045896042 -0.015103064 0.016204694
00000000: 178f 22bc 4f3e b33c c9aa 723d fccf 013d
00000010: 64f3 213c 022e 07bd e9a4 47bc 6a39 e0bc
00000020: f288 b7bc 06ac a93c f720 26bd 79a2 19bd
00000030: 262e 49bd 5e98 dfbc 5bbe 013c e5c5 d33c
00000040: 5c8f b13c 27a5 cb3c 4d59 17bd 8ae0 c9bb
00000050: 9f8d a8bc d4b9 9f3c 1cc1 62bc bdad 99bc
00000060: 3354 36bd 49b6 893b 486e 0cbd 4bd3 a03c
00000070: 7d71 75bc f407 89bc 4c4a 5f3b c971 12bd
00000080: 31d5 15bd def5 ef3c 8fc3 0f3d 1036 623c
00000090: b1c8 c7bc 173b 48bc 5586 ac3c 1316 84bc
000000a0: 4029 41bd 6c17 00bd 331e eebc ea4e 26bd
000000b0: b89d 63bc 89e1 8dbb 4c99 873b 0881 463a
000000c0: bec1 043d e108 9e3b 5f3a 96bc 85d1 b93c
000000d0: dca0 ee3c 8419 18bc d4d7 473d c7d4 04bb
000000e0: 0c19 d2bc 6a75 cfbc 728b ea3c 0d2b 833c
000000f0: 90dd 2abd 2c50 15bd 0fa4 75bc dcba b3bc
00000100: 98c6 77bb 7eca a2bc a24b a83c cbb0 793b
00000110: e1ff 28bd 9ee4 d0bc 9e19 893c 51d2 d9bc
00000120: bf40 be3a ccb8 0dba cce3 6c3b 1fb3 1f3c
00000130: 80cc b33c 6cf5 253d fbb1 183d f3d8 2a3d
00000140: 6420 c0bc c5f2 b53c e3d1 6abb 2d47 92bc
00000150: 1f10 eebb 2fa1 16bd 178d ec3c 9d07 963c
00000160: 0325 ee3c 1430 b3bb 3616 713c 14fe 933c
00000170: 57c2 9bbb e1d2 f23c 51cb 01bd 3809 92ba
00000180: 4175 24bd c4f9 80bc ebe5 753c 7272 0cbd
00000190: 1a73 303d 8e1b 763d 4151 973d c15e 813d
000001a0: 63a4 293d da4b 803c 9420 1fbc e119 f33c
000001b0: 74ba 0c3d 3540 0fbc 0728 273b 5b41 d0bc
000001c0: 7b2c 3a3c e603 e33c 4adc b9bb cdec 43bb
000001d0: c52e 293c 2ba2 b53c 5742 83bc c8bb e73c
000001e0: ed3d d9bc 6a50 f0bb c943 963c af01 bb3c
000001f0: 68fa e3bc 7f67 70bb f38f 063d e8f1 3d3d
00000200: 1900 d23b d37a b13b 1361 9fbc fdc1 5a3c
00000210: ba12 11ba 4a93 233c 8595 8cbb d217 353c
00000220: 926c bdbc ee34 5eb9 ee86 da3c b18e 47bc
00000230: 5464 a23c 8dbe 7e3c 5aec e5bc 28e4 81bc
00000240: 5c64 673c dfad 95bc 9741 a13c 7ef9 23bd
00000250: 79c3 a7bc 2e65 00bd afbb 68bd d125 27bd
00000260: 6616 33bd 2ecd 3dbd 77a1 92bc 4596 ee3b
00000270: 8fea 42bd f2ee 82ba 1847 3dbc d6e0 4ebd
00000280: 67d0 18bd 7546 7d3c 7192 57bc a452 28bd
00000290: 4da4 4cbd bb5f ffbc 1bc9 dc3c 0b07 e93b
000002a0: 236d aa3c 5871 67ba 9e1c 283c 64ab f53b
000002b0: 52c2 8fbc 3cca 87bc 911b 533c 0ad5 0d3d
000002c0: 407c cf3c 5c7a b1bb 9ac0 cf3b 13f8 9f3c
000002d0: 6643 c1bc 0ea0 d53b 533d cbba 0177 153d
000002e0: 6a9b 59bc 5fed e83c 5556 9f3b 8213 3b3b
000002f0: 1d18 6eb9 60bb f2bc 1763 ad3c 5c6d a23b
00000300: 1c2d 8a3c d845 d73c 0c5e 1b3c e648 32bb
00000310: 9f01 9a3c f3d8 91bc ba5a 58bc 71e3 e4bc
00000320: fb51 b4bb 6ad5 073c acdf 043d 02fa d6bc
00000330: 2dbc 153d 71cb 3b3d f0b3 173d 5b7d 33bc
00000340: 1830 96bc 9fbb 243d ae2d df3c 65af 693d
00000350: b435 163d 625a c73b f612 a9bc 5ae1 e93c
00000360: 50b8 6dbb bf34 cfbb 4962 b93c 2297 e93a
00000370: b54a 613d 01d9 783c 3e4b 0ebc 0d05 353d
00000380: 987b 2d3c 5f80 42bd 2238 1abd 53cf 7bbc
00000390: d23b 12bd 309b 30bd 9444 ddbc b074 15bc
000003a0: b316 55bd 29f8 01bd beac 0fbc 4922 07bd
000003b0: 203a d2bb 99db f1ba 832f 2abd 818c fcbc
000003c0: 2eb8 1cbd 8056 09bd 3856 9e3c 1027 493c
000003d0: d20f 84bc b3e3 b23c 4599 0a3d 674b 34bc
000003e0: f5ee 04bd e50d dd3c 40b4 9b3c aaf4 ccba
000003f0: 6bc3 e93c 7dfd 3b3d d772 77bc b5bf 843c

bias f4 [32]
-0.011204413 -0.025142971 -0.037175223 -0.053950552 -0.0647914 -0.0031729587 -0.13423857 -0.06739839
-0.0940732 -0.12165981 0.06603399 0.005984678 -0.090354994 -0.0098541705 0.028927376 -0.04467248
0.029076893 0.072189406 -0.032720186 -0.061456986 0.10408136 0.023851838 -0.02254853 0.006370544
-0.060713723 -0.06783914 -0.045278784 -0.0066340114 0.014746345 -0.058250733 -0.0033736986 -0.06073247
00000000: b792 37bc a2f8 cdbc 0c45 18bd 41fb 5cbd
00000010: 5bb1 84bd 6af1 4fbb d675 09be 2b08 8abd
00000020: 73a9 c0bd c728 f9bd d43c 873d 1e1b c43b
00000030: 0a0c b9bd 6373 21bc 1bf9 ec3c 7efa 36bd
00000040: aa32 ee3c 0ad8 933d 9a05 06bd 52ba 7bbd
00000050: 9c28 d53d ee64 c33c b2b7 b8bc ffbf d03b
00000060: f4ae 78bd 3fef 8abd 3f76 39bd 1f62 d9bb
00000070: a79a 713c 5298 6ebd 4519 5dbb 9cc2 78bd

weight f4 [64, 32, 5, 5]
-0.015278992 -0.023206836 -0.003405163 0.012242473 -0.020908589 0.03446185 0.04145411 -0.012065442
-7.519862e-05 -0.025392115 0.031492908 0.027887162 0.055454493 0.05248042 -0.0013026255 0.014721006
0.010970297 0.008657421 -0.0149014 0.0014965888 -0.02125811 -0.020066882 -0.005188527 -0.018330425
0.0014055363 -0.042590827 0.004788367 -0.021870725 0.016434504 0.034997873 -0.010879949 0.010801513
0.0250756 0.00025025383 -0.013990993 -0.013031106 0.00041312294 -0.022387857 -0.013661963 0.0048140287
0.046444554 0.02385155 0.01838295 -0.0070708 0.004385983 0.027541583 0.022643184 0.021617325
-0.03029656 0.036966357 -0.009432306 -0.0031302914 0.0068067666 0.014881265 0.014023439 -0.01275382
0.02089911 0.02066424 -0.0063185925 0.02561536 -0.030822998 -0.046924625 -0.018716183 0.008264551
-0.009888381 0.033231445 -0.011208777 0.05011486 0.003449821 -0.029348342 0.03298352 -0.041714568
8.051491e-05 0.014953212 0.0026033355 -0.008198185 -0.015374027 -0.03366011 -0.030925555 -0.035637636
0.018671257 0.035711773 0.032789506 -0.037515223 0.020134328 -0.015620532 0.024605129 0.017649587
-0.021514677 -0.016847538 0.011850122 -0.025032885 -0.02966171 0.00018480334 -0.011285684 0.039996583
0.007756799 -0.029675653 -0.009192529 0.005842286 0.039501067 -0.006033826 -0.02589856 -0.039776925
0.008639389 0.006854813 0.04021313 0.022147918 0.016958252 0.020688588 -0.006890551 0.05730009
0.005077864 0.014977266 0.03404988 0.032502208 0.042378653 0.009859215 0.017910931 -0.015910486
-0.011988372 0.051120102 -0.01907654 0.0015642766 0.037751913 -0.03025204 0.037321698 0.021779671
-0.01767029 -0.018348522 -0.036450163 0.009651725 0.060950167 0.04301944 0.007853742 -0.00437289
0.0057170666 -0.02670266 0.037701633 0.032646134 -0.0036166029 -0.021460528 0.030500023 -0.01636118
-0.0045944746 -0.04154475 -0.034185044 -0.02923014 -0.053829946 0.0096132755 -0.02277717 0.051037744
0.0552438 0.0076476624 0.038763948 -0.015689766 0.025704863 0.07271616 0.038365103 0.01039822
-0.054462668 -0.05339716 -0.020988712 0.04073551 0.044651464 -0.03858328 0.021958916 -0.022384059
-0.0045021265 -0.01694247 0.022469318 0.031033482 -0.002718731 0.031041965 -0.016831191 -0.014786223
-0.00095101586 -0.04698725 -0.0056952364 0.009003809 0.0637563 0.05197843 0.0074999407 -0.010047004
0.023556156 0.014860267 0.011889794 0.049310684 0.02924465 -0.03636763 -0.029638834 0.035540387
0.050615128 0.006628577 0.007240875 -0.013207389 0.014222062 -0.0025087143 0.015990142 -0.01692626
-0.017219475 0.015843505 0.008181002 -0.009750819 0.011709215 -0.027746124 0.002676372 -0.0031988954
0.041600198 0.04640274 -0.019552179 -0.010052196 -0.016145555 -0.027424967 -0.04723576 -0.012983743
0.0097683985 0.018238267 -0.009571497 0.0008010269 -0.032810953 0.03206774 -0.001989539 0.027603395
-0.025588375 0.018035246 -0.013265898 0.018305274 0.009173955 0.021745997 -0.0072285337 -0.017586665
-0.006424239 -0.0010239375 0.0010707495 0.015025255 0.032941274 -0.009169335 -0.017862463 -0.025978776
-0.021090137 0.0123421755 -0.004818193 0.025244705 0.020345906 -0.018536758 0.003965717 -0.010789982
0.010632597 -0.032014776 -0.031487014 -0.021779759 -0.04513189 -0.014169771 -0.03080618 0.029878372
00000000: bd54 7abc 431c bebc 2829 5fbb a794 483c
00000010: 7d48 abbc de27 0d3d c9cb 293d 22ae 45bc
00000020: f4b3 9db8 2003 d0bc b5fe 003d 9e73 e43c
00000030: 4024 633d b5f5 563d dcbc aaba 6030 713c
00000040: c3bc 333c dbd7 0d3c 0025 74bc 3029 c43a
00000050: 7d25 aebc 4d63 a4bc 8504 aabb b029 96bc
00000060: f939 b83a b873 2ebd bce7 9c3b 3c2a b3bc
00000070: a7a1 863c ee59 0f3d d041 32bc d4f8 303c
00000080: 586b cd3c 8034 8339 7a3a 65bc 6c80 55bc
00000090: 6c98 d839 bd66 b7bc 6dd6 5fbc 00bf 9d3b
000000a0: a53c 3e3d 5364 c33c d797 963c 2bb2 e7bb
000000b0: 4bb8 8f3b e39e e13c 337e b93c d116 b13c
000000c0: 7e30 f8bc 096a 173d f589 1abc 9325 4dbb
000000d0: 4c0b df3b 8dd0 733c 91c2 653c 66f5 50bc
000000e0: 9c34 ab3c 0d48 a93c 320c cfbb 4ed7 d13c
000000f0: 8380 fcbc 0934 40bd ae52 99bc 0a68 073c
00000100: e002 22bc b21d 083d 05a5 37bc 3d45 4d3d
00000110: 6416 623b ef6b f0bc ba19 073d e5dc 2abd
00000120: 1dda a838 51fe 743c b99c 2a3b ae51 06bc
00000130: 58e3 7bbc 2fdf 09bd 9757 fdbc c5f8 11bd
00000140: 77f4 983c 8246 123d 4a4e 063d 90a9 19bd
00000150: bff0 a43c 43ed 7fbc b290 c93c de95 903c
00000160: 8c3f b0bc d903 8abc 0427 423c c411 cdbc
00000170: 1dfd f2bc c5c7 4139 97e7 38bc 75d3 233d
00000180: bf2c fe3b 5b1a f3bc 439c 16bc a670 bf3b
00000190: dfcb 213d 67b7 c5bb 3829 d4bc 21ed 22bd
000001a0: 398c 0d3c 579e e03b 86b6 243d 8d6f b53c
000001b0: 08ec 8a3c 1d7b a93c 22ca e1bb 80b3 6a3d
000001c0: 3664 a63b 3563 753c e377 0b3d 0921 053d
000001d0: 3d95 2d3d 8b88 213c f2b9 923c b556 82bc
000001e0: e06a 44bc 5063 513d 6746 9cbc 6a08 cd3a
000001f0: c0a1 1a3d 20d3 f7bc a3de 183d 486b b23c
00000200: 49c1 90bc a44f 96bc c44c 15bd 4522 1e3c
00000210: e2a6 793d 2735 303d fbac 003c 764a 8fbb
00000220: 3b56 bb3b 89bf dabc 076d 1a3d f4b7 053d
00000230: 8704 6dbb fdcd afbc 2fdb f93c e207 86bc
00000240: 3f8d 96bb d42a 2abd 9e05 0cbd 0c74 efbc
00000250: ca7c 5cbd 0081 1d3c 3097 babc f40c 513d
00000260: 5347 623d 3e99 fa3b f2c6 1e3d d387 80bc
00000270: 0193 d23c 36ec 943d ba24 1d3d 4c5d 2a3c
00000280: 3f14 5fbd fbb6 5abd 85f0 abbc 47da 263d
00000290: 74e4 363d 8009 1ebd 2fe3 b33c c65e b7bc
000002a0: 9386 93bb efca 8abc 9311 b83c ee39 fe3c
000002b0: bd2c 32bb b84b fe3c 91e1 89bc ea41 72bc
000002c0: 984d 79ba b475 40bd 1b9f babb b684 133c
000002d0: aa92 823d 56e7 543d 10c2 f53b 309c 24bc
000002e0: d7f8 c03c 7a78 733c 69cd 423c 00fa 493d
000002f0: 7a92 ef3c 39f6 14bd 24cd f2bc cc92 113d
00000300: cf51 4f3d 8934 d93b dd44 ed3b ce63 58bc
00000310: a703 693c 3e69 24bb c2fd 823c f1a8 8abc
00000320: db0f 8dbc 3dca 813c 9c09 063c e6c1 1fbc
00000330: 02d8 3f3c d74b e3bc 1266 2f3b 8fa4 51bb
00000340: f864 2a3d cd10 3e3d e42b a0bc f7b1 24bc
00000350: af43 84bc 53aa e0bc 497a 41bd c4b9 54bc
00000360: a20b 203c 6b68 953c c5d1 1cbc 01fc 513a
00000370: c764 06bd 7659 033d ed62 02bb 8420 e23c
00000380: b69e d1bc a7be 933c 3659 59bc f1f4 953c
00000390: 5b4e 163c a924 b23c 56dd ecbb e911 90bc
000003a0: 6c82 d2bb a435 86ba 6458 8c3a 7d2c 763c
000003b0: 6eed 063d fa3a 16bc 4d54 92bc 71d1 d4bc
000003c0: 39c5 acbc d636 4a3c efe1 9dbb fccd ce3c
000003d0: 75ac a63c 66da 97bc d8f2 813b 77c8 30bc
000003e0: 5834 2e3c ed21 03bd 87f8 00bd 776b b2bc
000003f0: 37dc 38bd 5428 68bc 3e5d fcbc 7dc3 f43c

bias f4 [64]
-0.03708209 -0.09106897 -0.003796395 -0.047771428 -0.054587036 -0.02968841 -0.07213758 -0.029234886
-0.039556 -0.022940414 -0.029040901 -0.019359477 -0.0133307325 -0.014556451 -0.0045051407 -0.008904953
-0.041336995 -0.048894487 -0.04415409 -0.031754944 -0.014503605 -0.052972917 -0.019364199 -0.06912405
-0.009756039 0.00058835186 0.024157334 -0.008497611 -0.05547829 -0.0033149228 0.028215338 -0.059606448
-0.05667973 -0.016642079 -0.009794281 0.0034739494 -0.06077623 -0.012946691 -0.015343538 -0.0026471594
0.005905347 -0.019149654 -0.012367832 0.0075079217 -0.055906158 -0.02151881 -0.015580589 -0.0020228974
-0.015336547 -0.0059753223 -0.09024382 -0.019294072 -0.032102045 -0.027000993 0.003500117 -0.031138152
-0.007100448 -0.04281186 -0.03268009 -0.083084255 -0.026281584 0.010506976 0.0014822376 -0.05506385
00000000: 64e3 17bd 5e82 babd f0cc 78bb f9ab 43bd
00000010: a896 5fbd 1c35 f3bc debc 93bd 007e efbc
00000020: 7905 22bd 89ed bbbc 2fe7 edbc c497 9ebc
00000030: 2569 5abc 2e7e 6ebc dc9f 93bb 14e6 11bc
00000040: fb50 29bd 9645 48bd ebda 34bd 7911 02bd
00000050: 87a0 6dbc 21fa 58bd aba1 9ebc e990 8dbd
00000060: cbd7 1fbc a03b 1a3a 9ae5 c53c 9039 0bbc
00000070: 343d 63bd 2d3f 59bb da23 e73c e425 74bd
00000080: 0129 68bd f854 88bc 3178 20bc 33ab 633b
00000090: 7ff0 78bd 5c1e 54bc 7663 7bbc f77b 2dbb
000000a0: a481 c13b bcdf 9cbc 72a2 4abc 0305 f63b
000000b0: dbfd 64bd 3748 b0bc ba45 7fbc 9692 04bb
000000c0: 2446 7bbc a3cc c3bb c0d1 b8bd 9a0e 9ebc
000000d0: 6f7d 03bd 3031 ddbc 3862 653b 7015 ffbc
000000e0: e0aa e8bb 7d5b 2fbd 8fdb 05bd 1428 aabd
000000f0: 7a4c d7bc 7425 2c3c a447 c23a a28a 61bd

weight f4 [64, 1024]
-0.0016671941 0.0058857175 -0.0022897122 0.018189622 0.01616568 0.027087238 -0.0197298 0.00051530835
0.025193378 0.027874462 -0.02583726 -0.012009489 0.029597078 0.010322774 0.013627485 0.01772511
-0.02373558 0.0057190326 0.018477991 0.012364195 -0.020743296 -0.011325141 0.01859175 0.018344248
0.011192338 -0.006836178 -0.02114083 -0.020430118 0.027771438 -0.017647574 -0.0064035538 -0.037740495
-0.018050462 0.021302916 -0.017418915 -0.008698285 -0.0103583755 -0.02817437 0.0015118584 -0.05247985
0.010630325 -0.015024369 -0.025635866 -0.001731999 -0.0013385263 0.040905084 0.020716751 -0.012138449
0.0024059662 0.00762242 -0.025421511 0.026550215 0.00078242127 -0.019030027 0.06733326 -0.024578605
-0.020349573 -0.021315023 0.03853858 0.01574998 0.017728455 0.016448138 0.042693473 -0.0068778596
-0.021858089 0.014685118 0.0014376059 -0.03216181 -0.009692148 -0.018302068 -0.06345744 -0.03255857
0.045577157 -0.024318326 0.00800887 0.016648069 -0.033946685 -0.009928648 0.012310057 -0.0060157725
-0.0078115864 0.018468263 -0.020960938 0.003834115 -0.042842228 -0.059021514 -0.019526152 0.019763486
0.005854031 -0.011304526 -0.0140459435 0.028888872 -0.04339633 -0.05339372 0.009133829 -0.0034924743
0.037875198 0.042614967 -0.0067439126 0.045809116 -0.025347937 0.021378092 0.03720283 -0.024066385
0.002972349 0.022145288 0.0009865304 -0.013805543 -0.03826008 -0.04801695 -0.009850965 -0.02609884
0.02652764 0.022473032 0.0075128553 0.04158471 0.039301764 0.024180854 -0.029509293 0.033346206
-0.0031089948 -0.0059129596 0.00023871848 -0.027618134 0.0029242598 0.022960505 -0.015833324 0.01872566
0.009205865 -0.018893255 -0.041588612 -0.020053199 0.01985655 -0.010984297 -0.0022001145 0.03194562
0.029465683 0.011501509 0.02269051 0.0061214743 0.0004483882 0.02521848 -0.008791043 0.04088909
0.01916029 0.013415036 -0.03865656 -0.0156212235 0.019420184 0.04475008 0.024227815 -0.01910854
0.022604322 -0.016367678 -0.0041227415 0.008877537 0.0043321303 0.01700696 0.0038253625 0.031948768
0.0031327796 0.0012188215 0.0026209976 0.038479254 -0.037231866 0.022418996 -0.0153542245 -0.008371235
-0.020859445 -0.028111277 0.01847107 0.01970325 0.006932899 -0.0063000373 -0.025141526 0.027809426
-0.019210082 0.0020685385 0.032076046 -0.019213991 -0.021052692 -0.016007472 0.025891395 -0.036615953
0.043206424 0.04243421 0.022966117 0.00054179016 -0.02873486 0.0035868294 0.02232044 -0.025242725
0.028260924 0.023181641 -0.03396623 0.042123165 -0.039395854 0.009037247 0.0105719995 0.013536108
0.00070338155 0.01132081 -0.0065391473 -0.019538067 0.01900347 0.024932522 0.007808095 -0.024953593
0.001559517 -0.025091695 -0.012641846 -0.016878517 0.01068863 -0.009893277 0.007357966 -0.004019462
-0.016027976 0.05672999 0.004057945 0.0265101 -0.0036863522 -0.002643178 0.037136745 -0.026521228
-0.0042511583 -0.011889287 0.029464323 0.011438474 -0.04417036 -0.016246438 0.014188538 0.014609581
-0.014157117 -0.032060094 -0.016888248 -0.017090302 0.004164687 0.02695091 -0.01890992 -0.02008809
-0.01414673 -0.0059767533 -0.009152054 0.03380111 0.00492848 0.019551303 0.025425097 -0.025836013
0.030294674 0.04483521 -0.003365281 -0.043593667 -0.013019652 -0.0013121191 0.03312197 0.03603552
00000000: c085 daba fadc c03b ff0e 16bb 6702 953c
00000010: e36d 843c 0ee6 dd3c 64a0 a1bc c215 073a
00000020: 5862 ce3c fc58 e43c a9a8 d3bc 73c3 44bc
00000030: 9275 f23c da20 293c d145 5f3c 4034 913c
00000040: 1e71 c2bc b966 bb3b 285f 973c 3193 4a3c
00000050: d8ed a9bc 168d 39bc ba4d 983c ad46 963c
00000060: 1160 373c 0402 e0bb 892f adbc 105d a7bc
00000070: ed80 e33c a591 90bc e7d4 d1bb c795 1abd
00000080: 90de 93bc 7483 ae3c 1db2 8ebc 4083 0ebc
00000090: 2db6 29bc f0cd e6bc 8d29 c63a 1cf5 56bd
000000a0: d12a 2e3c c528 76bc 4f02 d2bc 3e04 e3ba
000000b0: 7d71 afba 178c 273d 2db6 a93c 58e0 46bc
000000c0: 6aad 1d3b 7ec5 f93b c640 d0bc d67f d93c
000000d0: 671b 4d3a dce4 9bbc 05e6 893d 1259 c9bc
000000e0: 26b4 a6bc d89c aebc a1da 1d3d 1a06 813c
000000f0: 443b 913c 3fbe 863c 5adf 2e3d ab5f e1bb
00000100: bc0f b3bc d999 703c 0d6e bc3a 1abc 03bd
00000110: d1cb 1ebc 38ee 95bc f9f5 81bd 235c 05bd
00000120: 1daf 3a3d 3a37 c7bc a337 033c 8861 883c
00000130: ae0b 0bbd c5ab 22bc 1fb0 493c f51f c5bb
00000140: 56f8 ffbb c14a 973c 46b6 abbc c745 7b3b
00000150: 557b 2fbd 8bc0 71bd 4ff5 9fbc 09e7 a13c
00000160: 2cd3 bf3b 9e36 39bc f520 66bc 5ba8 ec3c
00000170: 5ac0 31bd 60b3 5abd 0ea6 153c ffe1 64bb
00000180: 0623 1b3d 088d 2e3d 0afc dcbb 57a2 3b3d
00000190: 7aa6 cfbc 1c21 af3c ff61 183d de26 c5bc
000001a0: becb 423b 096a b53c 784e 813a a530 62bc
000001b0: 9ab6 1cbd 6cad 44bd f165 21bc 3ccd d5bc
000001c0: 7e50 d93c 5d19 b83c 662e f63b bb54 2a3d
000001d0: e3fa 203d ed16 c63c 79bd f1bc 0896 083d
000001e0: 47c0 4bbb 80c1 c1bb 8150 7a39 6d3f e2bc
000001f0: f0a4 3f3b ab17 bc3c e3b4 81bc 8e66 993c
00000200: 32d4 163c 07c6 9abc d258 2abd 9b46 a4bc
00000210: 34aa a23c 7bf7 33bc cc2f 10bb 69d9 023d
00000220: 0462 f13c d370 3c3c 73e1 b93c a696 c83b
00000230: a515 eb39 fc96 ce3c 4f08 10bc 527b 273d
00000240: 0af6 9c3c bdca 5b3c 5756 1ebd 29f0 7fbc
00000250: 1417 9f3c dc4b 373d 6979 c63c 8389 9cbc
00000260: b32c b93c 8215 86bc 1018 87bb 1773 113c
00000270: 8bf4 8d3b 2e52 8b3c efb2 7a3b b6dc 023d
00000280: 524f 4d3b ddc0 9f3a 0bc5 2b3b 6c9c 1d3d
00000290: 7180 18bd 0ba8 b73c 4990 7bbc 8127 09bc
000002a0: 6de1 aabc 9f49 e6bc a450 973c b668 a13c
000002b0: 5f2d e33b 8b70 cebb 9af5 cdbc 98d0 e33c
000002c0: 765e 9dbc 5190 073b 2c62 033d a966 9dbc
000002d0: b276 acbc 1a22 83bc 311a d43c 9cfa 15bd
000002e0: 38f9 303d 7fcf 2d3d 7023 bc3c ec06 0e3a
000002f0: 5e65 ebbc 0311 6b3b 5bd9 b63c d5c9 cebc
00000300: 7483 e73c 6de7 bd3c 2c20 0bbd 5789 2c3d
00000310: 8c5d 21bd f610 143c 2e36 2d3c 8dc6 5d3c
00000320: 2363 383a eb7a 393c 5846 d6bb 4c0e a0bc
00000330: 2aad 9b3c 4a3f cc3c 0cdb ff3b 7a6b ccbc
00000340: b568 cc3a 198d cdbc bf1f 4fbc d144 8abc
00000350: 5d1f 2f3c 6917 22bc 181b f13b b1b5 83bb
00000360: 1a4d 83bc b55d 683d 83f8 843b b62b d93c
00000370: ba96 71bb 2b39 2dbb b31c 183d 0c43 d9bc
00000380: 4d4d 8bbb 49cb 42bc 2a5f f13c 7068 3b3c
00000390: fbeb 34bd 4017 85bc 0b77 683c 065d 6f3c
000003a0: 41f3 67bc 7251 03bd 3959 8abc f600 8cbc
000003b0: ed77 883b 28c8 dc3c fae8 9abc c78f a4bc
000003c0: b0c7 67bc a4d8 c3bb 7ff2 15bc 0873 0a3d
000003d0: 167f a13b 0e2a a03c 4b48 d03c 0ca6 d3bc
000003e0: 892c f83c 20a5 373d 0c8c 5cbb 468f 32bd
000003f0: 6150 55bc 69fb abba e7aa 073d fb99 133d

bias f4 [64]
-0.012470872 -0.03347508 -0.009624746 0.011820163 -0.03520673 0.008621756 -0.0015297547 -0.003289273
0.03712753 -0.017403819 -0.0032795174 -0.0021141504 0.031987604 -0.028335605 -0.043310624 0.0048466376
0.015940398 -0.0101163685 0.02061742 0.025076976 -0.018544225 -0.0028222909 0.006898397 0.05570741
-0.011646993 0.022915706 -0.034332953 -0.022832587 -0.042307608 -0.04663523 -0.059755795 0.02638739
0.018265486 0.007449143 -0.0025713067 0.010448635 0.0014798077 -0.01690261 -0.072565325 0.02706557
0.018020168 0.011224935 -0.021451138 0.025655335 0.03590419 -0.0093048755 -0.0006339895 -0.006708091
-0.006390417 0.017003316 0.020943923 -0.0035744642 0.023437697 -0.021411506 -0.06294376 -0.008328645
-0.008128719 0.010283101 0.059128184 -0.027085965 -0.006112934 -0.009615099 0.025848791 -0.031943623
00000000: a152 4cbc 2a1d 09bd 1cb1 1dbc 5ba9 413c
00000010: ef34 10bd 4442 0d3c 0d82 c8ba d890 57bb
00000020: 0913 183d 7492 8ebc 2ced 56bb 8f8d 0abb
00000030: 6f05 033d 1220 e8bc 7b66 31bd 8bd0 9e3b
00000040: 7095 823c 20bf 25bc dde5 a83c 3b6e cd3c
00000050: 0fea 97bc 2ff6 38bb f30b e23b 742d 643d
00000060: 08d3 3ebc b8b9 bb3c b6a0 0cbd 680b bbbc
00000070: be4a 2dbd 9504 3fbd 7ec2 74bd 5e2a d83c
00000080: 80a1 953c f117 f43b 5e83 28bb c030 2b3c
00000090: 1bf6 c13a 5877 8abc 219d 94bd 9db8 dd3c
000000a0: 089f 933c cae8 373c 4cba afbc 232b d23c
000000b0: 4610 133d 7a73 18bc 5132 26ba 8ccf dbbb
000000c0: b466 d1bb 8a4a 8b3c 9792 ab3c 8f41 6abb
000000d0: 6a00 c03c 2f67 afbc a8e8 80bd de74 08bc
000000e0: 522e 05bc 747a 283c 6530 723d 63e3 ddbc
000000f0: 024f c8bb a688 1dbc d8c0 d33c 51d7 02bd

weight f4 [10, 64]
-0.013485824 0.03963593 -0.052129533 0.12545478 -0.03833252 0.15649925 -0.05793876 0.06303736
-0.1434802 0.1350854 0.04205312 -0.059898272 -0.07617135 -0.0075391377 0.115908876 0.13147424
-0.18642181 0.08650563 -0.16692033 -0.15071209 -0.15394334 -0.058784045 0.061490107 0.054530606
0.07170966 0.15932544 -0.17459168 0.1461657 -0.048217822 0.13152406 0.19583002 0.11090715
-0.05159616 0.08065607 -0.070989475 0.06379557 0.028597431 -0.10867364 0.17260611 -0.07524959
-0.051933493 -0.0064945617 0.16335355 -0.12476411 -0.10728949 -0.10239336 -0.14031214 -0.047949348
0.1578533 0.001692392 -0.060624074 -0.052627366 -0.008403354 -0.19152924 0.012334731 0.123769015
0.20810202 -0.11906132 -0.17587373 0.13279633 -0.17300826 0.014257595 -0.16875465 0.0732591
-0.13327964 0.22903667 0.21211685 0.06775759 0.1310565 -0.19183896 -0.11564075 0.0906756
0.02905498 -0.19588758 -0.07552402 0.019685738 -0.22540887 -0.05821625 -0.18963908 0.10147074
-0.15134022 -0.16615465 -0.10267868 0.010072299 -0.12246946 -0.20315485 -0.16875848 0.0839812
-0.16545863 -0.19204073 -0.00886127 0.18502344 0.08273571 0.27747968 -0.046820715 0.038823448
0.15638067 0.002395429 -0.2666043 -0.10935161 -0.062164675 -0.10765514 -0.07749882 0.24154732
0.16071439 0.008678604 -0.24159177 0.11901492 -0.0892387 -0.10686833 0.0050543514 0.014913813
-0.06538765 0.105929494 0.2328961 -0.22833838 -0.15892422 -0.092891626 0.19370683 -0.13918105
-0.20319325 0.076713555 -0.08416721 -0.03323531 0.14773433 -0.040603336 -0.19493456 0.14652084
0.1804771 -0.100135 -0.08642884 -0.029548293 0.103613056 -0.073316514 -0.019850336 -0.15481192
0.16254772 0.1246866 0.15767476 0.11657477 -0.008648739 -0.18624128 -0.017232329 0.025227629
0.17736158 -0.06648376 -0.12415152 -0.04750097 -0.03667428 0.14083871 -0.06991872 -0.0399724
-0.081717044 0.14697112 -0.16188392 -0.13372055 0.08803571 -0.18494569 -0.12934911 -0.11924008
0.019234737 -0.04435624 -0.075450525 -0.05089568 -0.062017605 0.1670354 -0.005458783 -0.23861918
-0.090411015 -0.018857589 0.15714137 0.00020755186 -0.11885641 0.1447461 0.13901919 -0.17152089
0.15645075 -0.008955268 -0.11831311 0.13326041 -0.020675728 -0.07515669 0.19350202 -0.015175756
0.24170099 0.13820481 0.08504193 0.028968569 -0.22066371 0.0908239 -0.10642689 -0.036457952
0.16374977 0.011248932 -0.0121303685 0.06175027 -0.01769603 -0.12812302 0.13143992 -0.07740278
-0.041230354 -0.065165885 0.15043262 -0.037223063 0.030755265 0.03974623 -0.001504161 -0.17314978
0.16876225 -0.032447863 0.092918545 0.019112743 0.108690344 0.1847639 0.025367184 0.12612423
0.08537211 -0.08875063 0.03262611 -0.12660712 -0.15664583 0.0009788333 -0.1488292 -0.18264405
0.10151067 0.155545 -0.031196555 -0.17466605 0.10100002 0.05337556 0.034651134 0.083762825
-0.03110698 0.0653898 -0.003914278 0.020785384 0.03346786 0.08899072 0.05931292 -0.042611994
-0.077105135 0.12658313 -0.026069751 0.07254988 0.0012200197 0.12129011 -0.09218312 0.24516016
-0.03189501 0.038431063 0.06299988 0.067120284 -0.09066841 -0.06583613 0.021339267 0.030311542
00000000: a5f3 5cbc 4959 223d c785 55bd 3877 003e
00000010: 8f02 1dbd 5741 203e 3151 6dbd bb19 813d
00000020: 79ec 12be d453 0a3e e43f 2c3d e457 75bd
00000030: baff 9bbd df0a f7bb a261 ed3d 2fa1 063e
00000040: 5ce5 3ebe dd29 b13d 2aed 2abe 4554 1abe
00000050: 53a3 1dbe 8ac7 70bd 0ddd 7b3d 7c5b 5f3d
00000060: 84dc 923d 3526 233e 29c8 32be 76ac 153e
00000070: 0d80 45bd 3eae 063e aa87 483e 4a23 e33d
00000080: 7f56 53bd 022f a53d ee62 91bd 40a7 823d
00000090: 2945 ea3c 4990 debd a8bf 303e 751c 9abd
000000a0: 37b8 54bd 55d0 d4bb 2746 273e 5384 ffbd
000000b0: 98ba dbbd 9cb3 d1bd fcad 0fbe 8966 44bd
000000c0: 4ca4 213e 41d3 dd3a f350 78bd cb8f 57bd
000000d0: 39ae 09bc 3e20 44be 9d17 4a3c 9c7a fd3d
000000e0: b218 553e 6cd6 f3bd 3e18 34be c3fb 073e
000000f0: 1429 31be b098 693c 05ce 2cbe de08 963d
00000100: 757a 08be 9788 6a3e 2935 593e 7ec4 8a3d
00000110: ad33 063e 6f71 44be 0fd5 ecbd 21b4 b93d
00000120: b604 ee3c c196 48be 56ac 9abd fc43 a13c
00000130: 95d1 66be 2a74 6ebd bf30 42be e4cf cf3d
00000140: eef8 1abe 7224 2abe 3349 d2bd 4906 253c
00000150: 45d1 fabd d307 50be 06cf 2cbe 56fe ab3d
00000160: fd6d 29be 53a6 44be dc2e 11bc c976 3d3e
00000170: 5771 a93d d111 8e3e 14c7 3fbd 5605 1f3d
00000180: 4122 203e a1fc 1c3b 5c80 88be bdf3 dfbd
00000190: 63a0 7ebd 4c7a dcbd b4b7 9ebd 2e58 773e
000001a0: 5092 243e b430 0e3c d563 77be 18be f33d
000001b0: c8c2 b6bd c8dd dabd f99e a53b 1159 743c
000001c0: f6e9 85bd 90f1 d83d 517c 6e3e 89d1 69be
000001d0: 08bd 22be f73d bebd 155b 463e 7a85 0ebe
000001e0: e411 50be ff1b 9d3d dc5f acbd c021 08bd
000001f0: ab47 173e af4f 26bd ed9c 47be 8f09 163e
00000200: fdce 383e 9413 cdbd 9b01 b1bd 430f f2bc
00000210: 1533 d43d f826 96bd 2c9d a2bc 0487 1ebe
00000220: e972 263e b05b ff3d 7e75 213e c1be ee3d
00000230: 71b3 0dbc 09b6 3ebe d02a 8dbc 2caa ce3c
00000240: 469e 353e a328 88bd 2743 febd 6190 42bd
00000250: c537 16bd 0638 103e 8c31 8fbd 19ba 23bd
00000260: 445b a7bd 997f 163e e6c4 25be 0aee 08be
00000270: 114c b43d 6762 3dbe 1874 04be 2534 f4bd
00000280: 2b92 9d3c e4ae 35bd ce85 9abd fd77 50bd
00000290: 2c06 7ebd 540b 2b3e 97df b2bb 9658 74be
000002a0: 6929 b9bd 3b7b 9abc abe9 203e 47a2 5939
000002b0: fd6a f3bd 5238 143e 0c5b 0e3e 2ca3 2fbe
000002c0: a034 203e 1eb9 12bc 254e f2bd 6b75 083e
000002d0: 2560 a9bc c0eb 99bd 6525 463e bca3 78bc
000002e0: 7780 773e 9085 0d3e 772a ae3d 7e4f ed3c
000002f0: abf5 61be e201 ba3d 57f6 d9bd ef54 15bd
00000300: 05ae 273e 714d 383c 74be 46bc daed 7c3d
00000310: 44f7 90bc ae32 03be 3098 063e 5985 9ebd
00000320: 29e1 28bd b175 85bd 020b 1a3e 3677 18bd
00000330: 77f2 fb3c f1cc 223d 4527 c5ba 2d4e 31be
00000340: 03d0 2c3e 0de8 04bd 144c be3d 5492 9c3c
00000350: 0b99 de3d bf32 3d3e d7ce cf3c b626 013e
00000360: 93d7 ae3d e4c2 b5bd f5a2 053d 4ca5 01be
00000370: c467 20be 324c 803a af66 18be 0b07 3bbe
00000380: d3e4 cf3d 3047 1f3e eb8f ffbc a8db 32be
00000390: 19d9 ce3d 55a0 5a3d 59ee 0d3d d88b ab3d
000003a0: 11d4 febc 16eb 853d 5843 80bb 1c46 aa3c
000003b0: 9815 093d c440 b63d 1bf2 723d ea89 2ebd
000003c0: 4ce9 9dbd 029f 013e 3b90 d5bc 0895 943d
000003d0: 11e9 9f3a f366 f83d 81ca bcbd 440b 7b3e
000003e0: 58a4 02bd e469 1d3d 1506 813d 5c76 893d
000003f0: 5cb0 b9bd 18d5 86bd b0cf ae3c e94f f83c

bias f4 [10]
-0.14299208 -0.08959664 -0.06023079 -0.016360873 0.11874293 -0.11136662 -0.02165467 0.022126673
-0.03031584 -0.08092842
00000000: 846c 12be 717e b7bd 90b4 76bd 3d07 86bc
00000010: 7e2f f33d 2f14 e4bd 2265 b1bc ff42 b53c
00000020: ed58 f8bc cdbd a5bd
