project01/snn.pth (torch, 8935 bytes, 2 tensors)

weight f4 [64, 3, 3, 3]
00000000: eed2 d9bd 90c5 003d 2c44 dfbd 40a9 c5bb
00000010: 12c7 05be c43e 5f3d 5a0e be3d 08c4 ff3c
00000020: 4ced 093d d804 0abd 12aa df3d 0968 003e
00000030: 2017 a13c 02ef 3cbe da8a eb3d 9079 2b3c
00000040: a0ee b8bc 08d3 e43c 8573 2e3e e581 273e
00000050: f248 813d a0c1 2e3d 37ea 44be 405d 53bb
00000060: 5039 02bd 9ae9 a13d a7f8 97bd 564b f63d
00000070: 6b62 143e c101 8dbd e77a 183e 3098 653d
00000080: 60f3 16bd 5d50 02be 2085 87bb 462e 853d
00000090: 20ae 0d3c 8219 c53d 1102 44be 97b5 363e
000000a0: cd3c 37be 154f 2d3e 102a 473d 8747 e2bd
000000b0: a9bc f1bd 7c45 f6bd 9731 3b3e f208 d43d
000000c0: 08a5 383d 7cd9 703d 5735 32be 2847 d13c
000000d0: 8c08 313d fff0 41be 7e66 f93d 2fdc 12be
000000e0: 3474 72bd cdd8 36be 0027 73bc b1eb dcbd
000000f0: 8014 d93c 70b6 d63c 0cb1 43bd 2857 59bd
00000100: d66a 823d f9ad 203e e9b5 02be e43e 06bd
00000110: e42d 4abd b9c3 bfbd 700d fa3c 501f 203c
00000120: 89fb 283e 0d45 383e 070a dbbd 22f4 873d
00000130: d0cb fdbc fa2e f13d c78b 3cbe 27f7 a4bd
00000140: 0f00 d6bd 52aa e73d 94e5 34bd d753 8abd
00000150: b029 19bd 4905 eebd 15a9 423e 0df6 253e
00000160: a871 40bd 7e38 963d 80c9 3d3b 3676 a53d
00000170: 63c0 2a3e a6b3 b53d 0079 4b3a 13f3 013e
00000180: 70b6 b13c 8a65 ab3d bb44 393e f03f 39bd
00000190: b321 bbbd b9d6 34be 8f1e 29be eb13 413e
000001a0: d92c 18be b07e 60bc 86f0 983d e931 05be
000001b0: 56a5 af3d f858 57bd 6b47 10be 6898 b13c
000001c0: c4d7 01be bdd7 443e b04e b5bc b239 9e3d
000001d0: 5440 503d c678 07be 48fc fc3c 3a42 bf3d
000001e0: 4985 afbd 704e ccbd 7082 b2bc 3821 56bd
000001f0: 3ea7 c43d 90ca a2bd 512f 313e 10d0 1d3c
00000200: da0a bf3d b571 bebd 0afe d2bd f86b 3a3d
00000210: 7de2 133e ebd1 19be 7e29 ee3d d913 b8bd
00000220: 91a1 bcbd 2e06 82bd b514 173e d6b7 c53d
00000230: 982b 653d 28f2 893c 2ada 3bbe d864 2c3d
00000240: 9851 613d 00c4 e2ba c0ff b73c 3a96 34be
00000250: 4acc e13d 48e2 14be 0f11 8cbd 5e21 e53d
00000260: 43b2 033e 78db 0cbe 2956 283e 00c8 3d3b
00000270: 3b12 f4bd 427d adbd 1080 afbd e055 243d
00000280: 007f 1c3a 0844 adbd d4b1 3b3d 03e6 92bd
00000290: e9ba 143e eccc cfbd 9425 23be 50c2 33bd
000002a0: cdd5 28be b225 9e3d 688e 18bd 0f07 3d3e
000002b0: 7633 be3d 5e5a b93d 54ab 1a3d 51b0 33be
000002c0: 6f47 36be 52e5 16be 33b1 083e a0a6 7c3c
000002d0: 267c 953d 0889 3bbe 2d71 273e 918e 1cbe
000002e0: 4075 f8bc 4a13 9f3d bfab 19be 0c06 623d
000002f0: b6b5 e83d 484b 8c3c 6b70 35be 82ee 06be
00000300: 68b2 aabc d02b 42bd c8af bcbc 1b1a 243e
00000310: ca89 e4bd 76b4 35be fe3d f93d 4162 433e
00000320: 3cc5 40bd ee24 3dbe 7071 1c3d d0e5 71bc
00000330: ead2 bfbd bb66 f8bd fb8d 233e 9c57 35be
00000340: 901e d13c 1c27 fdbd c013 003c fb87 0bbe
00000350: 2039 bcbb 93df 1f3e aac2 42be 457f 38be
00000360: 2095 753c ac6e 82bd dad6 c13d 90f4 463d
00000370: 20ee 2fbe 9bc6 433e 95ff 303e b27d b53d
00000380: 20cb 09bc 60e3 33be 8c22 523d 195d 103e
00000390: b1ec 34be 2e79 efbd a7cf 103e 7af2 db3d
000003a0: c0a2 efbb 2c77 2abe cc62 783d ea71 1fbe
000003b0: 2fcf 143e 25d4 03be 447d 25be 7e60 3bbe
000003c0: 1b1d 283e 5a21 2ebe 82ed a33d 5d95 2dbe
000003d0: e253 f83d 46a3 bd3d 98a7 5dbd 264e d43d
000003e0: 1032 76bc 52a7 b23d 805f 11bb 9c81 71bd
000003f0: 46b5 d63d b489 6cbd 7c21 7e3d d289 09be
-0.10635935 0.03143841 -0.10901675 -0.006032139 -0.1306422 0.054503217 0.09280081 0.031221405
0.03367357 -0.033696026 0.1092111 0.12539686 0.019664347 -0.18450549 0.11501093 0.0104659945
-0.022574723 0.027932659 0.17036255 0.16358145 0.06312741 0.042665124 -0.19229971 -0.0032251626
-0.03179294 0.07905884 -0.074204735 0.12026088 0.14490668 -0.068851 0.14890634 0.05605334
-0.036853194 -0.12725969 -0.004135743 0.065029666 0.008647472 0.09624006 -0.19141413 0.17842709
-0.17894287 0.16924699 0.0486241 -0.11048799 -0.11803562 -0.12024972 0.18280636 0.10353269
0.04507926 0.05880116 -0.1740316 0.025546625 0.04322104 -0.18939589 0.12177752 -0.14341806
-0.05919285 -0.1785614 -0.014840841 -0.10787142 0.026499033 0.02621004 -0.047776267 -0.053061634
0.063680336 0.15691365 -0.12764706 -0.03277482 -0.04936017 -0.09363503 0.030523986 0.0097730905
0.16502203 0.17995091 -0.10695272 0.066383615 -0.030980974 0.11776538 -0.18412696 -0.08054953
-0.1044923 0.11311783 -0.044164255 -0.067542724 -0.037393272 -0.11622102 0.19009812 0.16207142
-0.04698339 0.07334994 0.0028959215 0.080791876 0.16674952 0.08872156 0.0007761866 0.12690382
0.021693438 0.083689764 0.18092625 -0.04522699 -0.09137287 -0.17660035 -0.16515563 0.18855254
-0.14860858 -0.01370208 0.07467751 -0.1300732 0.08576457 -0.05257508 -0.14089744 0.021679118
-0.12679964 0.19222923 -0.022132248 0.07725848 0.050842598 -0.13229665 0.030882016 0.093388036
-0.08570344 -0.09975898 -0.021790713 -0.052277774 0.096022114 -0.07948792 0.17303206 0.0096321255
0.09328242 -0.09299032 -0.1030236 0.045513123 0.14441867 -0.15021484 0.11629008 -0.08988161
-0.09210504 -0.06348835 0.14753993 0.096542045 0.055949777 0.016839102 -0.18344942 0.04208836
0.055009454 -0.0017300844 0.022460818 -0.17635432 0.11025293 -0.14539444 -0.06839191 0.11188005
0.1286097 -0.13755596 0.16439117 0.002895832 -0.1191754 -0.08471157 -0.08569348 0.04012096
0.0005969852 -0.084602416 0.045823887 -0.071727775 0.14524426 -0.101465076 -0.15932304 -0.043886483
-0.16487809 0.077220336 -0.037245184 0.18459724 0.09287159 0.09050439 0.037761047 -0.17547728
-0.17800687 -0.14735916 0.13348846 0.015420586 0.0729907 -0.18313992 0.16351767 -0.1528876
-0.030329347 0.07767351 -0.15006922 0.055181548 0.113627836 0.01712574 -0.17718665 -0.13176921
-0.020837024 -0.047405064 -0.023033038 0.16025583 -0.11159094 -0.17744622 0.12170027 0.1908045
-0.047063097 -0.18471119 0.03819412 -0.014764264 -0.093664005 -0.12128969 0.1597213 -0.17709202
0.025527269 -0.12360975 0.007817209 -0.13626091 -0.0057441145 0.1561263 -0.19019571 -0.180173
0.014989167 -0.06368765 0.09464808 0.048573077 -0.17180681 0.1911873 0.17284997 0.08861865
-0.008410245 -0.17567205 0.051302478 0.14098014 -0.17668416 -0.11693035 0.14141713 0.10739608
-0.0073131025 -0.16647023 0.060641095 -0.15570799 0.1453216 -0.12873895 -0.16161066 -0.18298528
0.16417353 -0.1700491 0.080042854 -0.16951509 0.121253744 0.092596576 -0.054114908 0.10366468
-0.015026584 0.0872332 -0.0022182167 -0.058961496 0.10483794 -0.05774851 0.062043652 -0.1343148

bias f4 [64]
00000000: 8845 dfbd e0f4 5ebd 30e2 233c 9f20 253e
00000010: b96a 393e 835b 91bd c386 25be e069 4f3c
00000020: 003a 7ebd c0f8 2bbe 9653 1fbe 715f 96bd
00000030: acb8 16bd 1259 e33d fc04 743d 882a ecbd
00000040: c449 01be 00b4 1fbb cac6 b63d ce51 eb3d
00000050: 2945 23be 50f7 6fbc b16d 293e e04f 1e3d
00000060: cf49 e0bd 5aee cd3d 1a08 fc3d 3cc1 00be
00000070: 0020 78bb a067 883c 46ad b33d a1e2 39be
00000080: 2414 d2bd 92c5 0bbe 6fcc 393e 48bc cc3c
00000090: 6e2d d23d 89b5 073e bbd5 10be f0b1 433c
000000a0: 2072 5abd b68a dd3d 5272 1bbe c040 29bd
000000b0: 6cb6 3a3d 5871 813c 14fb 32bd 864e 93bd
000000c0: ccbb 76bd d097 0bbd 6952 28be ec3a 21be
000000d0: 3597 b8bd 68b1 113d 7811 833c 6667 a03d
000000e0: 56ef c93d 8002 4ebd 5cd1 b2bd d23b 17be
000000f0: 3fcc 12be 7c4f debd daa7 adbd e481 103d
-0.10901934 -0.05443275 0.010002658 0.16125725 0.18107118 -0.070975326 -0.16164689 0.01265952
-0.06206703 -0.1679411 -0.15559229 -0.07342423 -0.03679721 0.11100973 0.059575066 -0.1153155
-0.12625796 -0.0024368763 0.08924635 0.114902124 -0.15944351 -0.014646366 0.1654575 0.038650393
-0.10951578 0.100552276 0.12306233 -0.12573713 -0.003786087 0.016650975 0.08773284 -0.18152858
-0.10257748 -0.13649586 0.18144391 0.024992123 0.10262571 0.13252844 -0.14144032 0.011944279
-0.053331494 0.10817473 -0.15180328 -0.041321516 0.045584127 0.015801117 -0.043696478 -0.071927115
-0.06023769 -0.034080327 -0.16437687 -0.15745133 -0.090132155 0.03556958 0.01599954 0.07832222
0.09860103 -0.050295353 -0.087313384 -0.14768913 -0.14335726 -0.10855004 -0.08479281 0.035280123
